gmat/data/classification/vleo/30min-10000/mambaTimeSeriesClassificationGMATThrustsvleo.pt (torch, 59010 bytes, 12 tensors)

mamba.layers.0.mixer.A_log f8 [48, 32]
000000 38 91 6a 52 01 c1 ed bf ec d1 ce b8 b2 58 90 bf
       -0.9298102006619393 -0.015963356523302538
000010 7e 73 a3 6c 6e fc b2 3f 53 30 39 04 ee 09 f6 3f
       0.07416429664904275 1.377424255845672
000020 d5 8d 2e 40 5a c6 fe 3f 7f 62 f2 3a 7f e8 f7 3f
       1.923425913534506 1.4942619612321832
000030 e8 25 58 ff c5 68 f4 3f 24 11 18 fc 27 61 07 40
       1.2755794500720814 2.9224395460934307
000040 d1 76 6a 3f 94 5f 06 40 d4 e4 4e 57 0a b1 09 40
       2.7966694788327477 3.2114455052329536
000050 e8 7d a9 ce 5a 8a 09 40 46 f6 7c 31 9a 70 0c 40
       3.1925560136294173 3.5549816004047754
000060 9c 54 a2 42 9d 66 09 40 d9 f8 f5 e4 b3 63 0c 40
       3.1751046376981105 3.5486829650463787
000070 85 d9 18 76 0c a5 0e 40 3c d3 9d 46 36 94 0f 40
       3.8305901743253252 3.9473691479601296
000080 02 a5 5e 21 0c 89 0e 40 cb 09 36 c4 f9 6b 08 40
       3.8169176680572727 3.0527224854460875
000090 36 2d 4d e1 eb 3c 10 40 9f c8 19 5d 18 df 0f 40
       4.05949356111096 3.9839331887715868
0000a0 5e ca 0d 73 af bb 10 40 73 ce 59 d7 4c be 0d 40
       4.183286473957734 3.7179200004846336
0000b0 39 d6 27 37 a1 55 10 40 b3 3e 02 d8 bc 9b 10 40
       4.083622800642439 4.152087569367427
0000c0 07 2f 3e ed 6f 84 0e 40 fb ac 76 10 bc a5 09 40
       3.8146666082956275 3.205925110456176
0000d0 88 2a 89 33 c2 76 09 40 ad 6b ce 3d 42 a0 09 40
       3.182987597106436 3.2032513455028124
0000e0 43 ac db 80 89 cd 11 40 d6 81 36 73 44 42 12 40
       4.450719846160669 4.564714241220335
0000f0 20 fb a2 4c a6 38 0c 40 29 ff 83 81 22 03 0e 40
       3.5276609408605424 3.7515306585700228
000100 64 32 6f 4d 3e a7 b2 3f 58 05 23 02 02 21 ee 3f
       0.07286443129050607 0.9415292779669171
000110 7e 65 21 5c 33 d0 fc 3f b9 4a 70 c8 53 3f 01 40
       1.8008302306028265 2.155921522070767
000120 92 9f 04 74 db 4c 02 40 5d f4 81 e6 7d d3 02 40
       2.2875279487524915 2.353267479744814
000130 06 79 b1 d8 72 c9 05 40 ac 70 14 39 d4 27 0c 40
       2.7233635834846863 3.519447751938136
000140 16 ef 8e 8a b9 77 0c 40 69 04 9a 42 c5 ee 10 40
       3.5584593605871175 4.2331743628029495
000150 af 9e 6a bd ec d2 0d 40 c7 d2 96 87 2f 17 0c 40
       3.727990608040123 3.51132112435366
000160 17 e5 8f db 0a 85 0f 40 4a 1c e0 23 ea ff 0a 40
       3.939962115601371 3.374958305622873
000170 59 44 1a ec 37 40 0c 40 f2 a5 49 dd 6e ef 11 40
       3.5313566632762954 4.483821351642733
000180 51 a6 3b d7 59 b9 13 40 89 c2 c0 e6 38 be 0d 40
       4.931006777778365 3.7178819682670263
000190 d4 51 c4 a9 02 53 14 40 f3 40 0a e9 88 60 13 40
       5.08106484661808 4.8442722713955275
0001a0 9e eb c9 8d 1d d9 12 40 46 de ee 1c de bc 10 40
       4.7120268015377444 4.184441043929445
0001b0 23 f0 35 32 ec b4 11 40 29 18 6b a6 82 2d 12 40
       4.426682266752354 4.5444437029710025
0001c0 d9 48 bf e8 aa 81 10 40 5f 5c 5e 50 64 9d 0d 40
       4.12662852923878 3.7018514899059904
0001d0 46 34 47 65 db dd 0d 40 8d f5 c8 34 35 07 0c 40
       3.733328620181541 3.503519451506412
0001e0 08 83 44 c8 d9 d3 14 40 3f b5 0e 90 a4 dd 13 40
       5.206885461026793 4.966448069474892
0001f0 89 19 1f 52 06 83 0f 40 e0 33 7a 99 2c 39 0d 40
       3.9389768996945276 3.65291709808524
000200 69 16 48 22 06 29 d7 bf 7a 2e 1f 20 9b d7 e0 3f
       -0.3618789038449451 0.5263190867785419
000210 1a 3f 54 15 a8 43 ec 3f ac db b4 95 dd 7e f5 3f
       0.8832588593086002 1.343473038474012
000220 d7 e8 fb a0 81 0b fa 3f 4f e3 46 9a 7f 13 f8 3f
       1.6278091705740303 1.5047603632394446
000230 d1 5e cc ac 12 7e fc 3f 1f 14 ae 2a 54 38 06 40
       1.780779528611607 2.7775042852758953
000240 6b 66 cd b2 54 9b 01 40 5f d8 01 8a 7d dd 08 40
       2.2008451432164313 3.1081496030629263
000250 c7 03 14 d1 0e 1c 08 40 35 7c 2e 40 c9 1a 0b 40
       3.01370013563471 3.3880791677652504
000260 6c e7 4b aa 97 d6 05 40 84 6e 69 9f 9b 43 0d 40
       2.729781465951353 3.658011670498867
000270 d6 2a 7d 53 b2 e5 0c 40 9c a5 ad 6c 7e 28 0e 40
       3.612156536347679 3.769772385644229
000280 27 4a cf b4 f3 c5 0c 40 16 8b 1a 9d bf be 07 40
       3.596656239105204 2.9681389116025327
000290 23 a3 ab 60 db 0c 10 40 c7 50 58 24 5e ad 0f 40
       4.0125556092032495 3.9596522178127063
0002a0 bf 32 ca 77 ea a5 10 40 71 26 8a 24 8c a2 0e 40
       4.162027236667824 3.829368863550194
0002b0 4e a6 dd 07 99 38 10 40 2b 58 be 63 d1 50 11 40
       4.055271265891475 4.3289237580229765
0002c0 40 ce cb 2a 30 b9 0f 40 16 97 36 63 50 9c 0b 40
       3.9654239028402856 3.4513252020868874
0002d0 f3 3f bb cd c0 65 0d 40 f2 d1 b8 79 f3 93 0c 40
       3.674684150006209 3.5722417363669985
0002e0 3f 71 b8 b8 50 ef 10 40 ad a6 a2 35 c2 4a 12 40
       4.2337063658308685 4.573006475498613
0002f0 7d 58 b3 1e b2 6f 10 40 5d 89 7d 8d fc b5 10 40
       4.109077911087408 4.177721224581856
000300 26 43 12 53 32 dc db bf dc d8 47 28 ef 00 d3 3f
       -0.4353147326701666 0.2969320195546865
000310 a7 b7 ce b9 73 63 f2 3f bf 6f 46 47 97 1f f2 3f
       1.149280286608226 1.1327126297173746
000320 16 b3 57 f2 46 33 f6 3f 4f 54 3e 15 3a ad f8 3f
       1.3875188318735971 1.542291720373459
000330 16 81 52 20 0a 1d fe 3f 27 2b 6c 67 05 09 07 40
       1.8820897352780483 2.879404838551085
000340 d7 29 8e fb 86 65 02 40 ad 9a 34 df 45 7a 09 40
       2.2995738652000273 3.184703582566121
000350 eb 3c 58 57 d9 d5 07 40 25 c9 4e a5 50 28 0b 40
       2.979418451671895 3.3946850695293898
000360 8a b0 e8 5e 84 25 06 40 2d d0 6e 4a ff 5b 0d 40
       2.768318883396266 3.6699205222194196
000370 3a 45 ab 62 29 cd 0c 40 7b 75 35 16 cb b7 0c 40
       3.600176592685469 3.589742825991093
000380 09 4a ff 79 81 7f 0d 40 55 60 0d d7 4c 0a 09 40
       3.6872586756737786 3.1300293732602236
000390 40 62 f3 b3 96 fc 0f 40 b1 cc bd 45 4a 8d 10 40
       3.9983343180322493 4.137978639325568
0003a0 ee a2 8a 75 ee 73 10 40 34 9a 29 94 30 6e 10 40
       4.113214336954782 4.1076071882621825
0003b0 c2 19 ef 39 11 47 10 40 06 bd 6f ac 2e 8f 10 40
       4.069401650637191 4.139826483077973
0003c0 64 95 f0 d1 cb a2 0f 40 73 ef 6f 90 85 99 0b 40
       3.9544903184457088 3.4499617847595174
0003d0 5b 11 2c ee 73 75 0d 40 45 e2 27 df 1c 35 0c 40
       3.682350025863497 3.525933974651965
0003e0 6a be 79 2c 8f 1f 12 40 e7 9a 85 09 d8 ed 12 40
       4.530819601946499 4.732269428996665
0003f0 e7 03 85 71 f5 8c 0f 40 2b 13 c6 75 48 af 0f 40
       3.9438275212018996 3.96058742533423
000400 33 2c ac 06 f1 c8 b5 3f 82 f0 1a 02 d1 18 ed 3f
       0.08509737408546485 0.9092793503873653
000410 49 bb a9 aa d0 59 fa 3f a2 c1 0b 37 85 87 f6 3f
       1.6469275156520828 1.4080860281211263
000420 3b 1f 8b 64 9d dc fd 3f 27 34 d1 87 d6 89 00 40
       1.866361038921197 2.067303715774432
000430 d9 c0 96 3d 66 a7 ff 3f 51 97 46 45 6b 1a 0b 40
       1.978368988591731 3.387899914948243
000440 99 c4 c2 ae 00 d0 0c 40 75 bc c9 b6 d4 d3 0f 40
       3.6015638020695175 3.97843306353712
000450 83 f8 30 25 07 58 07 40 5e 93 fb 39 5f 3e 08 40
       2.917982378537148 3.0304550676250264
000460 cc 30 46 a3 96 bd 0d 40 d3 4d 8c 88 c2 b2 0b 40
       3.717572475032375 3.4622851054971107
000470 f1 69 d9 2b df fa 09 40 d0 47 08 e7 27 36 11 40
       3.247495977947658 4.302886590843585
000480 39 b7 45 37 27 1d 12 40 7d 7f 8d 7e f9 0a 0c 40
       4.528469909315214 3.5053586852008594
000490 79 a0 a9 b3 3a 91 12 40 61 17 94 37 48 62 13 40
       4.641825492122842 4.84597861138704
0004a0 a6 a1 be 1a f2 56 12 40 4d d6 d4 78 8e 1f 13 40
       4.5849079302646825 4.7808169250398125
0004b0 70 51 33 a8 7f 63 0f 40 1c 89 2d fd a6 44 10 40
       3.923583330217461 4.067043262390396
0004c0 50 53 cb ca ca 54 10 40 90 38 48 6c 15 b8 0e 40
       4.082804840717316 3.8398846110858997
0004d0 7c 08 79 9b f0 e5 0f 40 6d d3 ec 08 80 f6 0e 40
       3.9872753282843956 3.870361394622185
0004e0 95 17 25 38 00 b7 14 40 6a 87 6d 15 0d d4 12 40
       5.178711774124072 4.707081160364263
0004f0 2e 5f cb db ff 45 10 40 f2 9f ab d6 b3 56 0f 40
       4.068358835494832 3.91733520232446
000500 d7 d0 32 55 2f 67 ef 3f 92 22 fc 10 23 63 f1 3f
       0.9813458122285067 1.0867033637497667
000510 53 4a 79 70 d2 ed f6 3f e9 fd a0 9d 62 b6 f8 3f
       1.4330620187289653 1.5445276410463242
000520 de 9b 7d cc 82 02 f3 3f c7 07 9e 18 3b 2d 05 40
       1.1881130206982031 2.6470853732325597
000530 88 75 1b 38 cb 54 02 40 09 29 c5 6a 39 9e fb 3f
       2.2914032348041395 1.7261289759358667
000540 9d 2c a8 6c bb 2f 02 40 09 14 c9 5d 26 72 00 40
       2.273306702501556 2.05573724050419
000550 e7 e5 55 1e ee ae 04 40 49 14 84 42 17 cb 04 40
       2.5854151124919897 2.599165458350886
000560 08 a9 84 1f d3 11 06 40 c7 6f 91 52 92 46 03 40
       2.758703466640444 2.4094587755807626
000570 8c ac 8a e0 5f 59 08 40 a4 ea 18 7d 66 13 04 40
       3.043639902336116 2.509472825358289
000580 ba b7 90 9d 60 c8 02 40 db 84 73 79 be 58 07 40
       2.3478405294217426 2.918332051122531
000590 d8 ad e7 08 35 7a 06 40 a0 07 68 da 53 7d 05 40
       2.8096714683249324 2.686195093440759
0005a0 23 c0 1b a5 d9 35 08 40 3b a0 a7 78 d6 c7 0a 40
       3.0262940310567656 3.3475770403056493
0005b0 bf e3 98 01 28 e4 06 40 06 e5 5d 85 3a 74 08 40
       2.861404430845567 3.0567522448806157
0005c0 d0 60 20 40 8b c1 07 40 5d 47 f0 56 d6 11 08 40
       2.969503880489448 3.0087096016003856
0005d0 a4 7c b6 9e 35 ce 06 40 9a 71 75 7b 43 2d 08 40
       2.8506882094803405 3.022101368447875
0005e0 dc ad 7c e2 a0 73 09 40 fa 24 27 df 4d b8 0a 40
       3.1814592069911054 3.339992278463453
0005f0 93 35 29 b0 63 26 08 40 e4 d2 db 42 be d1 08 40
       3.0187448275161812 3.102413675626268
000600 71 a2 fc 71 17 73 c0 bf 4c 13 52 d0 90 f4 eb 3f
       -0.12851231637729968 0.8736042088281493
000610 8c 15 2f 5f c6 64 fc 3f 5c a7 f5 1f 9e 3e 00 40
       1.7746032446023916 2.030575036701448
000620 7d 08 f7 23 f3 60 ff 3f 07 8a ca 3b 2d 04 02 40
       1.9611693768388527 2.2520394011673974
000630 77 ad 22 7d 6b 5e 04 40 17 eb 05 83 7d 6d 08 40
       2.5461034561355365 3.0534620510274055
000640 a3 6f cc 92 c7 83 06 40 69 1f be a2 1e 38 0d 40
       2.81434549986257 3.65240218298634
000650 dc 21 2f ee c8 70 09 40 c4 a7 68 0d ae d7 0b 40
       3.180070744336474 3.4803124473155282
000660 13 26 11 31 80 c4 09 40 0f db 6f ca 04 fc 0c 40
       3.220947631202543 3.623056012667241
000670 2d c5 3c 13 1c af 0d 40 38 9a 77 2d e1 9c 0d 40
       3.710502767841396 3.701601367199398
000680 07 7b b8 cb 60 7e 10 40 b0 cc 50 42 05 3c 0b 40
       4.123416121611405 3.40430690583306
000690 b7 ae cc f9 db 0c 11 40 ed 9c d4 fd cf a4 11 40
       4.2625578910043975 4.410949674703471
0006a0 c0 bd ab 0e 10 65 0f 40 46 1e ab 45 48 85 10 40
       3.9243470331345804 4.130158508843641
0006b0 de 08 d5 59 ed 6b 0f 40 a1 c1 4f 71 a4 44 10 40
       3.9276988046777737 4.067033548825209
0006c0 e3 80 63 99 a7 05 0f 40 98 94 52 45 53 d9 0c 40
       3.877761076306443 3.606115857679992
0006d0 6e 0d f8 a4 81 02 0e 40 f9 70 0f 9f 20 a4 0c 40
       3.7512238395881274 3.580140345247966
0006e0 03 95 ff 62 c1 da 11 40 90 64 a8 24 26 8e 12 40
       4.4636283367628975 4.638817379739649
0006f0 17 66 7e 1e 1c 4c 0f 40 f8 f6 7a 12 c6 c8 0e 40
       3.9121630079578256 3.848034042718492
000700 eb 44 a9 84 87 e9 ca bf e0 02 48 54 10 c4 c9 3f
       -0.21025175073240318 0.2012958919076686
000710 38 e2 0c 0c 26 d7 c3 3f dd 08 0a b2 19 ad f1 3f
       0.15500331486124863 1.1047608332306063
000720 a5 25 3e 9c 2e 7e f5 3f 72 9c 72 6e 89 88 e8 3f
       1.3433061698181998 0.7666670949155459
000730 61 01 84 28 fa eb e3 3f 13 dc b7 d8 a5 63 00 40
       0.6225558081933223 2.0486561709508435
000740 ef b3 53 03 98 eb fe 3f d9 5e 77 3e 61 de 03 40
       1.9325180177650016 2.4835839157275186
000750 20 94 79 57 c9 98 09 40 32 d0 c3 e8 56 a2 09 40
       3.1996027788141106 3.2042673287160364
000760 e7 42 a2 fb 85 f2 fc 3f f9 3a 6f b1 ba 70 06 40
       1.8092098073431602 2.8050435888356984
000770 d6 66 bf ed 96 98 05 40 ba 8b 6d fa d4 00 0b 40
       2.699506623653046 3.375406223743508
000780 2b 4e 56 fb c3 20 0a 40 f4 94 83 12 a4 dc fd 3f
       3.2659988055909444 1.866367409057884
000790 4a 85 85 f0 fd b2 0c 40 ed b4 ba 39 4e cf 06 40
       3.5873984137294075 2.8512234220603347
0007a0 24 60 0a 04 4b 87 0d 40 17 aa 4e 62 c3 5f 08 40
       3.6910610500017516 3.0467593841797327
0007b0 b5 16 93 a6 0a 6a 08 40 b7 49 1b ba dd ae 0a 40
       3.051778127063552 3.3353838481500264
0007c0 06 67 13 90 59 d4 05 40 30 cf e7 83 c8 a1 00 40
       2.7286864524766115 2.07899573374916
0007d0 5e 20 83 db ae a2 03 40 ca 92 dc e4 71 62 01 40
       2.4544350766555416 2.1730687980474146
0007e0 52 48 68 17 41 72 0f 40 4e e1 b9 c8 a3 74 0e 40
       3.9307882145595068 3.8069530183530906
0007f0 52 f3 7e f8 5e e0 06 40 8b 54 68 58 d9 2c 08 40
       2.8595561422102174 3.0218989283408226

mamba.layers.0.mixer.D f8 [48]
000000 f9 fa fe 02 07 0a f7 3f c7 77 6e 8a bc b5 f3 bf
       1.439948093131248 -1.2318692595940648
000010 a4 fc ed 4c 98 e0 99 3f 33 ca c5 6b 90 6a bc 3f
       0.025270824141895645 0.11100103980224034
000020 43 06 83 77 bf aa ca 3f 54 cc 34 2c d5 d9 fb 3f
       0.2083358129075795 1.740681812935482
000030 38 6b 1b 7e a4 30 d1 3f 54 8d df c1 20 e5 f7 3f
       0.26859390559336616 1.4934394429372633
000040 f4 ce c2 1e 1d e1 d1 bf 46 4a b8 0e 17 f0 fa 3f
       -0.27936485294343005 1.6836157393451159
000050 93 53 c9 13 56 70 c0 bf f9 37 b0 07 ff 59 c6 3f
       -0.12842822996267653 0.1746214664021293
000060 87 d3 24 81 7f 37 e5 bf 52 84 b0 29 e7 8d e6 3f
       -0.6630246660557625 0.7048221410988253
000070 71 04 e1 4a 31 36 b0 bf 5b 52 ce bf 7b 75 f4 bf
       -0.06332691267108871 -1.2786824695987409
000080 4d 88 0f 5e 87 56 bd 3f 2b 3c 36 2e 39 76 d5 bf
       0.11460157438662684 -0.3353407813346531
000090 46 fe 16 0e f3 24 ad 3f c6 f5 38 af bc 2d da 3f
       0.05692252680773584 0.4090415679127911
0000a0 09 ac 74 d7 31 56 ad bf 08 64 b2 b2 c1 32 da 3f
       -0.05729823832583498 0.40934793902266664
0000b0 7a fc e9 0c c9 3a 01 40 2f 5b b5 62 50 08 e4 3f
       2.1537037857920582 0.6260148933314208
0000c0 4f 73 c7 b9 ef 9f d7 3f f8 de 47 5c 89 ed cf 3f
       0.369136744904428 0.24943654065986443
0000d0 9b f7 f6 3e e7 d5 d0 3f e3 54 48 55 64 e2 d4 bf
       0.26305562161348356 -0.3263178665959698
0000e0 1b 2a 2e 8c f2 18 e8 3f 2e db c7 79 b4 cb c8 3f
       0.7530453431984968 0.19371658274004616
0000f0 54 81 8c ed f1 ca d8 bf 76 10 0e ec d7 6c f1 3f
       -0.38738678167466856 1.0890731068512003
000100 e3 75 06 50 13 26 f7 3f c3 c1 3f 71 65 7e a8 3f
       1.4467957616792482 0.0478393269294233
000110 a5 77 f1 ea 62 68 e6 bf eb 18 42 ec d0 a0 fa 3f
       -0.7002424801573751 1.6642617443881658
000120 bd 31 b9 0f e5 34 d1 3f 63 5f 52 9a 24 66 d4 3f
       0.2688534406231858 0.31873431272969394
000130 43 55 09 04 37 6e fc 3f ce 49 1f cc 5d 88 f2 3f
       1.7769079358743773 1.1582925771259514
000140 ba cd ac 6c 84 29 c3 3f 8b af ef ec 1c 96 f2 bf
       0.14970450693509268 -1.161648679287256
000150 2b 85 63 a8 73 1f ea bf 33 57 2e f1 0b b8 9a 3f
       -0.8163393296091831 0.02609270724823105
000160 2c ad 63 2c 45 8e e0 bf ee 09 1e d3 a1 87 de bf
       -0.5173669688205442 -0.47702832810332907
000170 83 f7 20 47 6d ef e8 bf ee 21 1c 2d be d8 a0 3f
       -0.7792269124254151 0.03290361691148634

mamba.layers.0.mixer.in_proj.weight f8 [96, 6]
000000 ba 35 4c 19 24 8b d2 bf 47 31 11 98 28 75 eb 3f
       -0.2897424933479119 0.8580515832959826
000010 1d af 9a db 46 c0 da 3f 51 ca de d7 16 1b de bf
       0.4179856438229182 -0.47040339547235016
000020 3b cc 2a 05 da af dc bf ca cc ba 35 16 c1 d4 3f
       -0.4482331324063044 0.324285080404661
000030 17 e3 7f 89 03 ce d6 bf 2f 04 b6 76 c9 95 ee 3f
       -0.3563240854996805 0.9557845419477696
000040 be 2b ad 6a ce ba ca bf e6 bb 46 9c 98 1c da 3f
       -0.2088258763199899 0.4079953695426738
000050 00 e8 dd 6f 2c 12 d6 3f ea 8c 6c b0 e6 9f d4 3f
       0.3448592274140765 0.3222595904246207
000060 23 3e c6 28 49 3f a6 bf fb ac dc cf ef 81 c5 bf
       -0.04345158217176628 -0.16802785539162088
000070 b7 aa de c9 2c 62 97 bf c7 bc 53 08 0a 3a d8 3f
       -0.022835445233492204 0.37854243100350654
000080 a5 f5 8d 50 83 24 c1 bf c0 40 2f e8 98 02 a5 bf
       -0.13392678674055705 -0.04103544077190824
000090 c8 e0 16 15 1d 72 bf 3f fc 30 22 94 6a f0 d0 bf
       0.12283498539807447 -0.2646738478295132
0000a0 73 47 ff be f1 ca c4 3f 76 60 8c f2 da 45 d5 3f
       0.1624433691600263 0.332388626922245
0000b0 83 82 23 32 b3 e8 c7 3f 02 3d a4 b5 48 bd bf 3f
       0.18678893993548593 0.1239819949589567
0000c0 61 17 f4 90 d0 f9 b1 bf b7 21 db 5d 65 d1 e0 3f
       -0.07021811999228823 0.5255610306858703
0000d0 76 de 93 f3 47 b5 d0 3f 46 1b a2 d4 89 91 d3 3f
       0.2610645178496961 0.3057579590317129
0000e0 3f 66 6e 1d 74 e4 be bf 3d 8f 59 04 79 e5 ac bf
       -0.12067342489754028 -0.056438237935053405
0000f0 cf 97 ec 19 94 a9 c1 bf 95 37 56 ed f7 d7 d4 3f
       -0.13798762574987086 0.3256816690198943
000100 c5 42 25 36 2e fb b3 3f a8 62 79 48 c4 6c d9 bf
       0.07805146047509044 -0.3972635944133267
000110 1e ca 8c 1e f3 3b e4 bf c2 8a c3 52 72 47 e0 3f
       -0.6323180767706764 0.5087215057831929
000120 7e bb a9 bb 1b 11 98 bf b8 3b a7 6e 86 e2 e2 3f
       -0.023502763108293127 0.5901519929119479
000130 e4 e3 4a e7 68 c5 96 bf 0f 7e 8b 1c c9 2e c5 bf
       -0.022237433545090016 -0.16549028295320098
000140 ba bc 8d f9 fd 10 be 3f 27 c0 09 73 32 5a 83 3f
       0.11744677870386769 0.009449381004031988
000150 e7 fa 94 61 f6 15 d2 3f c8 ae e1 d2 e8 1a f1 3f
       0.2825904801319851 1.069069694286485
000160 33 be 40 40 51 5d df 3f 49 5f 74 12 6f 2b a2 3f
       0.49007064127633554 0.03548762417102453
000170 94 17 14 3d 01 49 d4 bf 28 d8 43 4e 62 3b e2 3f
       -0.3169558617086008 0.5697490242589582
000180 74 1c 77 dd cf e1 9f bf 77 5b 5e a7 68 de d5 3f
       -0.031134841816108552 0.3416997560938663
000190 a6 92 68 d1 83 10 d1 3f fe 50 7c 1d 02 66 b8 3f
       0.2666329903607142 0.0953065225588183
0001a0 c2 3c 2a 5d 91 ce a7 3f c6 9e 92 29 de ce 76 bf
       0.04649786245601596 -0.005568378278588864
0001b0 56 02 c2 b2 43 a3 ce 3f d8 c9 7f 14 bd 3c 10 40
       0.23935743549738459 4.059315033244694
0001c0 53 40 49 40 67 94 d0 3f 69 ff 2c 32 8b 71 ec bf
       0.2590578201097788 -0.888860319137149
0001d0 5c a3 15 4d 64 1c d9 bf a5 a6 37 9a 81 3e e6 3f
       -0.39235789802346743 0.6951301586206752
0001e0 4b ff ec a6 c4 d6 a7 bf 41 11 ef 96 92 eb b7 3f
       -0.04656042611759278 0.09343830284985179
0001f0 b4 85 e2 eb 5d 2f d2 bf 65 f5 5a 4a 20 8f b2 3f
       -0.2841410449564947 0.07249643149676428
000200 ea 02 09 a9 95 0a 97 3f 8e e6 f4 cf 4f 4a a8 3f
       0.02250131458481778 0.04744195378812065
000210 37 f0 8b 71 60 25 b1 bf 18 d8 b2 f8 a1 f9 f1 3f
       -0.06697657367834685 1.1234454836644598
000220 23 61 25 89 52 20 d1 bf 48 d7 ef 58 e2 04 ed bf
       -0.26759780305066466 -0.9068462121055996
000230 99 6e a5 05 f3 d7 a4 bf 2f a8 48 5f 4f d2 b1 bf
       -0.04071006244586534 -0.06961532665505453
000240 56 1c 2f 38 ce 1d a6 bf 8b c1 d6 db 3b db a3 bf
       -0.0431961482604996 -0.03878199633197984
000250 96 95 13 04 68 c5 c1 bf 31 d4 6b 32 4d a8 e0 3f
       -0.1388368625550071 0.5205446228779974
000260 e0 f7 c5 13 eb ff ba bf 63 61 45 2a df 8f c2 bf
       -0.10546750290629303 -0.14501561702742113
000270 9e 87 32 d1 a1 c4 96 bf ae ea 86 23 49 85 d0 3f
       -0.022234466927904976 0.2581351134246387
000280 18 da 2f b0 cb 34 c9 3f 98 16 a6 0a a6 15 bb 3f
       0.19692369559170753 0.10579908142070804
000290 40 f4 24 25 0d 64 c2 3f 81 19 d3 0c b8 5c a2 3f
       0.1436783248299509 0.03586363941717519
0002a0 97 bb e9 30 b2 84 c0 bf c6 7c 5a 80 2d cd d6 3f
       -0.12904956234293927 0.35627305540579035
0002b0 60 97 30 6d ab d5 b9 bf ea b1 b1 8b 9c 8b bc 3f
       -0.10091658988730279 0.11150530252934457
0002c0 42 47 76 2f 15 e9 d5 bf 9b c5 8a 7c 15 b3 e1 3f
       -0.3423512423988663 0.5531108314955192
0002d0 46 58 dc d9 7f db e3 3f bc c8 91 71 b0 d4 c3 3f
       0.6205443625538087 0.15492826028236617
0002e0 11 2f 32 30 8f 9d bd bf 73 10 8c 6f 76 ca b6 3f
       -0.11568541456852822 0.08902683471029764
0002f0 5f 44 39 a7 2a 1c d1 bf 4a 2c d9 45 b0 f0 c2 3f
       -0.26734415369452863 0.14797023211062516
000300 ee c4 ed c4 e2 43 b8 3f 58 35 03 ae b9 65 fb bf
       0.09478585536796277 -1.712335281120735
000310 2e 56 2a 67 ba 8b ae 3f d6 f3 88 a1 34 ce e2 3f
       0.059659791081838484 0.5876715807895561
000320 2d f9 94 77 c7 56 66 3f 17 c4 d9 4c df ab 6b 3f
       0.002726926407063199 0.003377853520583073
000330 17 4b 98 7a 39 6a b0 bf 11 42 d3 40 98 93 ee 3f
       -0.06412085764922569 0.9555169359319412
000340 59 e6 84 b8 b4 d8 a9 bf 4a c2 03 5f ee bf d2 3f
       -0.05048146011763483 0.2929645469548957
000350 20 3d 18 6b e6 e2 ae bf 72 70 0f 3b 90 cb c0 bf
       -0.06032486016567362 -0.13121226199917008
000360 4d 0a c3 83 e7 e2 e3 bf 44 e7 9c f4 14 79 c1 3f
       -0.621448285434164 0.1365076250456757
000370 27 27 cd b3 a6 0e c8 3f a4 30 1b cc 78 29 e0 3f
       0.18794711856235688 0.5050624834489281
000380 a9 2a 95 e1 f9 f8 db bf 76 f8 d2 ed 9b 42 e8 bf
       -0.43707129506644066 -0.7581309933664346
000390 b4 71 b4 5f 55 bf d7 bf 19 e3 d8 1a 1a 79 f0 3f
       -0.3710530695550702 1.029565911170897
0003a0 9e 5d 43 b6 7f a8 c3 3f 53 d0 e3 76 b4 af 97 3f
       0.15357967757766472 0.02313119865080211
0003b0 c0 1f dc d2 83 fc d3 bf f6 79 bc 3d fd 14 d6 3f
       -0.3122872885874095 0.34503108052186293
0003c0 bd 20 3d 3a a9 d4 af 3f c4 2c 95 27 bb 87 e6 bf
       0.06216935001299493 -0.7040687344646348
0003d0 61 db 98 68 76 1b b1 bf e7 b3 15 98 0c af bc bf
       -0.06682529500618052 -0.11204603875167117
0003e0 3a de 32 b9 d1 fa f5 3f 8b 22 4e 7a 4e c1 d5 bf
       1.373735164101062 -0.33992349571102726
0003f0 59 d0 54 b5 d0 a5 aa bf 17 a4 a5 2d 23 8e e0 3f
       -0.05204632009045502 0.5173507586997655
000400 4d fa 17 48 c3 61 e5 bf 94 3c 44 85 49 ea ea bf
       -0.6681839378432614 -0.8410995104658405
000410 4c 86 c0 43 bf c3 c4 bf 2f 06 fa 63 69 85 b8 bf
       -0.16222372825818565 -0.09578570071064328
000420 81 20 87 55 74 41 d4 bf 55 51 aa 4f 4a 4c de 3f
       -0.31649502136543367 0.4734063890439491
000430 83 28 09 c2 a8 55 c4 bf 16 2c c5 9c d9 85 ec bf
       -0.15886411165621803 -0.89133911723309
000440 e9 f5 45 6d 27 85 da bf 65 2e 8c a5 80 00 df 3f
       -0.4143770758745107 0.48440567175632615
000450 8b fc 2f cd bb 79 d0 3f 19 ce 30 ac 67 10 f5 bf
       0.25743002927624364 -1.3165051199147284
000460 52 df 6e e3 aa 15 b2 bf 4c 5e e8 1f 05 4d d5 3f
       -0.07064312031331824 0.33282592884049644
000470 15 66 81 e7 46 f0 d0 3f 23 74 b9 8e 1e 19 ca bf
       0.2646653424068018 -0.20389158219305256
000480 c5 ca be 5f 86 95 c2 bf 4b c8 63 18 cc 71 f2 3f
       -0.14518813777029585 1.152782531044539
000490 79 e1 df e3 6d 23 c5 3f b6 5f 58 ad e2 53 d4 bf
       0.16514371515928497 -0.31761996200793463
0004a0 9c cc b9 a7 a2 b1 9e 3f 10 38 93 e8 73 d6 9b bf
       0.02997450016705426 -0.027185259886032098
0004b0 91 31 05 71 42 4a ce 3f 00 56 6e 07 d5 e1 f3 bf
       0.23664122122353295 -1.2426348009370258
0004c0 da 39 da 12 2a 9f e2 bf 5e 05 cc 63 a1 44 d4 bf
       -0.5819292419635602 -0.3166888689593942
0004d0 94 1b 61 88 ad 3b 70 bf a7 26 d8 86 33 2d d4 bf
       -0.003963163244470009 -0.3152588669623619
0004e0 6f aa 01 cd fc 67 b2 bf b3 3a b0 8a 8e 25 fd 3f
       -0.07189922337571784 1.8216691415324646
0004f0 ed e2 7b 3a 80 12 c1 bf 9f d1 bf f3 54 db ef bf
       -0.13337710242901527 -0.995523906777226
000500 8c f1 0b 0c bc de a8 bf 35 88 42 4c c5 10 79 bf
       -0.04857432982496154 -0.006119509405978764
000510 fb 06 ef 33 61 45 aa bf 3e c3 68 7e 0a 61 d3 3f
       -0.051310575093806286 0.30279791206980977
000520 14 aa cc a3 d8 0f e9 bf e8 06 d9 42 df 37 c8 bf
       -0.7831843566139605 -0.18920508159685956
000530 5c 66 31 43 83 c6 c6 bf 8c bf 83 7c 25 c2 bb bf
       -0.1779331281748452 -0.10843118944080582
000540 0f a0 6c 5b c6 7b dd bf 73 5f 16 d9 24 6e ab 3f
       -0.4606796162429427 0.05357470655434229
000550 1e 43 71 e2 cd 45 d1 bf 93 f6 f6 e7 d2 63 d5 bf
       -0.2698855124809131 -0.3342177644043229
000560 59 22 ac 99 dd 60 d9 bf 2c 59 54 c8 fe b0 d3 3f
       -0.3965372086245558 0.30767793239046415
000570 25 16 74 af 12 61 8e bf d2 98 97 99 94 47 c2 bf
       -0.014833589534201394 -0.14280946254365873
000580 52 69 29 7a 27 10 aa bf 12 6f d6 8c 8b 3b c3 3f
       -0.05090449682457411 0.15025467278325572
000590 7f 54 eb ef cd 15 ae bf 15 ca e8 fd 53 3a 88 3f
       -0.05876010469152337 0.011830002008626864
0005a0 57 0e 8f 7a 7b ca 90 3f 0d 33 8e f0 3f cf c1 bf
       0.016397408824344897 -0.13913726087448489
0005b0 58 33 23 9b 6b 07 b9 bf d0 15 d8 49 27 23 e3 bf
       -0.09776947534119296 -0.5980411951319926
0005c0 8b 6d 94 d4 ae cb bf 3f 9f 87 9e 7c 9a 41 bc 3f
       0.12420170488296926 0.11037602941953971
0005d0 9e 46 69 f6 48 5b e7 3f 09 0a 2a d0 00 6a fe 3f
       0.72989318968958 1.900879681722133
0005e0 81 d5 04 a8 63 04 f1 3f 68 59 79 34 14 68 db 3f
       1.0635716021764383 0.4282274734918219
0005f0 75 35 a6 6f c9 57 d2 bf 0d 69 a4 0a f3 21 c8 3f
       -0.28660808470961935 0.1885360528911594
000600 11 2c c2 cf 3f 3d dd bf f7 56 e5 df fd f5 c7 bf
       -0.45686335839190045 -0.1871945708505149
000610 00 67 c8 f2 57 d5 ed bf 02 19 12 90 99 30 c3 bf
       -0.9322929136135087 -0.14992064985944614
000620 80 3f 23 cb 20 29 de bf a4 af 8c f4 43 7a a6 bf
       -0.47126025998749554 -0.04390156135772763
000630 4f ef f4 65 6e 24 b4 bf f4 2d 67 14 41 30 d9 3f
       -0.0786808966558372 0.39357020370945794
000640 b2 ca 55 08 61 8c ae 3f 78 d0 66 77 00 24 ab 3f
       0.059664757029982765 0.05300904710330284
000650 42 cc d6 fa 26 33 b7 bf 9d 3d fa d6 7c 49 b5 bf
       -0.09062427162170741 -0.08315258263086496
000660 09 fc c3 b5 ce d9 73 3f f3 33 c3 42 58 21 e8 3f
       0.0048463892564987255 0.75407040633729
000670 e6 e8 6c 6d 78 31 e2 bf 7c 6c 22 2d 1c 41 e5 bf
       -0.5685388695922284 -0.6641980058224273
000680 ae ca 45 e6 e8 0b 9f bf ae ba 29 e7 95 21 a5 bf
       -0.030318869642949657 -0.04127186247648261
000690 eb c8 53 66 e3 a4 da 3f e7 fe 27 13 b2 b3 e4 3f
       0.4163139819421661 0.6469354986329251
0006a0 9d ce 34 e5 7c c0 e6 3f 79 c6 1f 1d 65 e3 ca 3f
       0.7109970547375785 0.21006454393459587
0006b0 a4 51 b1 a4 4a 43 d6 3f ea 88 ce c3 d3 d8 b5 bf
       0.3478571518255882 -0.08533977060736544
0006c0 15 4b 43 e5 19 09 c0 bf 93 52 44 48 c7 a9 a9 3f
       -0.12527774519420434 0.050123431750909074
0006d0 a6 66 d6 de e2 46 e4 3f bd cd 4d 0f 38 56 d8 bf
       0.6336531021399494 -0.3802623891308164
0006e0 9e 36 5e 39 12 36 96 bf 07 c1 5f f6 8a 8c d0 3f
       -0.021690640212503547 0.25857805309262044
0006f0 d7 66 66 1b 2e 1e d9 3f 1b fe 7e 2b 3c ed f8 3f
       0.39246704746038347 1.5579187106194528
000700 8b e6 59 39 ce 10 c4 3f ac b7 3a 32 3e 19 f0 bf
       0.156762865069869 -1.0061628305515837
000710 b7 fc d3 f6 14 59 d1 bf 0e 60 06 05 5c 5b cf bf
       -0.2710621271543902 -0.24497556920391655
000720 54 a7 a9 6d 67 86 ca 3f e4 9c 5f 63 31 f9 d2 bf
       0.2072266850912522 -0.2964595289653984
000730 1b 3c c1 9f 9b d0 7e bf 42 24 ef 1d d5 5a d9 3f
       -0.007523162752547409 0.3961689750981955
000740 f4 02 81 eb 7a cc e0 3f de 28 3f 52 a3 90 e8 bf
       0.5249609565435933 -0.7676560026532362
000750 ee 42 bf 93 6e e5 ab bf 39 e2 39 43 5e 5e 0a c0
       -0.05448480180314684 -3.2960782291450212
000760 df 5d 2d 16 f3 e3 8b 3f 3d 65 19 8f 95 81 84 3f
       0.013618373026175355 0.01001278727487664
000770 07 30 56 d2 5d ea 85 3f 51 25 03 cf ca c7 b4 3f
       0.010700924855676431 0.08117358736048642
000780 63 73 d1 6f c8 34 b5 3f 9f 0f 06 55 16 1e e5 bf
       0.08283665399490085 -0.6599227581614179
000790 7f 16 82 79 13 29 dd 3f d0 a5 be d1 6a 23 be bf
       0.4556320845225414 -0.11772792454453129
0007a0 fe d9 cb a6 65 67 a4 3f bd 2f 95 41 e3 71 95 3f
       0.039851357088924275 0.020942259672025666
0007b0 78 1a f7 61 0f 08 b2 3f cf a1 60 dc 38 16 a6 3f
       0.07043548719148329 0.04313829126505519
0007c0 85 17 ee 55 21 a4 e7 3f 2b ed 01 48 b6 29 d9 3f
       0.7387854269334048 0.3931709006498802
0007d0 b6 0f 9d 64 b1 32 c6 3f 16 14 ea 8d bc 6a c5 3f
       0.1734220258023222 0.1673198407117133
0007e0 b9 8b 46 ee 76 0a d4 bf 82 59 d0 fe 76 ee f0 bf
       -0.31313870686625084 -1.058218951574958
0007f0 aa ea 2b d1 89 d9 d5 bf c9 76 fa 9c c8 da da bf
       -0.3414024870577729 -0.4196034939758247

mamba.layers.0.mixer.conv1d.weight f8 [48, 1, 16]
000000 8b 2c c4 4a 65 cc 81 bf 1e ec 45 73 7f 0a d0 3f
       -0.008690635055719894 0.25064073807851794
000010 56 92 a0 a5 e6 67 ce 3f 6c 7b 9e 73 e4 78 d4 3f
       0.23754580580966217 0.3198786858646858
000020 10 aa f8 7d 73 41 d7 3f 58 d5 8c 0a d6 2b cd 3f
       0.363369820612804 0.22790027156012616
000030 dc f5 7e 39 0b 60 dc 3f 3b 97 43 d2 cf 8d dd 3f
       0.44336205115163607 0.4617805055007584
000040 8f ee f0 94 15 0e c9 3f 42 50 4b de e2 1d d9 3f
       0.1957423188449536 0.39244910915772746
000050 d6 3c bd 85 35 77 d4 3f a6 82 89 74 ac b4 d9 3f
       0.31977594433278733 0.40165244465428385
000060 69 f7 45 a9 79 ab c3 3f ca 1f 5e 18 fe 7b a7 bf
       0.15367050900743642 -0.04586786315400067
000070 b7 14 00 43 1f 4e c9 3f 4f 9c a4 a9 1f ca c4 3f
       0.1976965977811795 0.16241832526540853
000080 7a 1e eb 58 d6 b6 df bf 3d 66 cc 54 81 bc df bf
       -0.4955345028251724 -0.49588044434640094
000090 a6 38 e0 35 40 57 e7 bf 42 6c 88 b9 15 2f e8 bf
       -0.7294007351172425 -0.755747663849782
0000a0 4d 36 74 fa 1b 0d d6 bf dd 7d 6e c7 ec 7f dc bf
       -0.3445501275863066 -0.4453079173635766
0000b0 14 a6 3a c2 85 16 e9 bf 83 78 4f e3 43 59 d7 bf
       -0.7839993279969257 -0.36482331465038714
0000c0 8d 86 35 6a c7 0e d7 bf 38 1d 45 79 51 80 d3 bf
       -0.3602770363996591 -0.3047069248463745
0000d0 8f 7f c5 45 a1 1a d7 bf 0a 90 fa 60 c9 ff e3 bf
       -0.36100036443348754 -0.6249739545933164
0000e0 6d 9d 6d 25 1c aa d8 bf 6e 11 74 6e e4 2b e8 bf
       -0.38538268714042695 -0.7553579480450432
0000f0 da 1e 01 39 86 35 e2 bf c1 db 7f fc 49 01 d7 bf
       -0.5690337289206255 -0.3594536748709594
000100 e6 ff bf 37 ba 6d b8 3f 31 02 fb 46 af a4 99 bf
       0.09542430745204875 -0.025042284686380426
000110 92 5a 28 dc 74 81 7f bf d4 81 3f 6c b2 6f b1 3f
       -0.0076918186992062255 0.06811061041617644
000120 21 7d bf 8e cf 10 c2 3f 31 40 55 ef bf 3a c6 3f
       0.14113802404515588 0.17366789995367207
000130 3a 67 43 3d 71 45 a1 3f 2a 7a d1 c0 e8 a2 c9 bf
       0.03373292801707213 -0.20028409399942976
000140 42 de e8 53 74 c2 ce 3f d4 80 87 bf a1 2d 77 bf
       0.24030927750730952 -0.005658752278094609
000150 f9 cd 17 16 c3 6b c4 3f fe c5 db ae 2f f0 c2 3f
       0.159538636958686 0.14795490301143838
000160 bf 70 5c d2 81 95 c0 bf 45 65 fb 2b a6 61 c2 3f
       -0.12956259509599552 0.1436050143009117
000170 38 7c 27 b9 09 e8 d1 3f 16 cd da 1a 08 13 a8 bf
       0.27978747445553465 -0.04702020004097045
000180 47 8b 37 2e cb 7f aa 3f 86 2d 82 78 9d 72 d8 3f
       0.05175623835727677 0.38199555176171207
000190 14 8a dc e3 83 84 b1 bf fc 2a 6b 83 ee e3 d3 3f
       -0.06842827141785107 0.310786846483708
0001a0 35 d4 9b ef 6a eb c5 3f 5e 12 3b 6b 4d d3 d5 3f
       0.17124687862056623 0.34102187606575807
0001b0 34 75 de 68 b1 26 b1 bf 13 e0 d1 6d 9e 1d bd 3f
       -0.0669966584232114 0.11373319798610763
0001c0 1b 25 db 87 48 43 c5 3f 09 3d d3 33 d1 e6 d0 3f
       0.16611582406611877 0.2640879636864644
0001d0 36 8b bd e4 8f ae bc bf 26 bc 12 ec 9c b7 cb 3f
       -0.11203860601885371 0.2165409233761874
0001e0 fa 47 44 8c 9b 5b b9 3f bd 96 72 ca f2 93 bc 3f
       0.09905407118301915 0.11163251345223109
0001f0 0d e9 1d 9e 88 48 ab 3f 5e 61 ff 4d c9 9e c3 3f
       0.05328776292931723 0.15328327473140296
000200 9d f5 8a 95 55 7c a0 bf 2c 0c 3c 76 92 58 c1 3f
       -0.03219859552835234 0.13551550648853217
000210 14 41 0c 6c ef 7d b0 3f e4 c5 6f 5f 1d 4d b6 bf
       0.06442161929976847 -0.0871141775130791
000220 ca 4e 77 64 69 7d cd 3f 0c b6 b3 58 43 c7 b7 bf
       0.23038976102417613 -0.0928842631871804
000230 a0 62 b2 30 29 81 ce 3f df 9a 3a 68 e0 8d bf 3f
       0.23831667783521926 0.12325861496593003
000240 c1 86 3a 3f e4 cb 9b 3f 5e 01 b4 bd 5a f2 7b 3f
       0.02714497219006407 0.006822924096241271
000250 61 51 98 5d a8 62 bb bf cd 24 7a d0 5d ac b7 bf
       -0.10697414670022944 -0.09247385349057709
000260 78 f8 d7 41 c1 b3 bd 3f 0b c9 6d 57 55 38 92 3f
       0.11602409226904509 0.01779301973460527
000270 67 e5 e5 ba 1b b7 ab bf 98 5a 3b f5 01 2f c5 3f
       -0.05413138061971772 0.16549705957614402
000280 9e e0 fd e3 ec 45 cb bf 6a b1 e4 d2 30 81 e6 bf
       -0.21307145244987152 -0.7032703513155358
000290 b3 12 ef 61 61 3c e4 bf 96 88 71 38 c2 35 e4 bf
       -0.6323706543704105 -0.631562338105385
0002a0 85 88 29 a4 59 30 d2 bf 1f 86 0d 5b fc 00 e6 bf
       -0.28420105964153947 -0.6876203325629752
0002b0 9e 45 96 69 57 2c d7 bf 1a f6 28 25 a6 1c d2 bf
       -0.3620813876269383 -0.2829985964670826
0002c0 6d 63 f0 b2 c7 29 d6 bf 98 3c cd 95 9f 76 e2 bf
       -0.34630005335343733 -0.576980393010575
0002d0 2b a7 bb cc 33 1d d8 bf 3c f5 58 cf eb a8 e6 bf
       -0.37678236955126704 -0.7081202554469779
0002e0 f5 b4 cc 5d 77 ac e5 bf 17 fe 93 d6 71 01 e0 bf
       -0.6773030120872635 -0.5001763525942263
0002f0 ca b4 7a f0 44 45 e4 bf 9b 86 11 1c b0 1f df bf
       -0.6334557244168988 -0.48630907765446246
000300 37 52 80 e9 f7 98 a2 bf be 74 02 17 b8 fc 97 3f
       -0.03632330632550345 0.023424984363931804
000310 bc 60 a0 8b 98 9c bd 3f 5a 2e 6d 56 34 28 b1 bf
       0.11567071350907815 -0.06701972112676327
000320 68 4e 20 9a b8 f1 ac 3f 7e c7 1c 4d 21 89 c8 3f
       0.05653168565200134 0.19168487801794848
000330 7e fe 2f e6 38 18 b7 bf 82 45 de 3d ec a2 b3 3f
       -0.09021335239230585 0.07670475492911602
000340 f4 f1 47 1a 92 fb c0 bf 59 92 61 9b a0 85 c5 3f
       -0.1326773289037103 0.1681404837319345
000350 56 fd 8a a0 6b fd b4 bf 8a 04 06 f7 5f 63 bd bf
       -0.08199188870911675 -0.11479759007308324
000360 c1 3f 71 70 e0 cf c2 bf d1 43 13 1b a4 71 b4 bf
       -0.14696889391279735 -0.07985902462975437
000370 28 fc 20 b3 94 a2 d6 3f 47 bd 05 01 c9 16 cb 3f
       0.35367314808894657 0.21163284826205084
000380 38 8e b7 47 35 0e cf bf e3 58 70 c8 67 28 da bf
       -0.24262109758193318 -0.40871615003687917
000390 e0 0d 51 a1 f6 e4 db bf 9a f7 aa eb 7b 38 d4 bf
       -0.43584981683326696 -0.31594751371800955
0003a0 66 b8 e0 34 f0 fe d5 bf 87 39 df ea a6 95 e6 bf
       -0.34368519939278597 -0.7057680690139002
0003b0 47 a0 96 3a 9d 26 e5 bf 90 fd 79 6c f9 de e1 bf
       -0.6609636444382055 -0.5584685438806662
0003c0 dc a4 e8 7d 07 d0 e1 bf e1 c9 9f fa 5c ee e1 bf
       -0.5566441973834588 -0.560347070217457
0003d0 86 4f 63 d9 e5 e8 d1 bf ba 6e 13 20 e1 3c c3 bf
       -0.27983995656290295 -0.15029539171415768
0003e0 45 34 36 76 83 07 d9 bf 3c 3c 72 40 86 ba c4 bf
       -0.39108358902086976 -0.16194227358616498
0003f0 12 88 99 6f 2e 74 c9 bf 12 eb 36 5d b0 10 c8 bf
       -0.19885807465749444 -0.18800930549135636
000400 9e b1 0c 2e 07 c2 96 bf 8a 1f fd 33 45 0b 70 bf
       -0.02222453325809825 -0.003916998219047127
000410 3b 1c 74 4a 2d dd bc 3f 97 f1 01 50 46 b5 c0 bf
       0.1127498919268967 -0.13053206354733213
000420 2d 04 fe 13 60 51 a8 3f f7 a1 c3 7e 7c 06 ba 3f
       0.04749584430738483 0.10166147322491513
000430 2f 59 98 b5 fe 52 7a bf 99 33 6c a4 c4 25 c7 bf
       -0.0064268064102377806 -0.18084009197664555
000440 f3 44 c6 7e d5 dd b8 3f 54 70 c6 2f 3c 37 c2 3f
       0.09713491768913567 0.1423106416012866
000450 99 61 9e 5d b1 ad 9a 3f 27 9c fd e7 87 e4 c5 bf
       0.026053210581808626 -0.17103670909566057
000460 18 af ca c3 da e2 b5 bf 56 28 16 a6 03 34 91 3f
       -0.08549277572700154 0.01679998112880584
000470 99 1f 4e 6f 37 2c b7 bf 96 b7 90 d2 77 66 8c bf
       -0.09051844088946694 -0.013867317307894738
000480 fd f4 d7 61 04 1d de 3f 03 15 1e 82 06 ed d8 3f
       0.4705210643295031 0.38946688372409727
000490 d5 4a 46 6b 8c 57 dd 3f 03 6a 62 87 81 c3 df 3f
       0.45846853710206165 0.4963077375520301
0004a0 82 10 dc 20 aa a1 bd 3f ba b2 23 d7 3d 50 ae 3f
       0.1157480554794024 0.05920594454969348
0004b0 0a 58 70 05 18 0b d1 3f d3 99 b9 49 0a e0 b5 bf
       0.26630211382996605 -0.08544983196188775
0004c0 6c 6f 58 f8 f9 ec c1 bf 2a b2 a9 3e f8 fd b7 3f
       -0.14004444719546016 0.09371902017455427
0004d0 cc 7f 69 42 ed 58 d0 bf 07 26 4d 42 6e 9d d1 bf
       -0.2554276608043409 -0.27523380732290587
0004e0 6c 2f af 9b e8 e5 dd bf c3 a8 ee 1a 39 21 e4 bf
       -0.4671575088839208 -0.6290555501957659
0004f0 86 05 ae 6e 8a c1 e7 bf 23 fd 02 cd e1 dd da bf
       -0.7423755799974721 -0.4197926046435489
000500 77 a7 e2 1e 08 22 c9 3f 04 2a 8d a8 65 70 c5 bf
       0.19635106571268654 -0.16749258737611694
000510 35 f2 32 14 95 66 b5 3f 2d 32 a5 06 cf 67 c4 bf
       0.08359653227939463 -0.1594179899642695
000520 e1 6a a0 6d ff 8f bb 3f 4c 7a 54 9b 63 21 c9 bf
       0.10766598154479425 -0.19633145412895414
000530 66 70 67 96 29 a3 9e 3f 82 67 d2 de 5d c5 c1 3f
       0.029919290356574278 0.13883565311408225
000540 20 81 36 f1 3b 86 c3 3f e4 14 b7 38 43 f4 c9 bf
       0.15253400114034665 -0.2027668024949555
000550 68 c8 87 9a 7b 65 c6 3f 54 10 5f 80 db 93 c8 3f
       0.17497201009206553 0.1920122505963514
000560 37 97 b8 94 eb a9 9f bf 18 98 25 8d cb 75 a6 3f
       -0.030921631767476056 0.043867455463257155
000570 58 77 f4 fa 8e a4 b1 3f 40 14 2e de 3d 8a b3 bf
       0.06891721369580972 -0.07632815050426789
000580 ef bb 0a 79 f4 e7 db bf 6b 7f ff 42 61 21 7c bf
       -0.4360324079561328 -0.006867771080550126
000590 3b 77 06 04 bc ec d0 bf ac 57 ed f7 c4 8e c0 bf
       -0.26444912331668363 -0.12935697656456335
0005a0 b1 3f 54 90 c4 d7 d6 bf 68 53 8c 15 05 bc aa bf
       -0.3569194230522 -0.052215727692021485
0005b0 26 4c 55 9a 49 6c d4 bf 81 90 72 3d 21 2d 87 3f
       -0.31910934516526124 0.011316547095994391
0005c0 0d 3b a8 f6 29 2f 9d 3f 9c 15 49 e8 3d 0a b0 3f
       0.028500228576429133 0.06265627785713551
0005d0 77 9d ba 27 55 7b c0 3f 10 a2 b3 7c 02 3f c0 bf
       0.1287638133992279 -0.12692290390920435
0005e0 16 26 02 61 57 0c c0 3f d8 24 a7 97 98 02 ca bf
       0.12537662731874438 -0.20320422558714912
0005f0 14 dd c2 8f 85 9e ae bf 37 33 98 93 6a 41 ce bf
       -0.059803174780819784 -0.2363713474918769
000600 8f 4b f0 c1 47 87 ca 3f 6f 8b c5 bf 52 38 b9 bf
       0.2072534272161559 -0.09851567441869034
000610 45 4d c1 e9 8e 08 d2 3f 88 53 be c5 d2 38 c0 3f
       0.2817723543896203 0.12673411040728078
000620 28 89 52 f8 25 10 9f bf 01 ca f8 fd 97 fe cc 3f
       -0.03033503845348054 0.22651958371132255
000630 05 f2 a5 6a f6 9f c5 3f c8 69 15 73 53 a4 b1 bf
       0.16894417006905385 -0.06891366538676558
000640 2e 78 c6 33 a4 7d c6 3f 8b 80 d3 95 06 d2 de 3f
       0.1757092716988508 0.48156895286047846
000650 7d c7 8a b1 c6 60 98 3f 1f 6f 07 f2 8b 26 8b 3f
       0.023806671701727112 0.013257115672721973
000660 e9 51 79 d1 61 1c b2 3f a5 03 48 de 09 0d c6 3f
       0.0707455765162376 0.17227290490702987
000670 fe 25 ec dd f2 68 ab 3f 32 d8 b0 9e 70 b4 b9 bf
       0.05353507002844181 -0.10040954469954569
000680 d6 da 09 0f 63 65 a2 3f e7 3d b0 a1 3c c6 d1 bf
       0.035929771028283916 -0.27772441663634456
000690 15 27 62 a0 91 e0 c6 3f c0 9c bc b0 56 09 c2 3f
       0.1787282975313295 0.14090999250149672
0006a0 ff 77 a2 b8 7a ab cd bf 43 9c 69 2b 9f 96 c6 bf
       -0.23179563536990597 -0.17647161121132812
0006b0 dc 52 d7 40 7f aa d4 bf b3 3e 98 eb a7 48 b9 bf
       -0.3229063161100336 -0.0987648916418447
0006c0 4b 1e 6c 09 ec cf b0 3f 09 bd 56 0b f2 b3 83 3f
       0.06567263822591334 0.009620562525781045
0006d0 6d 5f bb ff 88 87 aa 3f ac f7 15 72 29 90 80 bf
       0.05181530114867781 -0.008087466997263558
0006e0 15 9c 5d 7f 0d 35 c1 3f f7 19 dd 8f 5b 43 d1 bf
       0.1344315406706477 -0.2697361855429387
0006f0 c6 12 50 6a 5a c6 93 bf af 3f 54 01 71 36 c9 bf
       -0.01931134485131982 -0.19697392048737813
000700 9a 6d 48 ea 1f de b6 3f c8 a0 65 6c 22 b3 76 3f
       0.08932685346410665 0.005541929689890597
000710 9c 93 13 cd c2 de ad 3f 3d ee 96 60 22 0c d1 bf
       0.058340156110524094 -0.266365618062739
000720 2c 82 70 19 7b b0 c0 bf 0d 00 35 da 74 25 d0 bf
       -0.13038576833879867 -0.25228616055756065
000730 88 1f af 28 4b ab b8 bf 66 44 43 9f 2c 4f e2 bf
       -0.096363732750545 -0.5721648321724728
000740 4a 8e 98 7f 3e 87 e3 bf dd 1f a2 eb 82 af cc bf
       -0.6102592937572322 -0.2241061831048218
000750 26 8c 8d 4d c0 08 e6 bf f0 59 97 fd 62 85 e2 bf
       -0.6885682596879448 -0.5787825539544524
000760 47 60 5d 69 1f 65 e1 bf 28 e2 27 c2 11 02 e5 bf
       -0.5435940797715454 -0.6565026085000385
000770 1f a3 f6 d7 ae 09 e5 bf fd 39 3e c0 0b b3 e7 bf
       -0.6574320047412562 -0.7406061892268664
000780 ea fe 44 a6 9d 41 e2 3f 11 59 78 32 e1 0d d8 3f
       0.5705097434474429 0.37584714821549975
000790 b4 48 60 21 b3 79 d6 3f 9f ac 15 53 47 35 d2 3f
       0.3511779619158333 0.28450186837899055
0007a0 d4 db 07 2d a3 d1 c1 3f 69 fe c8 32 69 07 c4 3f
       0.1392101259113746 0.15647616367094777
0007b0 56 c1 f6 4e 15 2a a4 3f e0 53 a0 90 c7 38 a3 bf
       0.039383569611689026 -0.03754256859262006
0007c0 99 e8 a3 23 21 70 c9 3f 51 01 08 1a 39 9a c3 bf
       0.1987344192528482 -0.15314401408250913
0007d0 98 bb d0 4b 59 bf b6 3f 76 ed 90 4a b7 3a d4 bf
       0.08885725117646215 -0.3160837391075896
0007e0 8a cf 1a 82 46 bb d0 bf bf 3d d0 10 76 ff df bf
       -0.26143038468875857 -0.49996711389482223
0007f0 cc 41 54 a8 f3 db d8 bf a7 13 b2 78 77 27 e0 bf
       -0.38842479170218946 -0.5048177106224231

mamba.layers.0.mixer.conv1d.bias f8 [48]
000000 23 ee fd 1c f7 7e 82 bf c1 95 a5 e4 af 0e 88 bf
       -0.009031229564917592 -0.011746763386962013
000010 bc 86 a6 26 07 c2 b2 bf 0c fd 42 1e cc 71 b2 3f
       -0.07327313130965768 0.07204890955744164
000020 b8 b1 f1 9e 65 86 b3 bf 81 06 d9 fc 6c b4 e3 3f
       -0.07626948481055862 0.6157746256287312
000030 4d f2 6f 3b 0f 51 9d 3f 77 6d 29 6c 6a f9 d6 bf
       0.02862952995563921 -0.35897312700918554
000040 8c c8 0a d4 22 8f 87 bf 05 bc 66 9a b2 d7 b4 3f
       -0.011503479095470469 0.08141628522456308
000050 b2 f7 e9 23 ed 13 91 3f be f8 ed 10 72 0d a7 3f
       0.016677575413716013 0.045024456564520574
000060 b7 ee 21 81 7a 57 85 bf fd 27 da c4 89 1c b0 bf
       -0.010420758310139317 -0.0629354577633023
000070 d8 a1 ff e2 0d 38 d4 3f 41 8e c8 8a 49 a3 d8 3f
       0.3159212796004147 0.384966264277157
000080 ea c6 9f 89 99 99 95 3f 14 67 92 47 13 ba 84 bf
       0.021093749070081914 -0.010120535489750483
000090 02 a3 b9 f6 ca 0b c2 bf a6 01 13 d4 19 2a ca bf
       -0.14098488852621222 -0.2044098172682542
0000a0 8d b6 9f 22 b5 4f cc 3f ce f2 91 8f 87 bb ae bf
       0.22118248167628388 -0.060024486804626784
0000b0 9e d4 ab 30 84 6c ae bf 1a 9c ba d0 89 08 c7 bf
       -0.059421664182005104 -0.17994806949465741
0000c0 ca 4d 01 30 e6 28 ba bf 1d 99 81 ad 83 2a d0 bf
       -0.10218657180785509 -0.25259487098664285
0000d0 80 16 0c 49 b9 bd ab 3f 4d 88 95 63 4b 2e 90 bf
       0.0541818524998634 -0.015801599457866456
0000e0 28 2b f6 a8 15 0c ba 3f a7 6d 4a 8b c5 0a 96 3f
       0.10174689650572744 0.021525465609199348
0000f0 50 2a 8b f4 74 8f ab 3f 4e b0 88 91 9c 24 98 bf
       0.05382886395598929 -0.023577162153898983
000100 3a 22 62 4f 98 4d cb 3f 5a 36 5b c9 50 c6 73 3f
       0.21330551029338257 0.004827800342992095
000110 94 74 1e 78 8b 05 96 bf 7b 2c 35 a8 0b cd c5 3f
       -0.021505526739578132 0.17031999314562882
000120 82 92 37 79 ed 5a ca bf 09 8a 24 56 11 4b b5 3f
       -0.20589989107897472 0.08317669251531624
000130 b2 95 0c e0 1a 2b b7 bf 5d c2 1e b3 6c 79 cd bf
       -0.0905014798159616 -0.23026808496571763
000140 83 7d 50 aa 1b b1 ac 3f f0 bf 8e 56 48 52 90 bf
       0.05603872732194317 -0.015938883097703582
000150 04 b7 55 e4 fa 5f c7 3f b4 5a 75 7e 17 ad a9 bf
       0.1826165785709507 -0.05014871042901828
000160 aa 9a c3 68 9d 5c c5 3f 7a 1f 86 b1 54 0a b8 3f
       0.16688888183053524 0.09390763601379418
000170 0a 7d 82 db 06 8c 94 bf 79 bf ab 00 4a b8 bc 3f
       -0.020065409801302038 0.11218702808741722
