models/classification/mamba_delV_1.0_trainDim_6_pN_0.0_vN_0.0_nonDim_False.pth (torch, 31874 bytes, 12 tensors)

mamba.layers.0.mixer.A_log f4 [48, 32]
00000000: dfa1 9ebf 1e48 683f 3525 683f 04ee de3f
00000010: 361b ce3f b9ce 5e3f d4aa 723f e3b3 253f
00000020: b687 4840 31e3 cc40 0d42 9540 b87d 9a40
00000030: f622 6440 c463 7840 49a1 8140 30e8 4c40
00000040: 6ee6 7b40 6ce9 7c40 c5eb 6340 473c 2040
00000050: e2a5 be40 faad 5040 885c 6440 507c 8640
00000060: 2965 c940 2b54 eb40 0ebc cd40 68ea cc40
00000070: f16e 6d40 c398 8540 2c07 7d40 6333 8840
00000080: 7336 863f 3985 893f 6b85 0940 1760 5840
00000090: 1e01 de3f e446 e43f 0fca 2040 db4d 0340
000000a0: ebaf 6040 47e2 1640 1f6b 6d40 1e4a 5140
000000b0: 699c 6740 d552 3f40 be75 3540 2271 1440
000000c0: a375 7840 0f6a 9540 a720 6f40 79f2 5740
000000d0: de21 9440 55f7 6e40 f365 8240 ca07 6540
000000e0: b7bb 3a40 56d4 6940 d3fa 5340 fefb 6840
000000f0: a5ac 6540 f694 9340 796e 9840 9b80 6c40
00000100: 2a02 29c0 afe9 893f 34a0 543f 5fc2 d33f
00000110: 3cf1 823f 974a 863e 44da 5c3f 4123 4d3f
00000120: ccbf 4040 d2fe 8f40 e89a 6c40 af9c 4540
00000130: 82fe 2e40 52eb 2540 3756 9340 e5bd ad3f
00000140: 39dc 1a40 f3fd 3f40 44b2 3340 f1b9 be3f
00000150: b1ca 7540 3ccc 3340 ae1c 3340 6e61 3e40
00000160: b87b a940 e36a b940 ac4e 9e40 ce5e 7f40
00000170: 9c3d 4e40 f3cd 8740 e929 2740 24bf 6240
00000180: ff89 b23f 2ed0 d53f 25ff d33f fb9d e23f
00000190: 01e7 3b40 4d5a e03f 31fc 5e40 aaef ca3f
000001a0: 4965 bb3f 52ed 0e40 a07f 2040 05b7 1c40
000001b0: f276 a33f 9397 2240 5068 2140 37b5 7740
000001c0: 392f b040 78f5 5940 4e0c 8040 5571 9f40
000001d0: 0fbc 2c40 46bf 5840 2290 bb40 bb0d 3640
000001e0: 450b 6940 912a 5640 35d9 2940 89cd 3540
000001f0: 66b7 4740 a888 8040 b723 8a40 edb9 2640
00000200: 05ab dcbf 0571 26bf 9747 47bf 64cf e13f
00000210: 6a69 3140 d92b d13f a6de 3f40 d255 1a40
00000220: 4f3e 5f40 2c97 7f40 4a1f 8940 5708 8b40
00000230: abaf 7740 32c8 4f40 5df9 8940 d872 2840
00000240: 3bc8 2640 bbf4 7140 d7c4 7040 5980 e93f
00000250: a820 8b40 d2fe 7040 63a1 2a40 d4fb 5c40
00000260: b9fc af40 ac4f 8940 8443 9840 a085 8040
00000270: 3dc2 8440 cc9a 8840 d1fe 4840 25ec 8140
00000280: 8bc8 643f 7a1d 0940 de1c e43f 643c f03f
00000290: cad7 1340 604f 3a40 3367 1f40 1320 3440
000002a0: ef80 e63f 3966 d33f da86 bf3f 7d9c 0840
000002b0: abb1 2d40 5e1c 3a40 9084 5640 837f 6840
000002c0: 4bdb 7340 3a50 3f40 f32e 2640 bae2 6140
000002d0: e3ee 2540 4afd 4a40 9ff1 8d40 f56a 4040
000002e0: 6056 6340 531b 4d40 86b3 7740 f9ff 3640
000002f0: 1376 4340 4325 7b40 4958 6540 14c2 6740
00000300: c56f 7a3f fa23 d73f 9c2f f83f 223b e53f
00000310: c5a3 3f40 55df 0440 64fe 4c40 3faf 3640
00000320: 100a 2c40 3a61 bf3f d0a8 0d40 5f67 3940
00000330: a7df 1740 730b 6a40 1286 4840 a537 2a40
00000340: a85e 9e40 20a7 7540 3221 5c40 3536 9740
00000350: 207c 5e40 4e4e 7540 f30f a940 3688 7b40
00000360: 51bb 2e40 7e05 de3f 69a5 4040 4822 1140
00000370: 166f 7340 9905 8640 b505 a440 21c0 8140
00000380: ec9f 0d40 9985 ef3f cae6 7e40 c779 8c3f
00000390: b79e c13f 8e85 0940 493d e03f 99c0 e23f
000003a0: f247 6a40 ea2c 2140 24ca 5a40 e0e7 6040
000003b0: 9f02 4d40 cfb8 3b40 abb1 5d40 c049 6140
000003c0: 6a0c b23f d08c 6b40 e8fb 5940 59af 3a40
000003d0: 098c 7e40 f0a4 6540 feeb 0940 3c2a 4340
000003e0: ab43 5740 ff8c 3840 c132 5140 912b 4740
000003f0: dc6f 6640 42fb 9940 65ad 4b40 2ab7 7040
-1.2393149 0.9073504 0.90681773 1.7416387 1.6102054 0.87034184 0.94791913 0.6472761
3.1332831 6.4027333 4.664313 4.8278465 3.5646338 3.8810892 4.050938 3.2016716
3.9359393 3.951747 3.5612652 2.503679 5.9577494 3.2606187 3.5681477 4.202675
6.2935987 7.3540244 6.429206 6.403614 3.7098963 4.1748977 3.9535627 4.256273
1.0485367 1.0743781 2.1487682 3.3808649 1.7344091 1.7834134 2.5123327 2.051627
3.5107372 2.3575609 3.7096632 3.2701488 3.6189215 2.9894307 2.8353114 2.319405
3.88218 4.6691966 3.736368 3.3741744 4.629134 3.733846 4.074945 3.5786004
2.9177072 3.653585 3.312184 3.6403804 3.5886624 4.6119337 4.7634854 3.6953495
-2.640757 1.077444 0.8305695 1.6543692 1.0229869 0.26228783 0.86270547 0.8013192
3.0117064 4.499856 3.6969547 3.0876882 2.734284 2.5924878 4.6042743 1.3573576
2.4196913 2.9998748 2.8077555 1.4900495 3.8404963 2.8093405 2.7986255 2.9746966
5.2963524 5.7942977 4.9471035 3.9901614 3.2225103 4.2438903 2.611933 3.5429163
1.3948363 1.6704156 1.6562239 1.7704462 2.9359744 1.7527558 3.4841425 1.585439
1.4640285 2.233235 2.5077896 2.4486706 1.2770674 2.5405014 2.5219917 3.8704355
5.5057645 3.4056072 4.001502 4.9825845 2.6989782 3.3866744 5.8613443 2.844588
3.6413128 3.346348 2.6538823 2.8406699 3.1205688 4.0166817 4.3168597 2.605098
-1.7239691 -0.65016204 -0.7784361 1.7641416 2.772059 1.6341506 2.9979644 2.411488
3.488178 3.9936018 4.2850695 4.344768 3.870097 3.246594 4.31169 2.6320095
2.605971 3.7805622 3.7620142 1.8242294 4.3477364 3.765553 2.6661003 3.4528704
5.4996 4.2909756 4.7582417 4.0163116 4.1487107 4.268896 3.1405528 4.060076
0.89368504 2.142424 1.782131 1.876843 2.3100457 2.9110947 2.4906738 2.8144577
1.8008097 1.6515571 1.4963028 2.1345513 2.713969 2.9079814 3.351841 3.6327827
3.8102596 2.9892716 2.5966156 3.5294633 2.5927055 3.1717095 4.435745 3.0065281
3.552147 3.2047927 3.8703322 2.8593733 3.0540817 3.9241493 3.5835135 3.6212206
0.97826797 1.6807854 1.9389529 1.7908671 2.9943707 2.076131 3.2030268 2.8544462
2.6881142 1.4951546 2.2134285 2.8969343 2.3730257 3.6569488 3.133183 2.6596463
4.9490547 3.8383255 3.439526 4.725367 3.476326 3.8329043 5.283197 3.9301887
2.730183 1.7345426 3.0100958 2.2677174 3.8036551 4.1881833 5.1256967 4.054703
2.2128859 1.8712646 3.9828362 1.0974663 1.5126561 2.1487765 1.7518703 1.7715026
3.6606412 2.5183663 3.4185877 3.5141525 3.203285 2.9331548 3.463969 3.5201263
1.3910038 3.6804695 3.4060001 2.9169524 3.977297 3.588192 2.1550288 3.0494528
3.3635051 2.8836057 3.2687228 3.112034 3.6005774 4.811921 3.1824582 3.7611794

mamba.layers.0.mixer.D f4 [48]
00000000: 7f0f c33f 110f f13e ac5a cb3f 8137 2ebf
00000010: 8187 2a40 4d0d e13e 935b e8bd 31e4 6b3f
00000020: 188a 093f 1bdc 33bf 5d64 603e e8a4 293f
00000030: 6d84 733d 1359 a03f 43bd ea3e b5e2 1b3e
00000040: 4514 bcbf 2983 df3f 3f25 99bf e7b9 383f
00000050: 63ee 003f ddbb d53f 0b49 71be fc9d 343f
00000060: 4fc6 f3bd ac65 bc3e 49cc 61bc 7f95 d8be
00000070: 71f6 e7be 768c 223f 4484 43bf e65b 48bf
00000080: 0b32 a83f 0d8b 413f adbe a03e 2284 073f
00000090: aff2 cc3e 9027 2abf 5ef6 1c3e 623e 0abf
000000a0: afe4 d9bf 239f 113e 0b67 1abf 5009 5d3d
000000b0: 4e96 933f 6693 3d3f 97cb 47be ae80 8e3f
1.5239104 0.47081807 1.5887046 -0.6805344 2.6645205 0.4395546 -0.113455914 0.9214507
0.5372634 -0.7025773 0.21913286 0.6626725 0.059452463 1.2527183 0.4584752 0.152232
-1.4693686 1.7461902 -1.1964492 0.72158664 0.5036375 1.6697956 -0.2356302 0.70553565
-0.11903059 0.3679632 -0.0137816155 -0.42301556 -0.45305207 0.63495576 -0.76373696 -0.78265226
1.3140272 0.756028 0.31395474 0.52935994 0.40028903 -0.6646662 0.15328357 -0.5400144
-1.7022914 0.14220862 -0.6031348 0.05396396 1.1530244 0.7405304 -0.19511257 1.113302

mamba.layers.0.mixer.D_SSM f4 [48]
00000000: 7f0f c33f 110f f13e ac5a cb3f 8137 2ebf
00000010: 8187 2a40 4d0d e13e 935b e8bd 31e4 6b3f
00000020: 188a 093f 1bdc 33bf 5d64 603e e8a4 293f
00000030: 6d84 733d 1359 a03f 43bd ea3e b5e2 1b3e
00000040: 4514 bcbf 2983 df3f 3f25 99bf e7b9 383f
00000050: 63ee 003f ddbb d53f 0b49 71be fc9d 343f
00000060: 4fc6 f3bd ac65 bc3e 49cc 61bc 7f95 d8be
00000070: 71f6 e7be 768c 223f 4484 43bf e65b 48bf
00000080: 0b32 a83f 0d8b 413f adbe a03e 2284 073f
00000090: aff2 cc3e 9027 2abf 5ef6 1c3e 623e 0abf
000000a0: afe4 d9bf 239f 113e 0b67 1abf 5009 5d3d
000000b0: 4e96 933f 6693 3d3f 97cb 47be ae80 8e3f
1.5239104 0.47081807 1.5887046 -0.6805344 2.6645205 0.4395546 -0.113455914 0.9214507
0.5372634 -0.7025773 0.21913286 0.6626725 0.059452463 1.2527183 0.4584752 0.152232
-1.4693686 1.7461902 -1.1964492 0.72158664 0.5036375 1.6697956 -0.2356302 0.70553565
-0.11903059 0.3679632 -0.0137816155 -0.42301556 -0.45305207 0.63495576 -0.76373696 -0.78265226
1.3140272 0.756028 0.31395474 0.52935994 0.40028903 -0.6646662 0.15328357 -0.5400144
-1.7022914 0.14220862 -0.6031348 0.05396396 1.1530244 0.7405304 -0.19511257 1.113302

mamba.layers.0.mixer.in_proj.weight f4 [96, 6]
00000000: 8510 b2b9 1d31 593a e898 5abd b32c f43e
00000010: f1f1 703f 5459 353e de94 fb37 7cbf 1fba
00000020: 9e2f 59be 3ec6 0b3e 830a e8be 9a6c aabe
00000030: feb2 3dba 6070 6bba 18b5 993d 2428 70bd
00000040: f519 6ebf ccba 393e b4d1 ecbe e105 9ebf
00000050: 6098 123e c706 9cbf 82c7 303e 1448 adbe
00000060: 21fc 5abb 2c95 aaba 7cec a5be 7563 8c3e
00000070: 7514 853f 8c58 2a3e e7fe 7b39 55f7 e9ba
00000080: 97f4 3cbe e641 a23e 65dd 64bf 8fdd adbe
00000090: 2fef 00b9 9583 823b 1acd 6abe f58c 59bf
000000a0: ad3a 65be ac25 503e f5e5 07bb e320 7dbc
000000b0: aa3d a9be d27e 7cbe f7ab b93e 804e 293e
000000c0: 2a59 29b7 07c6 b83a 70c8 c9be 06ed 98be
000000d0: fba9 133f a2a3 b1be 3d43 6739 956e 203b
000000e0: 30a1 853c ddd6 47bd 546e 86bf 4843 e73d
000000f0: 7019 58b8 2823 29ba 7b6f acbe 5c61 f53d
00000100: 4de9 2dbf d4dc cb3e 79a1 7a37 081f 9b3b
00000110: cc19 f8bd 2a73 72bf 067d 633f 6fb7 cebe
00000120: 6629 03be 4090 b8bf 90a5 8d3c c697 5fc0
00000130: 9a7d e93d e779 b8be 267f 44b9 90dc 6ebb
00000140: 8ae4 87be 0b4c 223f ad88 72be 2036 7a3c
00000150: cbe4 c4bc 5d7f 6fbf 8bdb afbe 1bac cebe
00000160: 5e25 923c 4cdc 0e3e ed3d b138 c547 43bb
00000170: d6bf 2ebe fe7e 0c3f 4042 80bf c0ba bb3e
00000180: f67d 7ab9 70cf aa3b 8a86 09be 9e29 80bf
00000190: bd90 373e 7861 f0bd d977 503f 7cbf 1ebe
000001a0: d8d7 2cbd 5157 b0be ec56 ffbc c05d 8abb
000001b0: 92a3 fb39 d7f0 ca3a 90f7 ce3e e9f0 793c
000001c0: 1ebb a4be 7257 aabe 0682 5cb8 ad99 103b
000001d0: 3fac bcbe 616a e2be 73b8 68be c870 c03e
000001e0: 3216 0eb9 6408 f7ba 5c11 493e d3ad 883e
000001f0: d673 903f d4b9 cbbd ef56 00b9 af72 9c3a
00000200: 3823 7b3e 6528 07bf 8c39 613f 904d 023e
00000210: 6fcb d638 a094 3abb b4d4 a5be ef33 083f
00000220: 0467 9f3e 0868 683e dc9a 98b9 24d7 8ebb
00000230: 4254 99be 035f 3c3f ef08 0b3e 6d1f 81be
00000240: 829b 5939 dea1 97bb b8aa 273e 292a 633f
00000250: 3006 ab3e 2cf1 053e f7d6 a838 27a9 54ba
00000260: 48ae b93e 675f 753e 6cbe 8fbf a047 2dbc
00000270: 1ee0 b739 9b01 a23b 90ed b3bc b77a 4abf
00000280: 86b9 7d3e 9a00 aabe 2bbc 2d3a ec3a b3bb
00000290: cc35 97bd 0feb 773f 71ae 87bf a013 0a3e
000002a0: 18cf 033a 53c6 8ebb 68ba 2cbe 43a7 a53e
000002b0: df0f 1bbe 28c5 733d 99ab f13d 5af5 c4bf
000002c0: aa56 b63e da45 f0bf da7d 96bc d6a1 923e
000002d0: 38a3 68be c5ee 3dbf 6d4e c5be ba07 9abf
000002e0: 347b 04bf ecd5 92bd 7682 8c3f c4d1 7f3e
000002f0: 000a dcbc dce2 a33e b923 1c3d eeeb 933e
00000300: a4f0 98b8 91c7 5bb9 aa3e a03e 05e3 a33c
00000310: 2796 80bd 6016 b43e bec5 fc38 0e18 8bb9
00000320: 18ef debd 222a 073e 6418 12bf eeae b23e
00000330: 87b6 8b39 6f1f 4c3b 02cf 0dbe 38ac e4be
00000340: 7fc8 4e3f 6e1c 8cbe 3107 9438 e568 94bb
00000350: 0acf 3dbe 7272 733f c09b a2be ae24 0ebe
00000360: b042 833f f9e7 0bbd c0fa 18bd 23da 07c0
00000370: 0df5 9fbd a46a c93e 2745 9638 99be baba
00000380: 2b56 b8be e5ec ab3e 6b2a 6f3e 1cc9 a6bd
00000390: cf17 1437 fbfe 683a 6839 61be b76d 58be
000003a0: c5ac 58bf d034 6b3d f971 6039 cd9f 383b
000003b0: 0af9 38be 9949 62be c46a 23bf 022e bfbe
000003c0: 29bd db3e d960 6f3f e58d cabe dc86 c03f
000003d0: 51f0 8e3e c444 653e 277a f1b7 50fe f6ba
000003e0: f02e 97bc 02ed bd3e 6b4a 11bf b042 c03d
000003f0: d366 9238 9e58 8dbb a006 5a3e 2d16 4b3f
-0.00033963114 0.00082852115 -0.05336848 0.47690353 0.94119173 0.17709857 2.9990853e-05 -0.0006093902
-0.21209571 0.13649842 -0.4532052 -0.3328598 -0.000723645 -0.0008981284 0.07505244 -0.05863203
-0.9300836 0.18137664 -0.4625374 -1.2345544 0.14315939 -1.2189568 0.17263606 -0.33844054
-0.003341444 -0.0013014427 -0.32406986 0.2741963 1.0396868 0.1663534 0.00024032184 -0.00178502
-0.18452679 0.31690902 -0.8940032 -0.33958098 -0.00012296134 0.003982971 -0.22929803 -0.8498071
-0.22385664 0.2032687 -0.002073643 -0.015449735 -0.33054858 -0.24657753 0.3626401 0.16533852
-1.0093945e-05 0.0014097103 -0.39410734 -0.29868335 0.57681245 -0.34695154 0.00022054925 0.0024479975
0.016312212 -0.048788894 -1.050242 0.1129213 -5.1522104e-05 -0.0006452077 -0.33678803 0.119814605
-0.67934114 0.39816916 1.4938757e-05 0.004733924 -0.12114295 -0.94706976 0.88862646 -0.40374324
-0.12808761 -1.4419022 0.01729086 -3.4936385 0.1140091 -0.36030504 -0.00018739383 -0.0036447383
-0.2654155 0.6339728 -0.2368495 0.0152716935 -0.024034878 -0.93553716 -0.34347185 -0.4036568
0.017840084 0.13951224 8.451552e-05 -0.0029797417 -0.17065367 0.54881275 -1.0020218 0.36665916
-0.00023888782 0.0052127168 -0.13430229 -1.00127 0.17926307 -0.11737341 0.81432873 -0.15502733
-0.042198032 -0.34441617 -0.031169377 -0.0042226017 0.0004799632 0.0015483153 0.4042325 0.015255191
-0.3217401 -0.3326984 -5.257318e-05 0.0022064254 -0.36850163 -0.44221786 -0.22726612 0.37586045
-0.00013550444 -0.0018847105 0.19635528 0.26695117 1.128535 -0.09947553 -0.00012239417 0.0011936034
0.24525154 -0.5279601 0.87978435 0.127249 0.00010242208 -0.0028469935 -0.32388842 0.53204244
0.31133282 0.22695935 -0.00029107078 -0.004359143 -0.29947096 0.73582476 0.13577627 -0.25219288
0.00020752664 -0.0046274504 0.16373718 0.88736206 0.33403158 0.13080281 8.0509046e-05 -0.0008112364
0.3626578 0.23962174 -1.1229987 -0.010576159 0.0003507146 0.004944039 -0.021963865 -0.790935
0.24777803 -0.33203584 0.00066274655 -0.0054696705 -0.07383308 0.96843046 -1.060011 0.13484049
0.0005028113 -0.004357138 -0.16867983 0.32354173 -0.15142773 0.059514195 0.11800308 -1.5387375
0.35612994 -1.8771317 -0.018370558 0.28639096 -0.22718513 -0.7419246 -0.38536397 -1.2033608
-0.51750493 -0.071697086 1.0977314 0.24982363 -0.026860237 0.32009017 0.038120005 0.28890938
-7.2927476e-05 -0.00020959812 0.3129781 0.020005712 -0.06278639 0.3517332 0.00012053129 -0.00026530068
-0.10885447 0.13199666 -0.5706847 0.34899086 0.0002664814 0.0031146666 -0.13848498 -0.44662642
0.8077468 -0.2736544 7.0585294e-05 -0.004529106 -0.1853601 0.95096505 -0.31759453 -0.1388118
1.0254726 -0.034156773 -0.03734851 -2.122689 -0.078104116 0.39339173 7.165438e-05 -0.0014247476
-0.3600324 0.33579174 0.23356025 -0.08143827 8.827031e-06 0.00088880927 -0.21994555 -0.21135603
-0.84638625 0.057423413 0.00021404763 0.002817142 -0.18063751 -0.22098388 -0.63834786 -0.3733979
0.42917755 0.9350715 -0.39561382 1.5041156 0.27917722 0.22389513 -2.878632e-05 -0.0018844102
-0.018454999 0.37094885 -0.5675418 0.0938772 6.980975e-05 -0.0043135425 0.2129159 0.7933071

mamba.layers.0.mixer.conv1d.weight f4 [48, 1, 16]
00000000: 15ac 95bd 62bd 553e a00d e4bd 30d5 41bd
00000010: 0dff 923d 0cbe 413e 8bcf 36bd 08a3 30bd
00000020: 0d00 803e e362 823c b76b cfbd f078 33be
00000030: f35b 27be 5d90 d13d 13f7 debd b42b c33c
00000040: d21c 8a3c 3ae0 fdbd c9e7 4e3d e0ef 73be
00000050: fceb 203e 6169 1c3e bc8c 4c3e 3483 12be
00000060: 786a c73d e505 553e d6de a93d 5fed 79be
00000070: 6104 72be 9b50 fabd 3602 153d e8a0 de3d
00000080: 7571 443c bd2d fcbd 923e 8e3d 8374 e5bc
00000090: 049e 6fbe 2008 053c 8d46 adbd 2beb 5d3d
000000a0: 3333 5f3d 7987 09be a294 d63d 5906 61bd
000000b0: 4d14 ff3d 3b2d 4a3e 66e8 05be 2848 273e
000000c0: 68f9 953e bbeb 533d 8cd2 973d 730c 913e
000000d0: ed6f de3e e731 dd3e 1259 9d3e bc1d 613e
000000e0: b07d ea3c c59d bd3e d483 d03e bb7f 303e
000000f0: 1422 763e 32aa e43c a81b 053e 7e87 a33d
00000100: 5769 15ba 004b 843d 6aae 34be ff7f 15be
00000110: f800 d43a 7c1d 1e3e a259 21be 3bde 613d
00000120: c1fd 323e f6a0 8fbb 34ff 1b3e aaee a9bd
00000130: 7420 4a3e e558 b0bd 4ed2 acbd 6468 82bd
00000140: 127c 883e dacb 3fbd 57ea 2abe 7635 cb3d
00000150: 9608 59be 8542 763e e8d9 49be def4 533d
00000160: 73da 073e 677c 45be fd1e 34be 7ea2 adbc
00000170: 7ec5 883e 934c 113e 6c2c 94bc ec9f 31be
00000180: a363 6abe 8c6e 1f3e 6d73 c33d b79c 08bd
00000190: 15df 473c 9d53 c1bc 1b73 a03d ce93 05be
000001a0: d0d8 1b3e d781 8dbd 9ede d33d ae3a 87bd
000001b0: b43a 4dbe 21ef 7ebc b130 803e 2ee2 a4bd
000001c0: 7c01 fe3d da25 a13d fd48 ae3d 1c52 fcbd
000001d0: 06a0 61be 1cb8 88bc cde5 0a3c d8ff 1b3e
000001e0: 31ce 67be 39c3 e1bc 9af4 78be 0f69 293e
000001f0: 93bd 6c3e e689 683c ee34 353e 930b 36be
00000200: e02c 2d3d 08ad 213d 70e6 013e 9e48 01be
00000210: 279f eabd 5f95 c53d 6408 3cbe 8b4d 67bc
00000220: 1f50 bc3d 2716 20bd 94e5 71be 1cde e73d
00000230: bbb3 a43d 6a0b d43b 5497 1d3e 6b9e 1abd
00000240: d6c6 083e 80eb 3f3e a2b0 123e 8084 5ebe
00000250: 19d1 50be 198c a5bd 3cc6 dbbc b252 55bd
00000260: 2346 46bd e3c4 243e 51a0 913d 4f7f 7ebe
00000270: bb28 5a3c fb50 173e 7ac2 733d fd05 25bd
00000280: 4bdd 503e b076 18be 4679 41be afa0 53bd
00000290: 8c3b 633e dffd d63d 838b 2ebe 98bd adbb
000002a0: 2122 efba ce37 623e 6ff3 3fbd f357 57bd
000002b0: 2fc1 a6bd f30b cabd 94b0 5b3e 7645 f7bd
000002c0: 417a ac3c be7a 163e 4cde 25be 6418 71bd
000002d0: 065a 9f3d 4bfa 993d 4531 2e3c 0dc0 d8bd
000002e0: ed45 3abe 67ac 0d3e d459 473d 4e5d 06bc
000002f0: 1031 b1bd a99f 28bd f6c6 2f3e 88f7 3bbd
00000300: e9ad 453e 3ce1 e8bb d25f a33d aa83 8d3e
00000310: 1b3c c03e e28b b2bc 5a32 c03e b0d9 8a3d
00000320: 75d3 593d 1ad7 803e 0785 9d3d 5642 e73e
00000330: 4e28 433e 4532 c93e b723 743d daed d43e
00000340: f3c0 813d 81ca 9bbd d448 653e 2d02 b5ba
00000350: ec3e 2a3e 1748 50be 93f6 73bd 4fca 69be
00000360: 0a01 6cbe c247 9c3d 1e0b 563e 6669 3dbe
00000370: ba7f 3f3e 69c7 78bb 7e33 c1bc 920d b23d
00000380: 931c 17bf 2e4a c2be 9588 e5be 6c6f fbbe
00000390: 61d8 1ebf 270a 1abf bd9b 91be d166 2bbf
000003a0: 3b53 c0be 09d7 ecbe 69f1 35bf 94af b2be
000003b0: 9cf4 c6be 5f24 0fbf 5be0 afbe 78d6 cdbe
000003c0: 808f 2c3c 72e8 ae3c 6617 b43d f948 4ebe
000003d0: ddf8 5abe 6ffd 4b3e 5c4c 2b3c a00c babc
000003e0: f8ef e73c bb23 15bd c5ec 113e 7032 8bbc
000003f0: e5eb 833e 1bb8 47be 0e9a d8bd f1b7 0f3d
-0.07308213 0.20873025 -0.11135411 -0.047322452 0.07177553 0.18920153 -0.044631522 -0.04312423
0.2500004 0.015916293 -0.10127967 -0.17526603 -0.1634367 0.10232613 -0.108869694 0.02382455
0.016859446 -0.123962834 0.050514016 -0.23821974 0.15715021 0.15274574 0.19975561 -0.14307863
0.09737104 0.2080303 0.08294456 -0.24406956 -0.23634483 -0.122224055 0.03637906 0.10870534
0.011989941 -0.123134114 0.06945528 -0.028009659 -0.23400122 0.008119613 -0.08460722 0.05417935
0.054492187 -0.13430585 0.10477568 -0.054937694 0.12455044 0.19743817 -0.13076934 0.16336119
0.29291844 0.051738482 0.074132055 0.2832981 0.43444768 0.43202135 0.30732018 0.21983999
0.028624386 0.3703443 0.40725577 0.17236225 0.24036437 0.027913187 0.12998831 0.079848275
-0.0005699596 0.064596176 -0.17644659 -0.14599608 0.0016174605 0.15440935 -0.15756848 0.055143576
0.17479612 -0.0043832017 0.15234071 -0.08297475 0.19738942 -0.08610705 -0.0843855 -0.06367567
0.26657158 -0.046825267 -0.16690956 0.09922306 -0.21194682 0.24048813 -0.19712031 0.051747195
0.13266926 -0.19285737 -0.17589946 -0.021195646 0.26713175 0.14189367 -0.018087588 -0.17346162
-0.22889571 0.15569514 0.095435 -0.03335258 0.012199183 -0.02359944 0.078344546 -0.13044664
0.15219426 -0.069095306 0.10345195 -0.06602989 -0.20041925 -0.015559942 0.2503715 -0.08050953
0.12402627 0.07868548 0.08510015 -0.123203486 -0.220337 -0.016689353 0.00847764 0.15234315
-0.2263725 -0.02755891 -0.24312058 0.16543983 0.23119192 0.014193034 0.17695972 -0.17777853
0.042279124 0.039471656 0.12685561 -0.12625358 -0.11456137 0.09647631 -0.18362576 -0.014117609
0.091949694 -0.039083626 -0.23622733 0.11321661 0.08042093 0.006471087 0.15389758 -0.037748735
0.133571 0.1874218 0.14325193 -0.21730232 -0.20392264 -0.08083362 -0.026827924 -0.052080818
-0.04840673 0.16090731 0.07110656 -0.24853252 0.013315375 0.14776985 0.05951164 -0.040288914
0.20396917 -0.14889026 -0.18893918 -0.05166691 0.22190684 0.10497641 -0.17045407 -0.0053021424
-0.0018244424 0.220916 -0.046863016 -0.05257411 -0.081423156 -0.098655604 0.21454078 -0.120737955
0.021054389 0.1469526 -0.16198081 -0.05886115 0.077808425 0.07518443 0.010631864 -0.10583506
-0.18190737 0.13835298 0.04866965 -0.0082009565 -0.08651936 -0.04116789 0.17165741 -0.04589036
0.19304623 -0.007106928 0.07977261 0.27639514 0.37545857 -0.021795217 0.37538415 0.06779802
0.053180177 0.2516411 0.076913886 0.45167798 0.19058344 0.39296165 0.059604373 0.41587716
0.0633563 -0.07606984 0.22391063 -0.0013809853 0.16625565 -0.2034 -0.059561323 -0.22831081
-0.23047271 0.07630874 0.20902678 -0.18497238 0.18701068 -0.0037960655 -0.023584124 0.086939946
-0.59027976 -0.3794722 -0.44830766 -0.49108446 -0.6204892 -0.6017174 -0.2843913 -0.6695376
-0.375635 -0.4625781 -0.7107149 -0.3489958 -0.38858497 -0.5591487 -0.34350857 -0.4020269
0.01053226 0.021351073 0.087935254 -0.20145024 -0.21383996 0.19920896 0.010455217 -0.022711098
0.028312668 -0.03641103 0.14250477 -0.016991824 0.2576591 -0.19503824 -0.105762586 0.03508753

mamba.layers.0.mixer.conv1d.bias f4 [48]
00000000: bba4 a3bf 5502 97be 07c7 bbbd 45f7 21bf
00000010: 2ba5 a3bf b008 313b dbd8 49bc 45a5 a3bf
00000020: d76c 74be 55a4 a3bf 162f 92bc 1593 c7bc
00000030: 89bc 2cbe 5c01 36bd b75c f4be 7a2c cbbe
00000040: fda1 a3bf 137e 95be dea4 a3bf 9bb8 5e3d
00000050: f991 a5bb c4a4 a3bf 1ba4 a3bf a303 90bd
00000060: ce2c b63d 5193 0d3d 656d d73c 78a6 a3bf
00000070: 7ba4 a3bf 9707 133f 90fb 7fbf fd06 a6be
00000080: 2704 02be ff35 11be 814c 44bd 3678 2c3e
00000090: 2d84 18bf a4e8 6bbd eba4 a3bf a88f 323b
000000a0: 7f58 67bf c3e3 efbc 15a5 a3bf 3521 5abd
000000b0: f8b3 8abc 6862 113e b5a4 a3bf ca42 b1bd
-1.2784647 -0.29493967 -0.09168821 -0.6326793 -1.278478 0.0027013235 -0.012319769 -1.2784811
-0.23869644 -1.2784525 -0.017844718 -0.024362126 -0.16868795 -0.04443489 -0.47726986 -0.3968237
-1.278381 -0.2919775 -1.2784688 0.054375272 -0.0050528017 -1.2784657 -1.2784456 -0.07031944
0.088952646 0.03456432 0.02629728 -1.2785177 -1.278457 0.57433456 -0.9999323 -0.32427207
-0.12696896 -0.14180754 -0.047924522 0.16842732 -0.59576684 -0.05759491 -1.2784704 0.002724627
-0.9036941 -0.02928341 -1.2784754 -0.053254325 -0.016931519 0.14197695 -1.278464 -0.08655317

mamba.layers.0.mixer.x_proj.weight f4 [65, 48]
00000000: 8ee4 cbbe 8969 a7bd 70bd 0cbd cde4 17bf
00000010: 9212 63be 9025 83bb 7577 72bb d453 91be
00000020: adad 91bd 52ff 71bf f8aa ddbb 2ca9 a3bb
00000030: 66c0 b5be e38a 28bc 87f5 82be 0700 a3bd
00000040: c030 adbe b101 07bd 2dcd d7be dab8 443c
00000050: c1ba f3bb e94e 1ebf fca0 fcbe bee0 f3bc
00000060: f8e4 b03c c3bc 373c 0617 173a 9160 b5be
00000070: 6c5f bfbe 1a9e b3be 5230 e9be 1bb8 abbf
00000080: c98e 42bd 9111 63bd 22ad d9bc d27f 853d
00000090: b154 67bf 70d6 b2bc 10a3 d8be f345 cc3b
000000a0: dff6 02bf 47a8 7fbc 9794 09bf 2649 89bc
000000b0: 349c 75bc 73e9 513d 7754 c0be e9be d3bc
000000c0: 9e57 3b3f 25ae d53e ad10 113d 648c bbbe
000000d0: 20cd 373d 54ff 603d 2c8a 613d caf8 c53e
000000e0: c396 ef3d bd0c f03e 6911 92bc b8b0 92bc
000000f0: 86e0 23be 5d27 e43d 7a83 d03f 8654 003e
00000100: 2eee d7be f97d adbf 8cab 183f 0c6f 12bb
00000110: 922e dbbd 7bf1 2e3f a5c7 da3d f573 d53d
00000120: e5fd 6d3d f94b f33d 4aa9 bc3d ad95 8b3f
00000130: 6e6a d13e 26a6 bdbf ea4d 213f 816b 783e
00000140: 603e f33c 9eb8 623e 6987 b63c 2210 c2bb
00000150: 7da7 13c0 97ff 9d3d 0169 863f b29a bfbc
00000160: 24db 1c3f 7add c63c 3a6a 6f3e 4a87 d5bc
00000170: c678 81bc 0576 e2bd b677 433b b495 2a3e
00000180: d2d6 653f d7eb 4bbe f81d 7abd 4f34 fe3f
00000190: 99c5 f93e 4e14 39bc aa60 bfbc 8d9a 7f3f
000001a0: 52bf ccbd e279 a13f 17ed 4bbd 018b 4b3d
000001b0: b699 d83f f4cb 64bd 7bd2 0ac0 2373 4b3e
000001c0: dad2 2e3f 1d4b 19bd 4049 513f 20fb 143a
000001d0: eda8 5b3d 321c 393e 9d6b a43f 3ef1 bdbd
000001e0: 276f 59bc 8b92 80bd 3eb5 93bd a44e e03e
000001f0: 8ec8 bc3f 4bcf c23f 2245 b63f ea85 2f3f
00000200: e6f2 7fbd e939 0cbe 70bd a8bd 8b05 513d
00000210: 767b 10bf de1f 97bd 16ab 9b3f f755 b03a
00000220: 1f3d ca3f a8f6 dabc f4fa b43f 6688 c8bc
00000230: f78e d2bc 5232 b83d e5be 7f3f 7184 c9bd
00000240: 7dc0 f03f 6f3f ecbc a1bb 93bb 6524 2140
00000250: 523b aa3f f980 30ba 8401 933b c81e 9a3f
00000260: c713 393b 0c93 1440 e5c2 153a 74fb 76bb
00000270: 1de5 1540 bb8a 433b 9511 f8be c440 893d
00000280: 6b88 a33f b09d c23f 78cd 8a3f ac59 03ba
00000290: fc78 1f3b 0c57 2d3f 7b21 213f 0f17 17bc
000002a0: aa4c 7c3a 31a7 c9bb 715e 0ebc 4b99 ff3e
000002b0: ad72 f13f 8ea4 1e40 bc55 0140 14c6 563f
000002c0: d782 763a 709f aeba 8df5 01bc a793 ed3b
000002d0: 3aca 1f3f 0c96 14bb 1e18 a53f ba8a 4e3b
000002e0: a33a 0940 c0b5 a3bb 2031 923f 07a9 97bb
000002f0: 905e 0bbc a327 21bb 5fa3 893f eb27 7cba
00000300: 0f8d ac3f 35e1 503e ae49 7bbc 39cd 6ebf
00000310: c3fb 9c3f 48ba 173e 3ca5 16bd c025 043f
00000320: ecce 5d3d fd1e 1a40 cc0b 6fbb 491e 94bd
00000330: a460 a6be d500 1e3e cb6d 02c0 7981 de3f
00000340: d0b3 eb3e 8be5 72bf 81f5 0b40 6469 263d
00000350: fa9b f33d e994 aa3f fe97 0d3e 2b74 843d
00000360: 1a91 903d 52b5 063e 4614 91bd 9d22 0e40
00000370: d80d 4b3f fc03 cabe 109b 853f 6bae a83f
00000380: c22c 02be e2b5 ab3d 205d 29be a884 dc3d
00000390: 7149 9abf 7028 63bd 71b7 e23f e165 343d
000003a0: e8b7 94be e098 ae3d 38e7 de3f 8b76 79bd
000003b0: dc83 0b3e ac92 54bd 4ead bb3f df3b cabd
000003c0: 7848 c6bf f6c6 713d 12d5 17be adf3 03bf
000003d0: 1610 f9bf a27c 713e 9a5d 09bc e29e bbbf
000003e0: c005 cfbe c9c5 8cbf df7f a7bd a586 a53d
000003f0: 5b23 30bf df46 54bd 048d 1c3f 5523 d7bf
-0.3982281 -0.08174426 -0.03436035 -0.593335 -0.22175053 -0.0040022805 -0.0036997471 -0.28384268
-0.07113204 -0.9453021 -0.006764766 -0.004994532 -0.3549835 -0.010287019 -0.25577947 -0.079589896
-0.33826256 -0.032960597 -0.42148724 0.012006963 -0.0074380343 -0.6183916 -0.4934157 -0.029770251
0.021593556 0.011214438 0.00057636236 -0.35425237 -0.3737749 -0.3508156 -0.45544678 -1.341556
-0.04749945 -0.055436675 -0.026571814 0.065185204 -0.90363604 -0.021830767 -0.42311907 0.0062339245
-0.51157945 -0.015604085 -0.53742355 -0.016758513 -0.014990855 0.051248025 -0.37564442 -0.025847869
0.7318057 0.41734424 0.035416294 -0.36630547 0.044873357 0.054931 0.05506341 0.38666373
0.116986774 0.4688472 -0.017830567 -0.017906532 -0.16003618 0.111403205 1.6290123 0.12532243
-0.42173904 -1.3554069 0.5963676 -0.002234402 -0.10702242 0.6833722 0.106826104 0.10422508
0.05810346 0.11879725 0.09211977 1.0905052 0.40901512 -1.481633 0.6300951 0.2425976
0.029692829 0.22140738 0.022281365 -0.0059223333 -2.3070977 0.077147655 1.0500795 -0.023389194
0.6127188 0.02427553 0.23380366 -0.026065487 -0.01580466 -0.11057667 0.0029825992 0.1665867
0.89780915 -0.19914185 -0.061063737 1.9859713 0.48783568 -0.011296345 -0.023361523 0.998452
-0.09997429 1.2615321 -0.049786653 0.04969311 1.6921909 -0.055858567 -2.1690967 0.1986814
0.68290484 -0.03742515 0.81752396 0.00056831725 0.053627897 0.18077162 1.2845341 -0.09274529
-0.01327113 -0.06277951 -0.072123036 0.43809998 1.4748704 1.5219511 1.4239848 0.6856371
-0.062487505 -0.13693966 -0.08239257 0.051030677 -0.56438386 -0.07379125 1.2161586 0.0013453354
1.5799903 -0.026728943 1.4139085 -0.024479102 -0.025702937 0.08993973 0.99900657 -0.09839714
1.8808743 -0.028838841 -0.004508451 2.5178463 1.3299353 -0.00067330856 0.0044862647 1.2040644
0.0028240548 2.321475 0.00057129405 -0.0037686499 2.342109 0.0029837328 -0.48450914 0.06701806
1.2776006 1.5204372 1.0843954 -0.00050106156 0.0024333587 0.6771095 0.6294171 -0.009221806
0.0009624461 -0.006153964 -0.008689509 0.4992164 1.8863121 2.4787936 2.0208578 0.83895993
0.0009403652 -0.0013322663 -0.007932079 0.0072502675 0.6241795 -0.0022672443 1.2897985 0.0031515793
2.144204 -0.0049960315 1.1421242 -0.004628304 -0.008506432 -0.0024590276 1.0752982 -0.00096189854
1.3480548 0.2039841 -0.015337391 -0.93281895 1.2264332 0.14817154 -0.036778674 0.516201
0.054152414 2.4081414 -0.0036475537 -0.07232339 -0.32495606 0.15430005 -2.0379512 1.7383262
0.46035624 -0.94881505 2.1868594 0.040627852 0.118949845 1.3326694 0.13827512 0.0646747
0.07058926 0.13155106 -0.07083945 2.2208626 0.79318 -0.39456165 1.0437946 1.3178228
-0.12712386 0.08384301 -0.1653943 0.1076749 -1.2053663 -0.055458486 1.7712232 0.04404247
-0.2904656 0.08525252 1.7414312 -0.060904067 0.13624519 -0.05189769 1.4662263 -0.09874701
-1.5490866 0.059027635 -0.14827374 -0.51543695 -1.9458034 0.235827 -0.008384133 -1.4657862
-0.40434074 -1.0997859 -0.08178686 0.08082322 -0.6880395 -0.0518254 0.6115267 -1.6807657

mamba.layers.0.mixer.dt_proj.weight f4 [48, 1]
00000000: 1104 3f3d 706d 4ebf 41cf ba3e 8e35 9b3f
00000010: 279a 3c3e fbd6 773f a68b 243f 56dd a83f
00000020: 0f9c 863f 095b 1540 9e7f 113f 198b a6be
00000030: aa03 59bb 0eae dc3e eb6e de3e 3601 de3e
00000040: 6348 9cbd 67f2 6f3e 2b1d 553f 21a5 bf3f
00000050: 6bb6 8e3f a48b 593f d141 bdbe 1730 fb3d
00000060: 4e6a b1bf 66a5 2e3e e6c8 e33e 0f10 123f
00000070: 5902 583f 6147 173f 27eb 463e d5b6 0f3f
00000080: e453 7e3f 560d 1b3f 8e16 883f 3b58 523f
00000090: 333d 543f 7031 663f e339 993f c2a7 743f
000000a0: d48b aabd 3b03 ab3f c760 a73f 4a83 7f3f
000000b0: 29a3 a73f b814 e53e eb3a 65be cf66 633f
0.046634737 -0.8063574 0.36486247 1.2125719 0.1841818 0.9681241 0.64275587 1.3192546
1.0516375 2.3336813 0.56835353 -0.32527998 -0.0033113756 0.43101543 0.43444 0.433603
-0.07630994 0.23432313 0.8324763 1.4972268 1.114942 0.849787 -0.36964276 0.12265032
-1.3860567 0.17055282 0.4448921 0.57055753 0.8437858 0.5909329 0.19425641 0.56138355
0.99346757 0.60567224 1.0631883 0.8216588 0.8290588 0.89919186 1.1970791 0.9556848
-0.08327451 1.3360361 1.3076409 0.99809706 1.3096668 0.4474237 -0.22385757 0.8882875

mamba.layers.0.mixer.dt_proj.bias f4 [48]
00000000: 084a f4c0 726d 89c0 6acd 01c1 7eb0 96c0
00000010: 5cf1 e9c0 a2bb a2c0 770c a0c0 8b59 5ec0
00000020: 2272 89c0 b354 a9c0 1870 b1c0 4672 6cc0
00000030: 3bae 82c0 6267 b7c0 6d1f b5c0 5968 c4c0
00000040: 0d5a 06c1 c21e c6c0 3a4b 74c0 0d69 91c0
00000050: 157c 9ac0 bbe4 b3c0 a751 25c1 79bf 19c1
00000060: a7ab d6c0 87a8 f4c0 3518 c0c0 9794 aec0
00000070: 4690 9cc0 c3d1 e0c0 d7bf f8c0 a17f ccc0
00000080: c05e b3c0 5d6f 9cc0 2fcd 94c0 8b47 5bc0
00000090: 5e9c eac0 e0a1 94c0 f1bd 95c0 7048 97c0
000000a0: ce75 f0c0 7f4c 82c0 ca9c 64c0 0045 b7c0
000000b0: 3404 8bc0 ac20 bfc0 c1f2 15c1 de94 a9c0
-7.634037 -4.29461 -8.11265 -4.7090445 -7.310713 -5.0854044 -5.0015216 -3.4742153
-4.295182 -5.2915893 -5.5449333 -3.6944747 -4.0837684 -5.73137 -5.660086 -6.1377378
-8.396985 -6.1912546 -3.8170915 -4.5440736 -4.8276467 -5.621671 -10.332435 -9.609246
-6.7084537 -7.645572 -6.002955 -5.4556384 -4.8926115 -7.0256057 -7.773418 -6.3905797
-5.605316 -4.888594 -4.650047 -3.4262416 -7.331588 -4.64476 -4.679436 -4.7275925
-7.5143805 -4.071838 -3.5720696 -5.727173 -4.344263 -5.9727383 -9.371766 -5.2994223

mamba.layers.0.mixer.out_proj.weight f4 [6, 48]
00000000: 2c76 833d 3efd 98bd 7015 d4bc 14d0 16bd
00000010: 2ce7 30bd 2cab 93bd a4f9 703d fe7c 823d
00000020: 98a4 47bd 301b f93c fc86 0a3e 8cdc 263d
00000030: 44e5 0b3e 640d 233d be46 12be a0c6 d8bc
00000040: b06e 58bc 2aa9 04be 929b 71bd c48d 863d
00000050: 978c 12be 6489 1bbd a945 c9bd d51c 98bd
00000060: 6877 b9bc 0c73 073d f684 e2bd bcf2 47bd
00000070: 74a5 01be 4654 9f3d 5764 aebd 8a46 ebbd
00000080: 1a95 c3bd b89d fc3d cb46 ebbd f86d 65bd
00000090: e8e3 d93d 7a27 b33d 80a4 103d 7437 103e
000000a0: b1be b6bd 4ab4 a73d 6c13 ff3d 32bc aa3d
000000b0: 6642 973d 3cd5 e33d f613 71bd 180e 1f3d
000000c0: a814 a63c 00e1 a4ba 2456 bf3d daea 943d
000000d0: 0435 ae3d 846e fd3d 9424 fb3d 69ad 0abe
000000e0: a0d3 fdbd d4f2 f1bc 10fa 8f3c 90e2 f53d
000000f0: b02d ad3d 90f2 593d 4cc9 2d3d 0c64 21bd
00000100: bce2 e63d 12c9 babd dcf7 343d 2023 e9bb
00000110: 88ca 023d 7c1f 123e 0484 063e 8143 e3bd
00000120: 512b 03be 5d72 f6bd b2f0 eabd cfe1 01be
00000130: a040 0fbe 09ca 04be 5046 8c3d e097 4a3d
00000140: c4ab ae3d 5cdd 2f3d 680a e93c 3814 cf3c
00000150: 76b9 1abd c3c5 06be 3c6c c13d dcc8 a9bd
00000160: 1a32 65bd 30e9 3ebc 38d5 483d ec8a 86bd
00000170: a01d f33d 7253 8ebd 90ad 60bc 8825 b53c
00000180: e41c ae3d dcbe a8bc 805b 2b3d 6c4c 3f3d
00000190: 14f3 c33d 17ed 96bd 5e0e 37bd 999e 06be
000001a0: 84e4 e03d a41d 233d 708f 20bc 060a cb3d
000001b0: a7d4 9fbd da70 083e b6ee 933d c8b4 2a3d
000001c0: b07e 06be 604b b43c 1816 e23d ae11 60bd
000001d0: a0c8 79bc 3557 d7bd e900 88bd 4241 ac3d
000001e0: 804b 94bc 800a a8ba 004a 5d3d 100e c8bd
000001f0: 2259 cdbd 28a6 013e d039 93bd 4063 78bc
00000200: 1e40 c5bd 60da f73b 8ea1 113e 5abd a13d
00000210: d85d a23d 70e6 ec3d f061 58bc c0d1 3d3d
00000220: c0d6 113b 1c8a 06be decd b43d bfe3 b0bd
00000230: a4d9 e33d bcdc d1bd 06b3 20bd 8614 09bd
00000240: b221 0cbd 788e 983c 08ce 3d3d 7890 7a3d
00000250: 4071 21bb 0caa f9bc 0c4b 55bd de4c ac3d
00000260: 54d5 10be 1a90 0e3e e44f df3d 8efa dabd
00000270: 8832 0abe d0aa 7d3d 3ce2 553d 14cd 313d
00000280: 90bf 20bd 9274 babd 505e abbc 1ca8 e4bd
00000290: 100b 65bc 08ad 973c 80df 5abd f462 f63d
000002a0: bc29 693d 825e a73d 1a38 6bbd 504d 10bc
000002b0: f0aa 753d e894 683d 00fd 74bb d0f5 d73d
000002c0: 7f61 9ebd 8034 47bb e4ca 123e 8c11 093e
000002d0: f815 0bbd a0bb 2c3c 005f 2cba 947f ed3d
000002e0: 8098 1b3c 74a4 4bbd 10e4 163c c786 0abe
000002f0: 7cbd 383d 0024 35ba b25d abbd 6ecd 953d
00000300: 74ce de3d 0891 8dbc 9c0c 133e e876 a63c
00000310: 5076 cfbc bec8 21bd c463 823d 00e0 d537
00000320: 6e4e a5bd 5407 7dbd 5abf 29bd 68d5 923d
00000330: 7bcc afbd b8cd b83c 5873 e1bd 5092 c6bc
00000340: 9789 e5bd 008c 5dbb 8c8d f83d b43f f33d
00000350: d0ed 75bc 6e0b a53d 801f 283c 48f3 a93c
00000360: e88e 073e e8ae c23c 6ef9 b93d 2e35 103e
00000370: a462 353d 423e d13d 709a 113e f03d e4bd
00000380: d3fe 86bd e876 a1bd 9e69 a03d 0ebd 22bd
00000390: 005b 7f3b b082 c2bc 72c3 8e3d e065 6fbc
000003a0: 8009 b23c d832 d7bd dcdf 1b3d e44d 113e
000003b0: f083 8fbd 6cd2 b2bc 0239 d8bd d8ef e63c
000003c0: 388a cc3d 8075 a13a c20d 11bd 4c37 f13d
000003d0: 6a02 29bd 9850 b8bc 8c8d 703d 00ed 1cba
000003e0: 7055 8b3d b63f a23d 80d9 643d dc60 0a3e
000003f0: 20cc 91bd 700b 45bc 52b9 b2bd 634b a3bd
0.06419024 -0.07470177 -0.025889128 -0.036819533 -0.043189213 -0.07210383 0.058831826 0.063714966
-0.048740953 0.030408472 0.13528055 0.040737674 0.13661677 0.039807692 -0.14284799 -0.0264619
-0.013209984 -0.12955156 -0.058986254 0.065700084 -0.14311443 -0.037972823 -0.0982774 -0.07427374
-0.022639945 0.0330687 -0.110605165 -0.048815474 -0.12660772 0.07779746 -0.08515232 -0.11488064
-0.09549923 0.1233477 -0.11488112 -0.056013077 0.10639173 0.08747764 0.03531313 0.14083654
-0.0892309 0.08188684 0.12454876 0.08336677 0.07385711 0.111246556 -0.058856927 0.0388318
0.020273522 -0.0012579262 0.09342602 0.07271357 0.08506206 0.12374595 0.12262836 -0.13542713
-0.1239388 -0.029534735 0.017575294 0.12006104 0.0845598 0.05320984 0.0424283 -0.039402053
0.11273715 -0.09120382 0.04418169 -0.007114783 0.03193143 0.14269823 0.13136297 -0.1109686
-0.12809493 -0.12033532 -0.1147169 -0.12683795 -0.13989496 -0.12967695 0.068493485 0.049461246
0.085288554 0.042935714 0.028447345 0.025278196 -0.037774526 -0.13161378 0.09444472 -0.08290264
-0.055955984 -0.011652276 0.049031466 -0.06569466 0.11870885 -0.0694951 -0.0137132555 0.022112623
0.08501604 -0.020598821 0.041835308 0.04670374 0.09567848 -0.0736944 -0.044691436 -0.13146438
0.10981086 0.03982319 -0.009799823 0.09914021 -0.07804232 0.133243 0.07223265 0.041676313
-0.13134265 0.022008598 0.1103937 -0.05470436 -0.015245587 -0.1051468 -0.066407986 0.084108844
-0.018102407 -0.0012820512 0.05402565 -0.09768307 -0.10026766 0.1266104 -0.07188761 -0.015160382
-0.0963137 0.007563874 0.14221784 0.07897444 0.079280555 0.1156739 -0.013206944 0.04634261
0.0022253245 -0.13138622 0.088283285 -0.08637189 0.11125496 -0.1024718 -0.03923323 -0.03346684
-0.03421182 0.018622622 0.046339065 0.061172932 -0.0024634153 -0.030476592 -0.052073523 0.08413099
-0.14143878 0.13922158 0.1090391 -0.10692321 -0.13495839 0.061930478 0.052217707 0.04340847
-0.03924519 -0.09104265 -0.020918995 -0.11164877 -0.013979688 0.018515125 -0.053435802 0.120305926
0.056924567 0.08172323 -0.05742655 -0.008807495 0.05997747 0.056782633 -0.0037382245 0.10544932
-0.0773344 -0.0030396283 0.14335209 0.133856 -0.033956498 0.01054278 -0.00065754354 0.11596599
0.009496808 -0.04971738 0.009209648 -0.13527976 0.04510258 -0.00069099665 -0.0836748 0.07314573
0.108792216 -0.01728107 0.14360279 0.02032037 -0.02532497 -0.039498083 0.06366685 2.5495887e-05
-0.080716 -0.061774567 -0.041442253 0.0716961 -0.085839234 0.022559032 -0.11008328 -0.02423969
-0.11207884 -0.003380537 0.12136373 0.11877385 -0.015010312 0.08058821 0.010261416 0.020745888
0.13238108 0.023765042 0.09080778 0.14082786 0.044283524 0.10216953 0.1421907 -0.11144626
-0.065915726 -0.07884008 0.07832645 -0.039731078 0.0038964152 -0.023743957 0.06970872 -0.014611691
0.021733046 -0.105077446 0.038055286 0.14189869 -0.07007587 -0.021828853 -0.105577484 0.028190538
0.09987301 0.0012318343 -0.03541351 0.11778125 -0.041262068 -0.022499368 0.05872874 -0.00059862435
0.06803405 0.07922308 0.055871487 0.13513511 -0.07119012 -0.012026653 -0.08726753 -0.07973363

mamba.layers.0.norm.weight f4 [6]
00000000: d141 ba3e c04d 943e 0000 803f af1a afbf
00000010: 249e 993b 0000 803f
0.3637834 0.2896557 1.0 -1.3680018 0.0046880413 1.0

fc.weight f4 [1, 48]
00000000: 31a9 8837 d761 833e 002d b137 5a3c 81b8
00000010: 5ede 8c3f 4e4d fc36 9910 f2b7 1fd5 1d3f
00000020: 8eae e635 cc5c 7539 6628 f4ba 2891 d5b6
00000030: 13e0 273a 4a60 ab3c f2ce ffbe 272e 80b7
00000040: 42a4 0639 2215 96bf 46a6 9136 f5b7 22b8
00000050: 3cc1 6bbe 944d 0a37 d710 8338 9da3 c1b7
00000060: e248 87bd 91c6 a437 9f4a fd35 4f81 23b7
00000070: 0b7a 9837 ab4f 86bf c9c9 94bd 5633 c33f
00000080: 004a 33bd 2abf 10b9 bcae cbb8 b8c7 a338
00000090: b3e2 cdbf 8ac3 283d ff0e b037 7854 2b39
000000a0: 23ba 34bf ec8e 1f3e 3121 66b7 83fa 37b8
000000b0: 3e59 97b6 3d6b 8039 2c14 ad37 287a 8d37
1.629125e-05 0.25660583 2.1120999e-05 -6.162441e-05 1.1005361 7.5191847e-06 -2.8856377e-05 0.6165332
1.7187137e-06 0.0002339959 -0.0018627762 -6.364793e-06 0.0006403934 0.020919938 -0.49962574 -1.528028e-05
0.00012840427 -1.1725199 4.3406935e-06 -3.8795133e-05 -0.23022932 8.2435035e-06 6.2497034e-05 -2.3083581e-05
-0.06605698 1.9642788e-05 1.8871687e-06 -9.745664e-06 1.8176643e-05 -1.0493063 -0.0726505 1.5250041
-0.043771744 -0.00013804124 -9.712341e-05 7.809646e-05 -1.6084808 0.041202106 2.0987818e-05 0.00016339298
-0.7059652 0.15581864 -1.3716796e-05 -4.3863907e-05 -4.51054e-06 0.0002449396 2.06326e-05 1.6865393e-05
