models/classification/mamba_delV_100.0_trainDim_4_pN_100.0_vN_1.0_nonDim_False.pth (torch, 38575 bytes, 12 tensors)

mamba.layers.0.mixer.A_log f4 [64, 32]
000000 97 9d 1c 40 e9 b5 0f 40 da c4 73 3f 3b e1 16 40
       2.4471185 2.245478 0.95222247 2.357497
000010 1b 18 13 40 cd e4 05 40 1b c2 3c 3f 6b d7 e3 3e
       2.2983463 2.09209 0.7373368 0.44500288
000020 80 0d 1f 40 14 1d 16 40 65 29 75 40 6e d3 56 40
       2.485199 2.3455248 3.8306515 3.3566546
000030 4e dc 1e 40 a1 50 4e 40 11 8f 3d 40 5a e3 5c 40
       2.4821963 3.2236712 2.961857 3.4513764
000040 0a 3c 31 40 59 01 6e 40 ab e4 51 40 43 dd 2a 40
       2.7692895 3.7188323 3.2795818 2.6697547
000050 eb 55 57 40 bd 94 19 40 74 bd 7c 40 10 f8 85 40
       3.364619 2.3997033 3.9490633 4.186531
000060 dc 63 63 40 23 36 77 40 a3 09 87 40 bc 4d 6f 40
       3.55297 3.8626792 4.2199264 3.7391195
000070 83 9f 8e 40 23 86 7d 40 52 a4 6b 40 7e 3b 89 40
       4.4569716 3.961312 3.6819043 4.288512
000080 94 79 f5 3f db 0d d9 3f 20 b8 1b bf 57 d4 31 40
       1.9177728 1.6957353 -0.6082783 2.7785852
000090 49 52 a5 3f 17 2a 03 40 55 61 2f 3f 72 bd b6 3e
       1.2915736 2.049444 0.6850789 0.3569141
0000a0 5a b7 05 40 50 c7 30 40 9c 45 2c 40 68 48 4f 40
       2.089316 2.762165 2.6917486 3.2387943
0000b0 2b ba 35 40 7e 49 14 40 3d b4 04 40 2c f5 3b 40
       2.8394878 2.3169856 2.0735009 2.936839
0000c0 87 40 38 40 a8 bd 65 40 56 56 1b 40 1b b4 30 40
       2.8789384 3.5897007 2.4271445 2.7609928
0000d0 a3 50 5d 40 64 17 2c 40 37 d9 2c 40 c7 51 6d 40
       3.4580467 2.6889277 2.7007577 3.7081163
0000e0 1f 35 35 40 f0 ef 7a 40 72 1d 75 40 1a 35 51 40
       2.8313673 3.9208946 3.8299222 3.268866
0000f0 89 34 77 40 18 52 83 40 36 9c 29 40 80 70 70 40
       3.8625815 4.103771 2.6501594 3.7568665
000100 4b 65 1f 40 d0 74 c3 3f 12 74 dd bb 57 dc f3 3f
       2.4905574 1.5270023 -0.0067582214 1.9051617
000110 3a 47 4d 40 16 11 0c 40 38 9d 91 3f 1a 5c 8f 3e
       3.2074723 2.1885428 1.1376104 0.27999955
000120 27 98 a3 3f 82 cd 0d 40 4c 25 63 40 d8 16 73 40
       1.2780808 2.2156682 3.5491514 3.7982693
000130 18 ec 03 40 35 9b 47 40 d8 3f 48 40 a3 93 82 40
       2.061285 3.118848 3.1288967 4.080522
000140 59 c0 67 40 0d 03 7e 40 5a 33 68 40 7b 2f e8 3f
       3.621115 3.9689362 3.6281343 1.813949
000150 ad 63 76 40 d6 77 54 40 e4 78 6c 40 1a d6 7a 40
       3.8498337 3.3198142 3.6948786 3.9193177
000160 d5 37 90 40 5c ea 71 40 1a be 8d 40 32 8d 85 40
       4.5068154 3.7799292 4.4294558 4.1734858
000170 b1 92 8b 40 ef 6c 8b 40 a9 b6 5b 40 dd 1e 90 40
       4.3616567 4.3570476 3.4330237 4.5037675
000180 46 86 c2 3f 57 f3 92 3d 13 73 fc 3e e1 33 2f 40
       1.5197227 0.0717532 0.49306545 2.7375414
000190 f1 80 a9 3f 89 3c 45 40 ca c2 03 40 96 d6 0e 40
       1.3242475 3.0818198 2.058764 2.2318473
0001a0 14 6d f9 3f 58 19 16 40 5b b2 3b 40 f2 43 39 40
       1.9486413 2.3452969 2.932761 2.894772
0001b0 54 02 39 40 20 25 e4 3f bb d2 ed 3f 13 69 e3 3f
       2.890767 1.782383 1.8579935 1.7766441
0001c0 87 16 35 40 d8 d0 55 40 e8 4a 4d 40 f9 a8 37 40
       2.8295 3.3408718 3.207697 2.8696883
0001d0 a7 4b 2e 40 fe 56 4b 40 42 67 ff 3f 5b 7a 79 40
       2.7233675 3.1771846 1.9953387 3.898093
0001e0 b5 4e 55 40 09 91 24 40 9f 0d 7f 40 46 8e 81 40
       3.332929 2.5713522 3.9852064 4.0486174
0001f0 f8 bb 7a 40 2d 91 8a 40 ff 93 1b 40 d9 15 63 40
       3.9177227 4.3302217 2.430908 3.5482085
000200 00 75 96 40 f0 7d ee 3f 2d a9 f4 be 7c c2 48 bf
       4.701782 1.8632183 -0.4778532 -0.7842176
000210 e9 f1 dc 3f db 47 9a 3f c9 bc b6 3e fc d1 76 3f
       1.7261325 1.2053179 0.35690907 0.9641416
000220 01 1b 8e 3f 7d 52 b4 40 9e c9 16 40 1a a5 33 40
       1.1101991 5.6350694 2.3560557 2.806952
000230 90 80 d5 3f 82 5a a0 3f bb 0d af 3f c5 7e 1c 40
       1.6679859 1.2527621 1.3676065 2.4452374
000240 46 4c 2e 40 19 35 55 40 fa d7 40 40 ef a9 0c 40
       2.7234054 3.3313658 3.0131822 2.197872
000250 a8 c8 24 40 53 65 53 40 e6 c1 7e 3f 48 50 6a 40
       2.574747 3.3030593 0.99514616 3.66115
000260 5c 1d 3a 40 ab e6 1b 40 96 6f 75 40 29 74 85 40
       2.908042 2.4359539 3.8349357 4.1704297
000270 f1 27 79 40 db bb 65 40 77 1a 09 40 f5 45 61 40
       3.8930628 3.5895908 2.1422403 3.5198948
000280 a0 9a 28 40 fe 33 e0 3f d3 6b 1a 3f 7b ec 01 40
       2.6344376 1.7515867 0.60320777 2.0300586
000290 e2 a6 81 3f bd 39 11 40 0f 2e aa 3f fc 02 b6 3f
       1.0129054 2.269149 1.3295306 1.4219661
0002a0 10 dd 82 3f 72 d8 16 40 45 67 62 40 c0 b5 61 40
       1.0223713 2.3569608 3.537553 3.5267181
0002b0 e6 34 2a 40 94 0c fa 3f 1b b4 02 40 5b 73 6d 40
       2.6594787 1.9535089 2.0422428 3.7101657
0002c0 55 2b 28 40 73 96 3a 40 5c 83 32 40 05 a3 30 40
       2.6276448 2.9154327 2.7892675 2.75995
0002d0 af 72 62 40 9b 19 00 40 01 5f 11 40 e5 da 65 40
       3.5382497 2.0015628 2.2714236 3.5914853
0002e0 5b 4b 14 40 4c d6 5f 40 dd f3 73 40 fa 7d 59 40
       2.3170993 3.4974546 3.8117592 3.398314
0002f0 ec 0e 73 40 2b 16 81 40 b4 96 0e 40 0e 07 67 40
       3.7977858 4.033956 2.2279482 3.6098056
000300 88 01 22 40 22 e6 25 40 26 df 2e 3f 01 ad 0c 40
       2.5313435 2.5921712 0.6830925 2.1980593
000310 d2 44 5b 3f 2a 4a 23 40 18 cf 8c 3f 24 f5 21 3f
       0.85651886 2.5514016 1.10007 0.6326468
000320 ed e7 00 40 12 1b 2e 40 8d a3 28 40 64 21 55 3f
       2.0141556 2.7204022 2.6349823 0.83254075
000330 fd be 47 3f a7 a9 24 40 bf 07 31 40 32 bd 1d 40
       0.780258 2.5728548 2.7660978 2.4646726
000340 38 e1 46 40 a1 5f 2f 40 4d b5 32 40 90 58 62 3f
       3.1074963 2.7402117 2.7923157 0.88416386
000350 24 5b 11 40 db cf 39 40 48 d9 f5 3f d8 e1 39 40
       2.2711878 2.9033115 1.9206934 2.9044094
000360 2f 5c 4d 3f 98 f6 39 40 e6 81 30 40 3d c9 2b 40
       0.80218786 2.905676 2.7579284 2.6841576
000370 25 cf 23 40 77 fe 2d 40 ac 17 10 40 2d e1 2f 40
       2.559518 2.7186563 2.2514448 2.7481186
000380 35 3c a7 3f 40 04 52 3f 50 eb 23 3f f7 0f b6 3f
       1.3065249 0.82037735 0.64030933 1.4223622
000390 e1 48 f1 3f 42 62 b8 3f d8 f8 4f 3f d6 eb 31 40
       1.8850366 1.4404986 0.8123908 2.7800193
0003a0 3d a0 e9 3f d6 d3 31 40 d7 59 48 40 4d 35 16 40
       1.8252026 2.7785544 3.1304834 2.3470032
0003b0 e4 9b bf 3f d8 a3 25 40 62 17 1e 40 d4 57 59 40
       1.4969449 2.5881252 2.4701772 3.3959856
0003c0 ed db 4f 40 ba 03 5c 40 2f 37 3f 40 67 74 3f 40
       3.2477982 3.4377275 2.9877431 2.9914796
0003d0 fa a5 5d 40 59 d0 7a 40 2e 49 08 40 c5 85 5d 40
       3.4632554 3.9189665 2.1294665 3.4612896
0003e0 2b e4 80 40 f6 37 4c 40 3e 2b 5f 40 c9 1f 7e 40
       4.0278525 3.1909156 3.4870143 3.97069
0003f0 b4 f6 70 40 48 e4 78 40 5c 3a 3a 40 7b 23 7a 40
       3.7650576 3.8889332 2.909812 3.9084156

mamba.layers.0.mixer.D f4 [64]
000000 26 4a d0 3f 1a c5 51 40 9d a9 23 40 60 8a 74 40
       1.6272628 3.2776551 2.5572274 3.8209457
000010 7c fd 5c 3f 5e 33 0f 40 2e 9e 08 40 f2 ed 07 40
       0.86324286 2.2375102 2.1346545 2.123898
000020 db af 2a 40 b7 d0 0d 40 e8 d2 24 40 0b d0 45 40
       2.6669834 2.215864 2.5753727 3.090823
000030 7a 47 48 40 de 3e 26 40 1e e7 0b 40 09 28 29 40
       3.1293626 2.597587 2.1859813 2.6430686
000040 51 c3 a5 3f dd c8 a9 3f 44 85 29 40 13 6a 1f 40
       1.2950231 1.3264424 2.648759 2.4908493
000050 2d e7 8b 3f cb 58 15 40 5f ad 20 40 e4 00 be 3f
       1.0929924 2.3335445 2.5105817 1.4844022
000060 cb 93 1f 40 5c f6 43 40 8c de 30 40 2e 1d 6a 40
       2.4933956 3.0619116 2.7635832 3.658031
000070 96 a0 32 40 f9 23 42 40 b5 69 03 40 d6 bc 17 40
       2.7910514 3.0334456 2.0533268 2.3709006
000080 ba 00 24 40 28 4f 45 40 b2 ef 21 40 37 9a 4e 40
       2.5625443 3.0829563 2.5302548 3.2281625
000090 8b 45 34 40 4d ea 35 40 fd 7f fe 3f 3b ff de 3f
       2.8167446 2.8424256 1.9882809 1.742164
0000a0 5b 8e 39 40 be 45 fd 3f 2e e1 00 40 97 d7 2d 40
       2.8993137 1.9786909 2.0137439 2.7162836
0000b0 9d 01 21 40 98 c1 ad 3f b0 bb 8e 3f ec e1 34 40
       2.5157235 1.3574705 1.1151028 2.8262892
0000c0 6c 99 35 3f ab 62 4f 40 b5 09 3f 40 19 31 66 40
       0.7093723 3.2403972 2.9849675 3.5967467
0000d0 b6 b3 83 40 49 ff 37 40 5c 3e 5b 40 0c 51 39 40
       4.1156874 2.8749564 3.425681 2.8955717
0000e0 fe 0e b9 3f 82 4a 58 40 f6 6e 31 40 11 e6 1a 40
       1.44577 3.3795476 2.7723975 2.4202921
0000f0 31 7d 0b 40 24 72 39 40 db 23 22 40 05 2e 3c 40
       2.179516 2.8975916 2.5334384 2.9403088

mamba.layers.0.mixer.D_SSM f4 [64]
000000 26 4a d0 3f 1a c5 51 40 9d a9 23 40 60 8a 74 40
       1.6272628 3.2776551 2.5572274 3.8209457
000010 7c fd 5c 3f 5e 33 0f 40 2e 9e 08 40 f2 ed 07 40
       0.86324286 2.2375102 2.1346545 2.123898
000020 db af 2a 40 b7 d0 0d 40 e8 d2 24 40 0b d0 45 40
       2.6669834 2.215864 2.5753727 3.090823
000030 7a 47 48 40 de 3e 26 40 1e e7 0b 40 09 28 29 40
       3.1293626 2.597587 2.1859813 2.6430686
000040 51 c3 a5 3f dd c8 a9 3f 44 85 29 40 13 6a 1f 40
       1.2950231 1.3264424 2.648759 2.4908493
000050 2d e7 8b 3f cb 58 15 40 5f ad 20 40 e4 00 be 3f
       1.0929924 2.3335445 2.5105817 1.4844022
000060 cb 93 1f 40 5c f6 43 40 8c de 30 40 2e 1d 6a 40
       2.4933956 3.0619116 2.7635832 3.658031
000070 96 a0 32 40 f9 23 42 40 b5 69 03 40 d6 bc 17 40
       2.7910514 3.0334456 2.0533268 2.3709006
000080 ba 00 24 40 28 4f 45 40 b2 ef 21 40 37 9a 4e 40
       2.5625443 3.0829563 2.5302548 3.2281625
000090 8b 45 34 40 4d ea 35 40 fd 7f fe 3f 3b ff de 3f
       2.8167446 2.8424256 1.9882809 1.742164
0000a0 5b 8e 39 40 be 45 fd 3f 2e e1 00 40 97 d7 2d 40
       2.8993137 1.9786909 2.0137439 2.7162836
0000b0 9d 01 21 40 98 c1 ad 3f b0 bb 8e 3f ec e1 34 40
       2.5157235 1.3574705 1.1151028 2.8262892
0000c0 6c 99 35 3f ab 62 4f 40 b5 09 3f 40 19 31 66 40
       0.7093723 3.2403972 2.9849675 3.5967467
0000d0 b6 b3 83 40 49 ff 37 40 5c 3e 5b 40 0c 51 39 40
       4.1156874 2.8749564 3.425681 2.8955717
0000e0 fe 0e b9 3f 82 4a 58 40 f6 6e 31 40 11 e6 1a 40
       1.44577 3.3795476 2.7723975 2.4202921
0000f0 31 7d 0b 40 24 72 39 40 db 23 22 40 05 2e 3c 40
       2.179516 2.8975916 2.5334384 2.9403088

mamba.layers.0.mixer.in_proj.weight f4 [128, 4]
000000 21 45 17 3c 50 8c 4e bc 52 1e bf be 5d 12 93 be
       0.00923279 -0.012606695 -0.3732782 -0.28724948
000010 0f 51 83 bc 66 bc cb 3c 07 d4 38 3f ff 7b c6 3e
       -0.016029863 0.024870109 0.7219853 0.38766477
000020 23 86 56 bc a5 64 25 bc 8f 2e aa be 7a f2 a8 3e
       -0.013093504 -0.010094796 -0.33238646 0.32997495
000030 e8 92 68 bc 8e b8 b7 bb 55 a7 69 be 0d fd d8 3e
       -0.014195181 -0.0056067174 -0.22817738 0.42380562
000040 46 d4 4f bc e7 75 3b bb 3f b2 b2 bd ce d1 cd 3e
       -0.012684887 -0.002860421 -0.08725404 0.4019913
000050 e7 ac f3 3c ea 01 12 ba fc b8 2f 3e 42 22 3f bf
       0.029745532 -0.0005569743 0.1716041 -0.7466165
000060 8e 43 89 3a ea ff c8 3c a4 e0 34 3f 1c 96 ce bd
       0.0010472403 0.024536092 0.70655274 -0.10087225
000070 b6 7f af b9 1f 00 01 bc 0b 8c 83 be 69 e2 4a 3c
       -0.00033473753 -0.007873564 -0.25692782 0.012383082
000080 87 4f 3c bc 39 b3 83 3c 57 a1 09 3f 5f 26 66 3e
       -0.01149357 0.016076671 0.5376181 0.22475575
000090 fc 1e bd 3c 74 ff 81 3c f2 50 11 3f 76 20 6c bf
       0.023086064 0.01586888 0.5676414 -0.9223703
0000a0 1e ef 8a bc e9 4b e3 bc a9 eb 8f bf 41 47 f7 3e
       -0.016959723 -0.027746158 -1.1243793 0.4829655
0000b0 dc db bd bc ff ef a1 3c 09 ef d9 3e d5 51 14 3f
       -0.023176126 0.01976776 0.42565182 0.57937366
0000c0 e5 b1 d0 bc e7 e8 df bb 28 d6 a6 be 38 f2 81 3f
       -0.025475452 -0.006833184 -0.32585263 1.0152044
0000d0 55 dd ba bf 52 84 28 3f 29 1e 46 bf 82 52 9c c0
       -1.4598795 0.65826905 -0.7738977 -4.8850718
0000e0 25 09 0f 3c cf 2c b5 bb e2 ac 8c bd 4e d7 56 be
       0.008730208 -0.0055290232 -0.06868912 -0.2098057
0000f0 98 33 28 bc ab 80 35 3b 45 39 6a 3d 61 02 4c 3e
       -0.010266207 0.00276951 0.057183523 0.19922782
000100 68 51 a3 3c 2a 2c dc 3c b4 8c 54 3f 7c 93 4a bf
       0.019936278 0.026876528 0.83027196 -0.79131293
000110 37 ce d5 bc fe cb 8c 3c a6 05 b1 3e c6 0b 25 3f
       -0.026099307 0.017187115 0.34574622 0.6447109
000120 16 1f 20 3d 14 e7 fe 3b f5 77 28 3f 29 39 62 bf
       0.039092146 0.0077790115 0.6580804 -0.8836847
000130 0b 73 1d 3f b6 54 83 bf 56 f3 66 40 08 9a 34 40
       0.61503667 -1.0260227 3.608602 2.8219013
000140 9c 35 ab 3f 82 5e 0f 3d 01 32 d8 bf 87 fa 68 3f
       1.3375735 0.03500224 -1.689026 0.91007274
000150 e3 e6 08 3d b2 45 2f 3c 83 a8 35 3f a7 e0 55 bf
       0.033423316 0.010697769 0.70960253 -0.8354592
000160 d3 2a 47 bc 4b ea 04 bc 34 48 ab be ec 48 b0 3e
       -0.012156206 -0.0081125 -0.33453524 0.34430635
000170 db 87 1e bd fa 1e 16 bb 8c 8a ea be 82 2b 67 3f
       -0.03870378 -0.0022906647 -0.45808828 0.9030076
000180 19 21 9f 3c dd 11 82 3c 83 4d 38 3f 09 5c 06 bf
       0.019424962 0.015877659 0.71993273 -0.52484185
000190 3a 7f 31 3c 95 4b b4 3b a7 1e 54 3e 2c ed a1 be
       0.010833556 0.005502174 0.20714818 -0.3162626
0001a0 01 03 16 bb 48 46 e2 39 98 bf ec 3c 86 8b 86 3d
       -0.0022889974 0.00043158443 0.028899953 0.06569581
0001b0 9a ba 84 bf 68 f2 77 bd d4 62 99 be 98 a7 3e c0
       -1.0369446 -0.06053391 -0.29958212 -2.978979
0001c0 1a 4b 1d 3c 94 e2 e5 bb f9 b9 5e be 87 82 8a be
       0.009600425 -0.0070155356 -0.2175063 -0.2705271
0001d0 73 a2 0d bd 98 e9 06 3b 6f 19 43 be c5 a8 5f 3f
       -0.03457875 0.002058601 -0.19052671 0.87366897
0001e0 ee 7a e6 bc 05 c6 85 3b 13 a1 85 bd 64 c9 31 3f
       -0.02813479 0.0040824437 -0.06524863 0.6944792
0001f0 6e 1c 9c bc 8b 14 91 3b f8 28 cd 3d a8 f2 08 3f
       -0.019056525 0.0044274977 0.1001758 0.53495264
000200 85 42 7b 3b c7 fb d2 bb 7b c8 5e be da 72 a1 bd
       0.003833921 -0.0064387056 -0.21756165 -0.07883234
000210 4c 6b 0e 3d 18 f9 5c 3c 00 96 4b 3f 53 96 50 bf
       0.034770295 0.013487123 0.79525757 -0.81479377
000220 91 2d d1 3b d2 b9 8a bc c4 0c 09 bf 67 66 ca bd
       0.0063836058 -0.01693431 -0.53535104 -0.09882813
000230 a2 9b f2 bb 32 50 a5 bc c8 c1 12 bf 3c dc 72 3e
       -0.007403807 -0.020179842 -0.57326937 0.23716825
000240 2f 2e 1f 3d d6 f6 1c bc c3 71 91 3d 89 86 70 bf
       0.038862403 -0.009580335 0.071017765 -0.93955284
000250 a2 07 d1 bc e5 d2 00 3c 6e cb cc 3d ee c3 30 3f
       -0.025516335 0.007862781 0.09999739 0.69048965
000260 bc 5f 8c bc 0a b6 87 3c 5b 73 ea 3e a5 1c e4 3e
       -0.017135493 0.016566295 0.45791134 0.44553104
000270 1a 24 2b bc de d6 d3 ba 6a f3 6c 3c 48 27 ae 3e
       -0.010445619 -0.0016162058 0.014462331 0.34014344
000280 3e 3d d0 bc 1e 8a da bb 37 38 df be 83 98 2b 3f
       -0.025419828 -0.006669297 -0.43597576 0.6702959
000290 fc d1 1a bc 5d eb 0a 3d 5d 2a 6d 3f 26 c8 68 3d
       -0.009449478 0.033915866 0.92642766 0.0568315
0002a0 40 cb a6 bc a8 39 5d bc 6d 14 11 bf d4 46 0d 3f
       -0.020360589 -0.013502516 -0.5667179 0.551862
0002b0 cb cc ca 3c 50 75 d2 ba f6 a0 14 3e 64 70 29 bf
       0.024755856 -0.001605669 0.14514527 -0.6618712
0002c0 f1 e9 58 bc 72 91 83 bc d4 e4 46 bf 5d 50 b5 3e
       -0.01323937 -0.016060565 -0.77692914 0.35412875
0002d0 4b 6d a7 bc 97 8a 29 3c f7 60 07 3e c8 2d 07 3f
       -0.020437857 0.010347984 0.13220583 0.5280423
0002e0 5b be 39 3e 4b 3a c4 bf be 2a 15 3f 9d 01 68 3f
       0.18139021 -1.533029 0.58268344 0.9062746
0002f0 09 95 84 ba 05 73 e3 3c 49 50 54 3f 21 ff d2 bd
       -0.0010115217 0.027764807 0.82935005 -0.10302568
000300 b8 39 b8 3e 6f dd 82 3f 0b 12 84 bf 9f 82 c1 be
       0.35981536 1.0223826 -1.0318006 -0.37794968
000310 25 f0 30 bd c8 02 27 bc 83 c1 ca be 41 5d 8a 3f
       -0.04319777 -0.010193534 -0.39600763 1.0809709
000320 51 1d 71 3b 12 a4 c0 bc f5 d5 36 bf 0f 31 c9 bd
       0.0036791156 -0.023515735 -0.7142022 -0.0982381
000330 cf ae 5a 3c a0 04 df 3c 73 ec 49 3f a7 e4 07 bf
       0.013347342 0.027223885 0.7887642 -0.5308327
000340 94 e0 52 3c cc 0b 31 bc 13 d8 c2 be ab 51 93 be
       0.012870926 -0.010806035 -0.38055477 -0.28773245
000350 49 90 f3 3c 32 8e b8 bc 24 c9 cb be 9a 72 3d bf
       0.029731886 -0.022528742 -0.39801896 -0.74002993
000360 96 1b bb 3c 93 dd 58 bc 2d 32 96 be aa ac 13 bf
       0.022840302 -0.013236421 -0.29335156 -0.5768534
000370 cf f2 0c bb 28 bf c6 3b 56 7a 43 3e 0c 77 81 3d
       -0.002150703 0.006065268 0.19089636 0.063215345
000380 75 80 7b 3c b0 a1 a3 3b e9 58 3f 3e 54 81 d0 be
       0.015350451 0.00499364 0.1868626 -0.4072367
000390 4d 06 67 bc 29 e2 1b bc 51 36 a6 be 2a 52 ce 3e
       -0.014100623 -0.00951437 -0.32463315 0.4029706
0003a0 9d b7 09 bb 7a 5c cb bb 4a e0 59 be 41 2c 89 3d
       -0.0021013983 -0.0062060924 -0.21276966 0.06697894
0003b0 70 1d 15 3c 91 cf be 3b c0 54 3f 3e ac cc 59 be
       0.009101257 0.0058230837 0.18684673 -0.21269482
0003c0 25 b5 d4 3c da 9d c7 bb e7 ac 91 3c 3e 6d 24 bf
       0.025965283 -0.0060918154 0.017782642 -0.6422919
0003d0 fc 07 07 bd 07 5a c5 bc 49 3b 91 bf be 93 45 3f
       -0.0329666 -0.02409078 -1.1346217 0.7717856
0003e0 82 72 c3 bb 2d 03 24 3c 47 f1 9e 3e 65 96 33 3e
       -0.005964578 0.010010523 0.31043455 0.1753784
0003f0 6a 4d 08 3d c2 ca a5 bc 6a fa a9 be a6 3b 4b bf
       0.033276953 -0.020238284 -0.33198863 -0.7938789

mamba.layers.0.mixer.conv1d.weight f4 [64, 1, 16]
000000 ab ce 93 bd 89 89 93 bc 26 fb 22 3d be de 70 bd
       -0.07217153 -0.018009918 0.039790295 -0.058806174
000010 9b c3 42 be 14 c2 de bc f5 08 1c 3e 10 26 1f bc
       -0.1901993 -0.027192153 0.15237792 -0.009713665
000020 48 55 06 3e 00 26 15 be 28 dd 16 3e 37 7d 4a be
       0.1311847 -0.14565277 0.14732802 -0.19774328
000030 91 d8 1d be 42 58 23 3d 84 5b 7e 3e 1f 06 84 3c
       -0.15414645 0.03987909 0.24839598 0.0161162
000040 ff fc 91 be c1 a3 7f bd dd 86 4d 3e a7 c6 35 be
       -0.28513333 -0.062412027 0.20070978 -0.17751561
000050 e9 ae 9b 3d fd 87 82 be fc eb c5 3c b9 15 6d be
       0.07601721 -0.25494376 0.024160378 -0.23152818
000060 fa b0 60 be c4 0f 95 be 44 22 93 be ff 24 eb 3d
       -0.21942511 -0.2911359 -0.2873708 0.11481666
000070 50 23 04 3e de 2f 47 be 8a 15 3a 3e 15 86 44 be
       0.12904096 -0.19451854 0.18172279 -0.19191773
000080 d7 62 d8 bc b6 a4 63 bd 8e 1a aa bd 7a fe ca 3c
       -0.026414318 -0.055577002 -0.08305846 0.024779547
000090 82 5a 41 3e 52 9d 4b be 2a e2 e3 3d d9 ee 93 be
       0.18882182 -0.19884232 0.11127122 -0.28893164
0000a0 8d 14 a3 bd 98 6f 1c 3d 5d 7b 59 3b db da e7 3d
       -0.07962904 0.03819236 0.0033185103 0.1132104
0000b0 12 05 07 bd c8 ea 17 3e 10 9f 38 be b6 d0 f3 bd
       -0.03296382 0.14835656 -0.18029428 -0.11905043
0000c0 cd 9e 07 3e 58 4c 01 be 4d 78 23 be c3 13 fa 3c
       0.13244171 -0.12626779 -0.1596386 0.030527001
0000d0 29 41 98 bd b5 d3 1e bd 10 86 26 be 7d e8 85 bd
       -0.07434303 -0.03877612 -0.16262078 -0.06538484
0000e0 93 26 52 3e f8 88 69 be 2b ff 10 3e ca 1e 81 3d
       0.20522527 -0.22806156 0.14159839 0.06304701
0000f0 13 1e 64 be 39 c5 29 3e 06 4c 9b bc 26 a5 49 3d
       -0.22277097 0.1657914 -0.01895715 0.049229763
000100 0c 3f 50 3e 0c 79 4a 3e f7 70 85 be 68 1c 43 3e
       0.2033655 0.19772738 -0.26062748 0.19053805
000110 09 2a 0c be 00 79 4b be cd 28 5b 3e 9d 16 8b be
       -0.1368791 -0.19870377 0.21402283 -0.2716569
000120 8f ea 21 3e e6 e4 ab 3d 0d f1 fb 3d 60 d7 4e be
       0.15812133 0.08393268 0.12301836 -0.20199347
000130 88 1e 26 be 32 83 61 3d b0 37 11 3e cc a3 66 bb
       -0.16222584 0.05505676 0.141814 -0.0035192845
000140 ac 56 91 be b1 b7 60 be 30 25 ec be c7 db c5 bd
       -0.28386438 -0.21945073 -0.46122122 -0.0966106
000150 3e 94 36 be 1f eb 07 be e0 0f 0c be 9d 6a 87 be
       -0.17829987 -0.13273285 -0.13677931 -0.26448527
000160 04 ee ab be d3 25 f5 be 1f 6f 98 be ee 79 00 bf
       -0.3358003 -0.4788042 -0.2977228 -0.5018605
000170 50 3f 23 be 8a b6 12 be f2 e3 c8 be ed 09 c5 be
       -0.1594212 -0.14327446 -0.39236408 -0.38484135
000180 a3 1d 71 bd 61 8f 14 be 33 fc 00 3e de c7 e5 ba
       -0.058866154 -0.1450782 0.12596206 -0.0017530879
000190 3f 08 80 be de 8e a7 3d 8a 92 25 3e 41 11 8f be
       -0.2500629 0.08181547 0.16169181 -0.2794285
0001a0 ac 5c 8b be e3 20 8a be f6 0a 50 be ff d5 28 3e
       -0.2721914 -0.26978216 -0.20316681 0.16487883
0001b0 38 20 12 3e 63 b6 8c be 8e 03 6d be 0e f7 d8 3d
       0.14270103 -0.274829 -0.23145887 0.10593997
0001c0 f0 e6 f6 bc b9 42 80 be 76 d2 ef bd 81 32 3c 3e
       -0.030139416 -0.25050905 -0.11710064 0.1837864
0001d0 ba 36 36 3e 81 f7 67 3e fb 37 18 3e ee 10 3b be
       0.17794314 0.22653009 0.14865105 -0.18268177
0001e0 69 65 02 be 03 7e 4a be 20 f4 3b bd 6e df 78 3e
       -0.12733997 -0.19774632 -0.045887113 0.24303982
0001f0 93 aa cf 3c 65 df e0 3d db a7 cc 3c d6 67 36 be
       0.02534989 0.10980109 0.024982383 -0.17813048
000200 7e 4a 2b be 7b f2 ea 3d 76 34 bb 3d 49 44 44 be
       -0.16727635 0.11472031 0.091408655 -0.19166674
000210 b2 7f 58 bd eb d2 67 be 22 6d 25 be c7 83 46 3e
       -0.052856155 -0.22639053 -0.16154912 0.19386207
000220 a7 92 05 3e 50 40 7b be c3 09 7b 3e 7c 8e b4 3d
       0.13044225 -0.24536252 0.24515443 0.08816239
000230 d1 70 d3 3d b2 1f 66 3e fd 38 3b 3d f1 46 37 be
       0.103242524 0.22473028 0.045708645 -0.17898156
000240 c6 99 bb bd c5 cf f4 bd fc 8a f3 bc 9c 55 f7 bb
       -0.09160189 -0.119536914 -0.029729359 -0.007548047
000250 27 28 72 be c0 ab 88 be cf 18 0e 3d 9a 67 c2 be
       -0.2364813 -0.26693535 0.034691628 -0.37969667
000260 ab 04 c6 be 97 b7 9a be 9a ae b0 be 06 f1 47 be
       -0.38675436 -0.30218193 -0.3450821 -0.19525537
000270 a2 57 aa be e0 78 26 be a9 37 f1 bc 46 83 81 bd
       -0.33269984 -0.16257048 -0.029445486 -0.063238665
000280 e8 33 d0 3e 12 d9 1c 3f ba 7c 11 3f c4 ba 2f 3f
       0.406646 0.61268723 0.5683094 0.68644357
000290 0e ac 1e 3f 3c 37 00 3f de d0 34 3f 34 d7 72 3e
       0.61981285 0.5008428 0.70631206 0.23714906
0002a0 c5 07 83 3e 90 8f 0b 3f 0f b3 98 3e 34 dc 30 3f
       0.25591865 0.54515934 0.2982411 0.69086003
0002b0 b8 79 1a 3f d4 21 d0 3e fa d7 1e 3f c6 38 86 3e
       0.6034198 0.4065081 0.62048304 0.2621519
0002c0 10 80 5e be 4b ff 4d be e0 59 35 be 8a dd cb bd
       -0.2172854 -0.20116918 -0.17710066 -0.099543646
0002d0 d9 e2 be 3d 3a 5c 42 be d7 3c f9 bc 8a 7e 42 be
       0.093206115 -0.18980494 -0.030424519 -0.18993583
0002e0 bc 16 49 be ef 9f dd 3c 60 3a 02 bc 63 0c 6c be
       -0.19637579 0.027053801 -0.007948488 -0.230516
0002f0 20 a1 f2 3d 93 54 84 be b2 8f a5 3d 59 a9 2b be
       0.118471384 -0.25845775 0.08084048 -0.1676382
000300 ff f2 42 3e fb 23 d6 3e fc c9 13 3e b8 88 94 3d
       0.19038008 0.41824326 0.1443252 0.072526395
000310 2d d0 d8 3e 3a 9a e5 3e 18 4c 5c 3e 10 83 0d 3d
       0.42346326 0.44844228 0.21513402 0.03454882
000320 f5 3f 87 3d b6 7d 04 3e b7 3e b1 3d b0 e0 31 3e
       0.06603996 0.1293858 0.0865454 0.17370868
000330 b8 d3 49 3e 4f f4 38 3e e3 0a d7 3d cd e8 b1 3e
       0.1970967 0.18061946 0.10500123 0.34747925
000340 d2 cf fc 3d 91 31 ec 3e 37 3d 35 3f 09 f9 2d 3f
       0.12344326 0.46131566 0.7079653 0.6795812
000350 83 b0 2e 3f 9b 58 55 3f a9 b6 2c 3f d8 a1 3d 3f
       0.68238086 0.83338326 0.6746622 0.7407508
000360 3b e1 91 3f 22 b3 5f 3f c4 96 6f 3f ee 0f 7c 3f
       1.139686 0.8738271 0.93589425 0.98461807
000370 e4 d5 b7 3f 84 aa bf 3f 94 f2 ab 3f f7 c2 c0 3f
       1.4362149 1.4973912 1.3433404 1.5059499
000380 ff e2 16 3d ad 73 ce 3d ac 24 97 3d 67 20 56 bd
       0.036837574 0.10080657 0.073800415 -0.052276995
000390 6c 72 2e 3d a1 b4 b6 bd 0b 7a 19 be d1 cd 81 3e
       0.04258959 -0.08921171 -0.14987962 0.25352338
0003a0 c6 1d da bc 98 f2 4e 3c 09 0a c5 bd 5e 1f d4 bd
       -0.026625525 0.012631081 -0.09621055 -0.10357545
0003b0 ef 0b 30 3e f8 12 71 3e d8 48 11 be 0c 21 5c bd
       0.17192052 0.23542392 -0.14187944 -0.053742453
0003c0 98 2e 80 bd 6c 8e ac bd df ae 4e bd d8 db 08 be
       -0.06258887 -0.08425602 -0.05045974 -0.13365114
0003d0 77 30 5a 3d ab ed 19 3d 3b b9 b7 bd 34 62 8b be
       0.053268876 0.037580173 -0.08970877 -0.2722336
0003e0 a8 9d e4 bc e1 3e 07 3d e7 af 98 3b ca 89 0a bd
       -0.027907208 0.03301895 0.004659641 -0.033822812
0003f0 f5 2c 09 3e 19 4e 20 3e b7 21 34 3e 7c f8 25 3e
       0.13396056 0.15654792 0.17590986 0.1620807

mamba.layers.0.mixer.conv1d.bias f4 [64]
000000 d4 52 04 3c 2c d8 e8 ba 64 fb 94 bb 4f 22 26 bc
       0.008076388 -0.001776462 -0.0045465697 -0.010140016
000010 07 aa a3 bf a8 f3 eb 3c 2a 8c 57 ba 99 9c 7f 38
       -1.2786263 0.028802708 -0.0008222485 6.094258e-05
000020 f1 a3 a3 bf 60 af a6 bf f6 46 0e 3d 7a ef 32 bc
       -1.2784406 -1.302227 0.034735642 -0.0109213535
000030 4b 3d a7 bf 76 c7 c4 bf 6c 0c 49 bb 11 a6 a3 bf
       -1.306558 -1.5373371 -0.003067757 -1.2785054
000040 b0 e0 a4 bf d5 5a 66 bc a4 55 8b 3d fb 3b 90 3f
       -1.2881069 -0.014059742 0.06803444 1.1268305
000050 e4 30 42 3f fd bb 07 bd 94 4c 10 bc bd ab 69 3d
       0.7585585 -0.033138264 -0.00880732 0.057048548
000060 99 80 11 3d 32 a1 a3 bf 7e 12 50 ba 81 d6 60 bf
       0.03552303 -1.2783568 -0.0007937326 -0.87827307
000070 3f b6 0c 39 35 22 51 3d fa 97 e8 3c b4 ef 04 3c
       0.00013419332 0.051058013 0.02839278 0.00811379
000080 80 a4 a3 bf c5 f8 81 3d a2 ca b1 3a 9e a4 a3 bf
       -1.2784576 0.06346277 0.0013564418 -1.2784612
000090 37 7b 19 bd f5 ee a6 bc e7 ba 60 3a 41 75 ce 39
       -0.037471022 -0.020377615 0.00085727725 0.00039378743
0000a0 8e ba 02 bd 9c bc be bb 46 75 f5 3c 21 d7 ef bc
       -0.031916194 -0.005820824 0.029963147 -0.029277386
0000b0 2b 1a 3f 3d d2 1c a3 bc 46 f9 b0 3f 20 13 1c bc
       0.046655815 -0.019911204 1.3826072 -0.009526044
0000c0 d2 f9 92 bf 2a 34 a4 bf a3 28 cf 39 ba cb a3 bf
       -1.1482489 -1.2828419 0.00039512393 -1.2796547
0000d0 97 a4 a3 bf 23 31 f3 bc 79 a4 a3 bf c9 cb 9f bf
       -1.2784604 -0.029686516 -1.2784568 -1.2484065
0000e0 05 a5 a3 bf 52 b4 a8 bb 34 06 ab bb 40 a4 a3 bf
       -1.2784735 -0.005148449 -0.0052192453 -1.27845
0000f0 6c f4 8e bc b7 b7 84 3d 05 28 54 ba 10 7b 13 bd
       -0.017450534 0.06480353 -0.00080931216 -0.036006033

mamba.layers.0.mixer.x_proj.weight f4 [65, 64]
000000 fe 08 cc bb 53 d2 93 3c ae fe 55 3c b3 59 99 3b
       -0.006226658 0.018044626 0.013061209 0.0046798824
000010 19 ce 02 3f 36 02 e2 bd b9 b4 0a bc 3d d1 92 bb
       0.5109573 -0.11035578 -0.008465939 -0.0044805096
000020 d6 b3 fa 3e ed d0 0c 3f 7d 8e 23 be ca 15 1c 3d
       0.4896533 0.55006295 -0.15972324 0.038106717
000030 5f d3 d9 3e ad 98 ad 3e 17 46 c2 3b c2 53 bf 3e
       0.42544076 0.33905545 0.0059287655 0.3736859
000040 a1 45 bd 3e 0a ab 1c 3d a9 de 80 be 63 35 d9 3e
       0.36967185 0.038249053 -0.25169876 0.42423543
000050 76 f9 84 3f a9 6e 8c 3e 7c f3 06 3c ea f7 69 be
       1.038863 0.27428177 0.008236762 -0.22848478
000060 df 75 09 be 82 9b 1f 3f 68 8f 1a 3b 9f df 9f 3f
       -0.1342387 0.6234666 0.0023584012 1.2490119
000070 2d 1a 92 3b 73 d5 3f be ed 12 ca bd 7c dd 02 bd
       0.004458687 -0.18733768 -0.09866891 -0.031949505
000080 70 58 8a 3e 4a 36 82 be f8 4b 4f 3a b0 44 15 3f
       0.27020597 -0.25432044 0.00079077436 0.58307934
000090 92 b6 2b 3e fa 29 65 3d 8f 51 23 bc ca 1c aa bb
       0.16768864 0.055948235 -0.009968176 -0.00519142
0000a0 8b ba 33 3e 00 f7 47 3b 68 42 d3 bd b9 c0 b3 3d
       0.17551629 0.0030512214 -0.103154 0.08776993
0000b0 e3 2d 2b bd 94 54 fd 3c 1e 27 8d 3e 36 80 70 3c
       -0.041791808 0.030924119 0.27568907 0.014679005
0000c0 a8 c3 a8 3f cc f8 b2 3e 2a db d3 bb aa 79 5a 3e
       1.318471 0.34955442 -0.0064653354 0.21335474
0000d0 c2 e0 04 3f 5e 58 6b 3d 18 73 bd 3e 47 26 8b 3e
       0.51905453 0.05745732 0.37001872 0.2717764
0000e0 ad 98 e9 3e 08 47 f0 3c a6 29 50 3a 37 83 f0 3e
       0.45624295 0.029330745 0.00079407764 0.4697511
0000f0 d8 6b a5 3d 71 26 95 be 45 1c 9f b9 71 c3 bc 3d
       0.0807721 -0.2913089 -0.00030347906 0.09216965
000100 67 34 98 bc 53 4f 63 3c 3f 45 11 39 5d 77 8a 3c
       -0.018579675 0.013873893 0.00013854074 0.01690262
000110 ad 55 00 40 b4 1f 97 bd 6a f7 07 bd d0 fc 05 3b
       2.0052292 -0.07379094 -0.033194937 0.0020444877
000120 af 6e ec 3f 72 50 f3 3f e1 06 12 be fe d0 a3 3c
       1.8471278 1.9008925 -0.14260437 0.019997116
000130 ee 5f b3 3f 1b e5 1d c0 59 68 b3 3b 53 65 ba 3f
       1.401365 -2.4671085 0.0054750857 1.4562172
000140 f9 c5 dc 3f 12 2d 4b 3c e2 8c 4e be c3 b0 7d be
       1.7247916 0.012400882 -0.2017093 -0.2477446
000150 4f d6 28 3f 51 b2 8b 3e 7e 26 00 3c 50 1f 47 be
       0.6595201 0.27284482 0.007821677 -0.19445539
000160 2e e4 d8 bd 58 cf 02 40 cc 26 c6 3b c2 47 b1 3f
       -0.10590397 2.0439053 0.0060471054 1.3850024
000170 8f b3 88 bb 54 19 0a be 57 18 78 bd 75 33 f2 bc
       -0.0041717957 -0.13486224 -0.060570087 -0.029565552
000180 c7 6d 9d 3f c6 55 4c be 6a 65 46 bc 1e 57 d9 3f
       1.2299126 -0.19954595 -0.01210914 1.6979711
000190 60 50 05 3e e3 76 3d 3d 67 41 be 3a 3e e3 51 bc
       0.13018942 0.046255957 0.0014515341 -0.012810526
0001a0 8f 4b 0d 3e 8f 01 3f 3c 8f f5 8c bd b1 c5 64 3d
       0.13798355 0.011658086 -0.06882774 0.055852596
0001b0 61 a5 05 bd b8 8e 87 3c f5 4e 8d 3f 59 50 fa 3c
       -0.03262842 0.016547546 1.1039721 0.03055589
0001c0 9e 0b 76 bf 61 cb ba 3f 5e 96 fa bb 6a c1 d2 3f
       -0.96111476 1.4593316 -0.0076473197 1.6465275
0001d0 db f8 fb 3f 55 57 2c 3d fd 24 f4 3f 63 35 9a 3f
       1.968532 0.042075474 1.9073788 1.2047542
0001e0 76 f7 df 3f 99 2a c1 3c 45 bd 16 3c 7f ae f1 3f
       1.7497394 0.023579882 0.009200399 1.8881377
0001f0 fd 95 45 3d 70 51 82 be 2c a9 fa 3b 31 0b 7c 3d
       0.048238743 -0.25452757 0.0076495614 0.06153411
000200 04 8c f6 bb ff 2b f2 bc 80 fc 3b ba 82 6a ed ba
       -0.0075240154 -0.029561995 -0.00071711093 -0.0018113407
000210 ec 83 0b bf 12 fe 4c bd 14 87 4f bd 83 5f cb bb
       -0.5449817 -0.050046988 -0.05066593 -0.0062064542
000220 14 07 dd be 47 6a 0a bf 5e 3b 28 be b7 4e b2 bb
       -0.43169463 -0.54068416 -0.16428897 -0.0054415124
000230 74 3e d8 be a0 ef c2 be c7 7b 3a bb 1b 5f 8f be
       -0.42235148 -0.38073444 -0.0028455125 -0.28002247
000240 a8 ce b2 be 32 c3 95 bb 6a da 05 be cd 1e 3b c0
       -0.3492329 -0.0045703882 -0.130716 -2.923755
000250 f1 2b 4a bf b3 58 2a 3e 54 d9 f7 3a ed 04 f2 bd
       -0.789733 0.16635399 0.0018909373 -0.11817346
000260 81 66 eb bd ae 0f 01 bf 23 18 fc 3b 20 58 a9 bf
       -0.114941604 -0.5041455 0.007693307 -1.3230019
000270 9d b7 5b 3b 9c 90 b8 bd 74 d7 2c bd 26 23 99 bc
       0.003352619 -0.09011957 -0.04219766 -0.018693518
000280 dc 0b 19 3e 98 b5 13 be ad 28 97 bb 9f f8 d0 be
       0.1494593 -0.14424741 -0.004613003 -0.40814683
000290 f1 be 7e 3d 81 e5 6d 3c eb f3 36 3a 5f db cd bb
       0.062193815 0.01452005 0.00069790956 -0.0062822546
0002a0 7a 52 dd 3d e6 1d 16 3d e8 4d 8e bd b7 fb 1f 3d
       0.10806747 0.036649607 -0.06948453 0.039058413
0002b0 71 3e c4 bc 73 67 0a 3c 6b fc 8e c0 1a 50 0e 3d
       -0.023955556 0.008447516 -4.4683127 0.03474436
0002c0 46 08 0b 40 21 10 f6 be 62 ae 43 bc c4 01 bd bd
       2.17238 -0.4805918 -0.011943432 -0.092288524
0002d0 1b 22 db be cb d3 36 3c 1c ad 8e bd f4 fa bf 3c
       -0.42799458 0.011158894 -0.06966612 0.023435093
0002e0 3c 8a c9 be 2c e0 08 3d 5d 8d ec 3a b8 42 6c be
       -0.39363277 0.033416912 0.0018047501 -0.23072326
0002f0 86 cf 17 3d be f6 3c be 29 e4 1d 3b f7 40 c4 3c
       0.037063144 -0.184535 0.0024092293 0.023956759
000300 c5 43 1c 3e 7b a9 35 bd b1 e2 a4 bd 43 a0 07 bd
       0.15260227 -0.044351082 -0.080510505 -0.03311182
000310 d3 6a 3f bd d0 72 0d bd 04 ae d4 bd 7c 9f 02 3d
       -0.046732735 -0.03453332 -0.10384753 0.031890377
000320 78 a4 63 bd 4a f9 48 3e 3e 89 e1 bd 35 8f 0d be
       -0.05557677 0.19626346 -0.11012505 -0.1382416
000330 a6 dc 97 bd 19 8b 2f bd 97 d1 77 3d de 74 0f 3e
       -0.07415132 -0.042857263 0.060502615 0.14009425
000340 55 0f 30 3d bd 6a d3 bd 9a 19 62 bd d7 b7 9f 3e
       0.04298337 -0.10323093 -0.055200197 0.31194946
000350 8a 0f 04 40 f9 eb e1 3c 17 b6 91 bd f7 0b 0f be
       2.0634484 0.02757834 -0.07114809 -0.13969408
000360 10 38 56 bd 4b a9 80 3c b7 a6 04 be 01 eb 8f 40
       -0.05229956 0.015705725 -0.12954222 4.497437
000370 8d 07 e2 bc f8 fe 4f bc 77 fd 92 bd 3f d2 af bd
       -0.027591491 -0.012695067 -0.07177251 -0.08585023
000380 fc d8 a5 3e fe 30 a8 bd 04 06 2b bd 83 7f 10 3d
       0.32392108 -0.082124695 -0.041753784 0.035277855
000390 89 36 c1 bd fd b5 1c bc 74 4f e3 bd 9d d1 7a bb
       -0.0943423 -0.009564874 -0.11099139 -0.0038271912
0003a0 ef 5d 34 bb 49 96 d9 bc c9 f1 25 bd 22 4d 01 be
       -0.002752181 -0.02656092 -0.040513787 -0.1262708
0003b0 b3 6f a6 3d 1f b7 83 3c 7b 57 53 be ef 81 d4 3c
       0.08126774 0.01607853 -0.2063884 0.025940863
0003c0 96 0a 7b 3f b8 a3 42 bd eb e9 1f 3d 44 84 d9 3d
       0.9806303 -0.047519416 0.03904144 0.10620931
0003d0 8b 77 6c 3e 8b 5e 0c be b5 71 6c 3e b4 6c 2a 3c
       0.23092477 -0.1370794 0.23090251 0.010401893
0003e0 e2 aa 84 3e cc 06 25 3e 07 8c a2 3a 38 e9 41 3d
       0.25911623 0.16115874 0.001240135 0.047341555
0003f0 08 68 0f bc 95 f6 90 bc 5e 62 04 be 35 b7 49 bc
       -0.00875283 -0.017695704 -0.12928149 -0.012311746

mamba.layers.0.mixer.dt_proj.weight f4 [64, 1]
000000 01 21 07 be 61 4f 7e bf 7b 96 c7 bc 96 b7 ca bf
       -0.13196184 -0.9933987 -0.024363747 -1.5837276
000010 63 ce b7 be 87 83 d1 bc a6 0f 9b bf 6d b2 0f c0
       -0.35899648 -0.025575412 -1.211415 -2.2452652
000020 29 18 9a bf b4 7d ea bf b0 53 88 bf fc 2e 3f be
       -1.2038623 -1.8319612 -1.0650539 -0.18670267
000030 2a 15 23 c0 b4 b8 02 c0 e1 bc 1c bf b1 43 94 bf
       -2.5481668 -2.0425234 -0.61225706 -1.1583158
000040 e2 d0 c1 be 84 0e 00 bf 7b 6a 45 bf e1 0f b8 be
       -0.37854677 -0.5002215 -0.771156 -0.35949615
000050 7c 02 88 be 12 bb 31 be b0 a0 d0 bf 52 bc 00 bf
       -0.26564395 -0.17356518 -1.6299038 -0.50287354
000060 8e a4 65 bf 41 e1 2f bf 80 4c c5 bc 1e 78 c3 3e
       -0.89704216 -0.68703085 -0.02408433 0.3817758
000070 2c 73 9d bf 8a a7 13 bf e8 2a 01 be 92 24 1b bf
       -1.2300773 -0.5767752 -0.12614024 -0.60602677
000080 c8 9a 3a c0 b4 e2 91 bf 93 f6 e0 bf 45 c4 80 bf
       -2.915697 -1.1397309 -1.7575248 -1.0059897
000090 8a 0e f4 be 83 2e 07 be d5 94 93 be 00 0c 84 bf
       -0.47667342 -0.13201337 -0.28824487 -1.0316162
0000a0 5a 45 5a bf 89 cd 03 c0 c0 58 16 c0 6b 60 37 bf
       -0.8526207 -2.0594199 -2.3491669 -0.716315
0000b0 ab 7a a3 bf cd f3 0a c0 8a ac 51 3e ea b9 2d c0
       -1.277181 -2.1711304 0.20475975 -2.7144723
0000c0 cf 0f 86 bf 81 02 a0 be 44 b5 8f bf cf 16 a3 bf
       -1.0473574 -0.3125191 -1.1227193 -1.2741336
0000d0 30 26 a0 bf 55 7a 4c be 89 4f 14 c0 f1 b9 89 bf
       -1.2511654 -0.19968541 -2.3173544 -1.075987
0000e0 f3 21 9c bf 44 40 86 bf 1c 42 4c bf 3f 30 e5 be
       -1.219786 -1.0488362 -0.79788375 -0.4476337
0000f0 b6 2b 31 be c2 f2 3d bf fb 87 e1 bf ae 12 ad bf
       -0.1730183 -0.74198544 -1.7619623 -1.3521326

mamba.layers.0.mixer.dt_proj.bias f4 [64]
000000 d5 d9 8f c0 e0 9b 74 c0 05 35 c9 c0 53 34 22 c1
       -4.495341 -3.8220139 -6.287722 -10.137774
000010 a8 f8 4f c1 79 6f 9c c0 22 82 6b c0 90 dc a1 c0
       -12.998207 -4.8886075 -3.6798177 -5.058174
000020 f5 00 a3 c0 62 b2 07 c1 6f 96 93 c0 38 75 72 c0
       -5.093867 -8.4810505 -4.6121135 -3.7884045
000030 0f 4a 9e c0 b7 76 a9 c0 01 d8 9f c0 d8 1f 93 c0
       -4.9465404 -5.2957416 -4.9951177 -4.597637
000040 46 40 46 c1 5a 3b a3 c0 4e ce 8b c0 d7 b1 f8 c0
       -12.390692 -5.100995 -4.3689337 -7.771709
000050 7b 3b c3 c0 b6 91 92 c0 df 35 bf c0 91 37 de c0
       -6.101011 -4.580287 -5.975326 -6.944283
000060 c8 10 08 c1 04 8d 60 c0 50 7e 96 c0 ab 6c ee c0
       -8.504097 -3.508607 -4.702919 -7.450765
000070 26 60 87 c0 8c d3 79 c0 b7 2d 99 c0 01 92 af c0
       -4.230487 -3.9035368 -4.7868304 -5.4865727
000080 73 9e c5 c0 4c e4 55 c0 7b 18 b8 c0 a4 d6 a5 c0
       -6.175592 -3.3420591 -5.7529883 -5.1824512
000090 4a a2 94 c0 f0 5e 98 c0 39 82 d0 c0 2e 32 84 c0
       -4.6448107 -4.761589 -6.5158963 -4.1311255
0000a0 05 92 77 c0 79 1b ab c0 48 ac eb c0 34 a8 8b c0
       -3.8682873 -5.3471036 -7.3647804 -4.3642826
0000b0 54 2d 95 c0 ee 27 be c0 cf f9 ed c0 d9 fc f4 c0
       -4.661783 -5.942374 -7.436744 -7.655865
0000c0 2c 9a d0 c0 67 b2 c3 c0 01 60 af c0 c8 aa 7b c0
       -6.51882 -6.1155276 -5.480469 -3.9322987
0000d0 11 04 78 c0 26 92 a3 c0 1d 99 b6 c0 81 3c 96 c0
       -3.8752482 -5.1115904 -5.7061906 -4.6948857
0000e0 04 76 13 c1 30 2c 6d c0 dd 70 47 c0 90 0c 9b c0
       -9.216312 -3.705822 -3.1162636 -4.8452835
0000f0 64 1c 91 c0 a2 3a 92 c0 b5 4a b2 c0 44 ee a9 c0
       -4.5347157 -4.5696573 -5.5716195 -5.310335

mamba.layers.0.mixer.out_proj.weight f4 [4, 64]
000000 f2 a4 ff 3d 10 36 93 3c 78 89 5a bd 34 04 22 3d
       0.12482633 0.017970115 -0.053353757 0.03955479
000010 90 5a 9d 3c f0 d2 e6 3d 24 18 eb 3d e8 e0 15 bd
       0.019208223 0.11270702 0.11479214 -0.03659144
000020 80 b9 28 3d c0 10 81 bb 04 38 a1 bd 9c 94 50 bd
       0.04119253 -0.0039387643 -0.07872012 -0.050922975
000030 4c 17 cd 3d 08 8b a5 3d 70 16 09 bd e4 d3 8b 3d
       0.10014209 0.08083159 -0.033468664 0.06827524
000040 50 9a ce 3c cc b9 f5 bd 1c 5a 2b bd 58 ae ee 3d
       0.025220066 -0.119983286 -0.041833982 0.11654347
000050 10 d6 48 bd 00 61 52 ba 1a f3 cd bd f8 09 cb bd
       -0.04903227 -0.00080253184 -0.100561336 -0.09914011
000060 10 d9 c9 3c a4 ba fc 3d c2 47 e7 3d 00 6f 96 3c
       0.024639636 0.123402864 0.112929836 0.018363476
000070 40 b1 44 bc b0 0c 9c bc 60 45 6d 3c 70 c5 3f bd
       -0.01200515 -0.019049019 0.014481872 -0.04681915
000080 20 6f 89 bc 9a c3 ac 3d 28 99 f5 3d 14 18 b5 bd
       -0.016776621 0.084357455 0.11992103 -0.08842483
000090 70 dd 1e 3d ac 1c 64 3d bc 6c 40 bd a8 1e 8f 3d
       0.038785398 0.055691406 -0.046978697 0.06988269
0000a0 00 d8 3f 39 30 94 84 3c 32 73 90 3d 8a 02 e6 3d
       0.00018295646 0.016183943 0.07053222 0.11230953
0000b0 de 00 bb bd 6c 09 35 bd 1c 27 b1 bd a0 c5 9f 3c
       -0.09131025 -0.04419844 -0.08650038 0.019503415
0000c0 34 84 52 bd e0 75 b7 3c 2e 87 a3 bd 04 ac e9 3d
       -0.05139561 0.022395074 -0.07984768 0.114097625
0000d0 e0 a4 d9 bb f8 a9 88 3d 32 86 88 bd b6 e5 bc 3d
       -0.006641969 0.06673044 -0.06666221 0.092235014
0000e0 80 ae f5 3d b8 6f 60 3d 3e 7b b1 3d 38 89 dd bd
       0.11996174 0.054794043 0.08666085 -0.10817188
0000f0 0a 37 ae 3d 7e 77 fd 3d e2 37 c8 3d 9e b5 e1 3d
       0.085065916 0.12376307 0.09776284 0.11020969
000100 8c 89 e0 3d 54 39 56 3d 26 32 c4 bd ee bb be bd
       0.10963735 0.052300766 -0.095798776 -0.093131885
000110 b2 3a bd bd f8 4a fd bc d4 3e 70 3d 58 2b 7c 3d
       -0.09239711 -0.030919537 0.058653668 0.061564773
000120 20 c9 71 3d d8 5f 46 bd 02 5b e3 bd 6c 87 ba bd
       0.0590297 -0.048431247 -0.11101343 -0.09107861
000130 54 2d be 3d dc 38 68 3d d4 d8 10 3d bc 26 d5 bd
       0.092859894 0.05669485 0.035363033 -0.104077786
000140 70 47 cc 3d 70 4b 0a bc 48 20 a5 3c 3e d5 c8 3d
       0.09974563 -0.008440837 0.020156994 0.09806298
000150 66 07 94 bd e4 33 ce 3d ba 72 d1 3d 78 5b ae 3c
       -0.07227974 0.10068491 0.102269605 0.02128385
000160 74 9a 2c bd 54 52 c4 3d 68 5d a3 bc 8a c7 cc 3d
       -0.042139485 0.09586015 -0.019942 0.099989966
000170 f8 95 cf 3d d6 0f 87 3d 60 4d 5e bd 52 ab f2 3d
       0.10136026 0.06594817 -0.05427301 0.11849083
000180 d0 55 55 bd 00 59 e9 3d 3e 5e f4 bd 8e 95 8d 3d
       -0.05208379 0.113939285 -0.11932038 0.06913291
000190 b4 f5 9a 3d 08 7e ef 3d 00 f0 b7 38 a0 71 de 3b
       0.075663954 0.116939604 8.7708235e-05 0.0067884475
0001a0 f8 e6 84 3d 30 55 e2 bc 5a 9d fd 3d b0 d2 19 3c
       0.06489366 -0.027628511 0.12383528 0.009388611
0001b0 c0 69 fe 3b d0 cd 51 bd c8 b4 12 3d 28 f8 55 3d
       0.007764071 -0.05122167 0.035816938 0.052238613
0001c0 30 6a 5d bd 7c f7 50 3d e8 6e ea 3c 14 31 60 bd
       -0.054056346 0.05101727 0.028617337 -0.054734305
0001d0 88 f8 c9 3d 2c da 2a 3d 6c 23 94 3d 4a df b3 bd
       0.09861857 0.04171197 0.07233319 -0.087828234
0001e0 8e ab e0 3d a0 19 fc bd 10 42 2c bd 80 dc 9f 3b
       0.109702215 -0.12309575 -0.04205519 0.0048785806
0001f0 cc 15 16 bd 68 2f 3c bd 80 d2 f0 bc 20 e7 31 3c
       -0.03664188 -0.045943648 -0.02939725 0.010858327
000200 88 b0 8f 3d 40 07 be bb 62 84 d1 bd 28 f2 e1 bc
       0.070160925 -0.005799204 -0.10230328 -0.02758129
000210 38 78 a7 3c b8 90 7f bd fc 7f f4 bd 2e dc e2 bd
       0.020443067 -0.062393874 -0.119384736 -0.11077152
000220 7a d1 87 3d d0 26 20 3c b0 47 47 3d 20 fb a9 3d
       0.06631751 0.009774879 0.04865235 0.082998514
000230 00 ad 08 3d 3c 0c b0 bd e8 b3 f2 bc e6 24 b7 bd
       0.03336811 -0.085960835 -0.029626802 -0.08942585
000240 00 ce 6a bc 40 c2 12 3c 2c 4f f7 bd c6 5e ac 3d
       -0.014331341 0.008957446 -0.12075648 0.08416514
000250 20 f1 7a bc 1c 62 5a bd 18 c1 dc bd cc 19 79 3d
       -0.015316278 -0.05331622 -0.10779017 0.060815617
000260 f0 24 70 3c 42 8f 8a bd 4c d6 c5 bd c4 a0 b3 bd
       0.014657244 -0.067656055 -0.096600145 -0.08770898
000270 82 10 92 3d d8 c8 0e 3d 42 15 d3 bd d8 a8 d2 bd
       0.07132055 0.03485951 -0.10306789 -0.10286111
000280 98 be fd bd 18 9a ac 3d 48 c6 4d 3d b2 fc fb 3d
       -0.123898685 0.084278286 0.050237924 0.12304057
000290 92 14 a5 3d c8 7f 90 bc 28 49 67 bd ce 03 86 bd
       0.08060564 -0.017639056 -0.05646625 -0.065436944
0002a0 fe 18 9b 3d 9a 79 8c bd 88 64 db bc 98 b9 c6 bd
       0.07573126 -0.06859131 -0.026781335 -0.09703368
0002b0 32 d6 fd bd e0 94 9e 3b 18 a2 30 bd f8 85 4b bd
       -0.1239437 0.0048395246 -0.043123335 -0.04968831
0002c0 d0 b0 cb 3d 40 76 74 3c e0 8e 4c 3c e8 ac 11 bd
       0.09945834 0.014920771 0.012485236 -0.035565287
0002d0 60 b1 f4 bc 00 69 91 3c c0 c9 f5 bb a8 89 1c 3d
       -0.029869735 0.017750263 -0.007500857 0.038217217
0002e0 40 e3 35 bb 64 ad ff bd 26 a7 ed 3d e8 1a cf 3c
       -0.002775386 -0.124842435 0.11604147 0.025281385
0002f0 00 37 df bc d4 fa e6 bd 2a 4c a0 bd d8 bb c2 bd
       -0.027247906 -0.112783104 -0.07827027 -0.095084846
000300 28 47 ee bc 82 5a f8 bd f4 7c e2 3d 26 b0 e4 bd
       -0.029086664 -0.12126638 0.11058989 -0.1116641
000310 20 f2 cb bd 80 22 37 3b e2 09 84 bd c2 4b ce 3d
       -0.09958291 0.0027944148 -0.064471975 0.100730434
000320 20 93 92 3c 50 d2 a7 bd 00 81 00 3b e8 d7 f0 bc
       0.01789242 -0.08194411 0.001960814 -0.029399827
000330 10 2a d3 3c 2a a1 8b 3d 2c 7c 5a bd 9c 5d 9b bd
       0.025776893 0.06817849 -0.053341076 -0.07586214
000340 c4 69 7e 3d 44 37 d7 3d 0c 32 80 bd 9e 27 8a 3d
       0.062112585 0.10508588 -0.06259546 0.06745838
000350 b2 32 90 3d 2a c7 96 3d 48 5e 23 bd 38 90 d0 bc
       0.07040919 0.07362206 -0.039884835 -0.025459394
000360 42 39 c3 3d 96 fe 90 3d 14 ad 67 3d c4 11 ee 3d
       0.095324054 0.070798084 0.056561545 0.11624482
000370 00 4c 3e bd 68 4f 8c bd 60 7a f1 3d 60 54 ce 3c
       -0.046459198 -0.06851083 0.11790919 0.025186718
000380 ae dd d5 bd b4 7d b0 bd b6 ba 87 bd 84 2f 96 3d
       -0.10442673 -0.08617726 -0.06627409 0.07333282
000390 42 8d e4 bd 40 4c 92 bb 4c 0a fc bd 48 2b fe 3d
       -0.11159755 -0.004464656 -0.123066515 0.12410599
0003a0 e6 76 c8 3d 5e c0 bf 3d b0 e9 88 bc 14 b7 c3 bd
       0.09788303 0.09362863 -0.016712993 -0.09556404
0003b0 28 24 d5 3d 3c 1a 79 bd ca 85 f1 bd 20 9e 86 3c
       0.10407287 -0.060816035 -0.11793096 0.016432822
0003c0 36 cc bb 3d d0 a8 1d bd b8 8e 94 bd dc a7 d9 bd
       0.091698095 -0.03849107 -0.07253784 -0.1062772
0003d0 d0 4f 65 bd 40 ff 3d bb 48 81 9c bd 3a 7d b7 3d
       -0.05598432 -0.0028991252 -0.07641846 0.08959432
0003e0 56 d3 c4 bd 92 18 e4 bd 24 3d a0 3d c0 e1 3b bc
       -0.09610622 -0.11137499 0.07824162 -0.011467397
0003f0 10 e7 4b 3c 40 56 6d 3c 4c f4 8e 3d b0 0c 97 bc
       0.012445226 0.014485896 0.0698019 -0.018438667

mamba.layers.0.norm.weight f4 [4]
000000 2c a1 54 3e 2b be 92 3e 2a 75 07 41 14 87 d3 40
       0.20764607 0.28660712 8.4661045 6.610239

fc.weight f4 [1, 64]
000000 f7 18 01 3c 78 2d 1f 3c f1 8f 17 3b 59 86 77 ba
       0.007879487 0.00971543 0.0023126567 -0.00094423216
000010 9b ff b3 3b 95 43 82 39 20 ac 58 3d be d4 4b 3d
       0.005493117 0.00024845885 0.052898526 0.049763434
000020 02 12 02 3a a0 a8 00 bb e9 28 2e be 26 61 4a 3b
       0.000496179 -0.0019631758 -0.17007793 0.003088066
000030 77 2d 1c 3b a7 8d be be 16 f8 7e 3c 27 ca f8 3d
       0.002383081 -0.37217447 0.015562078 0.121479325
000040 85 12 3c bc e7 5a d7 3a ba 8b 5e ba d9 78 fa 3f
       -0.011479025 0.0016430289 -0.0008489449 1.956813
000050 9c a0 bc bf 4c d6 1c bc 08 f7 0b bd e5 61 1b 3d
       -1.4736514 -0.009572577 -0.034171134 0.037935156
000060 8a 42 26 be 40 b8 b2 bf f8 75 00 3e aa 0b b2 3f
       -0.1623632 -1.3962479 0.12545002 1.390981
000070 6d 09 a9 3a f2 49 04 3e 23 24 b7 bd 11 a8 ab bb
       0.0012896486 0.12918833 -0.089424394 -0.005238541
000080 73 0a 60 bc f9 be ef 3d 25 9e 8c bd 1a f3 50 bc
       -0.013674366 0.11706347 -0.06866101 -0.012753272
000090 5d 78 f1 bd 44 ae 22 3d 66 09 1d ba 32 f0 d8 3b
       -0.117905356 0.039716974 -0.0005990475 0.0066204304
0000a0 c5 4d 24 be 0b d9 c1 3c 66 75 b2 bd 21 73 11 bc
       -0.16045292 0.023663064 -0.08713798 -0.0088775465
0000b0 50 ad 54 bc 6d f9 e2 bc 8d 24 73 bf 03 04 7e bd
       -0.012980774 -0.027706826 -0.9497765 -0.062015545
0000c0 df 27 00 c0 0d 29 05 40 2d ad 0e 3d f5 57 b7 bc
       -2.0024335 2.0806305 0.034833122 -0.022380808
0000d0 ce 14 81 3e e2 c0 21 3a e7 33 12 ba 83 62 ac 3d
       0.25211185 0.00061704044 -0.0005577192 0.08417227
0000e0 2d 02 ed 3e e0 ca 27 ba c7 4f 9b 3d c5 56 78 3f
       0.46290722 -0.0006400775 0.07583576 0.970074
0000f0 42 a8 51 bb 12 4f 6f be 2b f6 ce bc 03 66 09 bb
       -0.0031991159 -0.23370007 -0.025263866 -0.0020965345
