models/classification/mamba_delV_1.0_trainDim_4_pN_100.0_vN_1.0_nonDim_True.pth (torch, 22354 bytes, 12 tensors)

mamba.layers.0.mixer.A_log f4 [32, 32]
00000000: f9b5 b0be 2d76 da3e 392e 673f 327c b23f
00000010: 26ab a13f cd71 dc3f 3892 1140 9f95 f63f
00000020: e3a4 0940 64f0 0840 f65a 0f40 815f 0e40
00000030: e386 2d40 3287 1640 ea1c 2440 9f89 3940
00000040: f6ec 2640 7096 2f40 5471 3240 59a5 3340
00000050: 1325 4240 fd20 4740 47dc 2e40 cb76 4140
00000060: 51b5 4a40 daed 4a40 f21d 4340 f957 7140
00000070: a82d 3a40 7567 6b40 7da8 4d40 335a 4340
00000080: ec34 0bbf b389 833f 1882 6f3f e7fc d03f
00000090: 709a d63f 7d0e f13f 89cf 2340 65b6 fd3f
000000a0: 3fdc 1040 201c 2840 fd64 2340 708c 1b40
000000b0: 568e 0f40 996b 2240 71e5 3a40 d5e0 5c40
000000c0: 8d5d 1740 bdce 4340 c1aa 3340 b26f 4640
000000d0: 904b 5240 f70c 5c40 6f5c 4d40 849e 4340
000000e0: c632 5c40 c29d 6540 19c5 5240 584d 8c40
000000f0: 7c49 1140 e8a5 7840 8ee1 4940 e2fa 4d40
00000100: 15df 7e3d 3b56 573f b8e3 933f 85de b43f
00000110: 8705 f23f 4f8a fe3f 5acd 0c40 759c 1240
00000120: b593 1940 5ecf 2240 ed08 1e40 5337 1c40
00000130: b994 2940 becc 2b40 261c 3640 cf8f 3840
00000140: 7a82 3840 1939 3a40 cf6a 4940 0168 4f40
00000150: 6189 4440 2892 4a40 a3fd 4e40 14f2 4e40
00000160: 4dfb 5c40 5298 5b40 6dad 5b40 b7ca 5840
00000170: a87c 5b40 c78b 6640 3960 4940 5e1f 5c40
00000180: 02a8 acbe 109e 9c3e c641 5b3f cd5c 9f3f
00000190: 097a 773f 2bd8 e63f 2510 3140 0c91 f53f
000001a0: a1a0 f33f 79c1 0e40 a7cd 0840 6dca 1140
000001b0: 36e4 2240 ead7 1840 6d1c 2340 a159 2f40
000001c0: ad49 2a40 a080 3040 7a2e 2340 d6e8 5040
000001d0: 5d09 5540 1c9b 4940 9607 4940 8cd5 4140
000001e0: 11b6 6640 2b28 4540 dd13 4d40 19f8 7540
000001f0: 2c56 1f40 0fff 6640 2b83 5540 d836 3e40
00000200: ceb7 f5be 4490 263f e182 013f cd9d fe3f
00000210: c41d d73f aa09 1b40 eb37 2940 5ea3 b43f
00000220: aefe 0840 e59c 1c40 9e9f 0b40 e87d 3240
00000230: 7bc6 4b40 abbe 1e40 4e8f 4040 0c2b 4340
00000240: 3d09 3c40 ae97 5340 cdde 1a40 1e2e 4540
00000250: 0d5b 5f40 0e21 7840 e470 2c40 2b74 5940
00000260: 4ceb 6240 ef87 7240 39d0 5c40 9f8e 8340
00000270: 0010 1640 9b64 8840 6605 5540 e651 4040
00000280: 9808 883d 080c 7f3f 7b8c b43f 53bb f23f
00000290: f049 d43f 947c fb3f 9643 1b40 2b1b 2340
000002a0: 5d2f 2340 1f59 2340 880d 2a40 4420 2640
000002b0: a2fa 2540 4403 3540 6cdb 3d40 6c40 1b40
000002c0: 785d 3a40 ef21 4a40 a19a 4940 5e77 2e40
000002d0: df3c 4340 e3e4 5140 f004 4640 6179 5b40
000002e0: dade 4c40 03ec 6240 4048 5140 149e 6f40
000002f0: 1778 4740 d4d1 7040 ae70 6340 d21f 5440
00000300: ed52 dcbe 8f18 143e 4c70 0c3f b032 6b3f
00000310: ea94 783f b6d2 ab3f bf80 c83f 73bd cd3f
00000320: f773 c43f 6272 e63f 61f1 e03f 70c2 0840
00000330: 9db3 1140 6fe7 0f40 e615 0e40 0660 2240
00000340: 8ea1 1840 07e0 1140 a72c 1a40 c776 3840
00000350: 9c04 4240 5564 3f40 5fc2 3d40 c3bf 3640
00000360: 4925 5240 b1fa 2940 d1df 4040 dbc6 6340
00000370: 1d27 3440 0f79 2540 c7ff 5440 78c1 3340
00000380: e936 f8be cedf 183f fbc2 863f abc2 993f
00000390: 72e6 b33f 3de5 e43f 9bba b03f 7eb0 f93f
000003a0: b2c2 1440 5cc1 c43f 18ed 1c40 53a1 0940
000003b0: 28e9 1b40 19b5 1340 02b6 1540 c883 1d40
000003c0: db92 1d40 2678 2940 8769 2f40 c39e 3040
000003d0: 107a 1c40 2d3d 1d40 2aa5 4540 001d 3b40
000003e0: c1a2 4b40 b5c3 3d40 59ca 4440 2c89 4540
000003f0: 6493 4a40 dcb9 4740 77ef 4f40 2a76 2e40
-0.34513834 0.42668286 0.90304905 1.3944151 1.2630355 1.7222229 2.2745495 1.9264411
2.150689 2.1396723 2.2399268 2.224579 2.7113578 2.3520017 2.5642648 2.8990247
2.608213 2.743557 2.788167 2.806967 3.0335128 3.1113884 2.7321947 3.0228755
3.1673167 3.1707673 3.0487027 3.7709944 2.9090366 3.6781895 3.2134087 3.0523803
-0.5437763 1.0276397 0.9355788 1.632718 1.676588 1.8832546 2.559542 1.9821287
2.2634428 2.6267166 2.5530388 2.4304466 2.2430625 2.5378172 2.920254 3.4512227
2.365085 3.0594933 2.807297 3.1005673 3.285862 3.4382913 3.2087667 3.05655
3.440599 3.5877538 3.29328 4.3844414 2.2701101 3.885126 3.1543918 3.2184377
0.062224466 0.8411595 1.1553869 1.4130408 1.8907937 1.9885958 2.2000337 2.2907994
2.3996403 2.5439067 2.4692948 2.4408767 2.6497023 2.6843715 2.845468 2.8837774
2.8829637 2.909735 3.147144 3.240723 3.070885 3.1651707 3.2342308 3.2335253
3.4528382 3.431172 3.43246 3.3873727 3.4294834 3.6022813 3.146498 3.4394145
-0.3372193 0.30589342 0.8564724 1.2450196 0.96670586 1.8034719 2.7666104 1.918489
1.9033395 2.2305586 2.137552 2.27798 2.545179 2.3881783 2.54861 2.7398455
2.6607468 2.7578506 2.5497117 3.2642112 3.3286965 3.1500921 3.141088 3.0286589
3.6048625 3.0805767 3.2043374 3.8432677 2.4896345 3.6093175 3.3361309 2.9720974
-0.47991794 0.6506388 0.5059033 1.9891907 1.6805959 2.4224648 2.644038 1.4112356
2.1405444 2.447076 2.1816173 2.7889347 3.1839893 2.4803874 3.0087466 3.0495024
2.9380639 3.3061328 2.4198487 3.0809398 3.4899323 3.8770175 2.6943903 3.3977153
3.5456114 3.7895467 3.450209 4.11116 2.3447266 4.262281 3.3284545 3.0049987
0.06642264 0.99627733 1.4105371 1.8963417 1.6585064 1.9647393 2.426 2.5485332
2.5497658 2.5523145 2.657076 2.5957193 2.5934224 2.8283243 2.9665174 2.425807
2.9119549 3.1583211 3.1500628 2.7260356 3.0505903 3.2795951 3.0940514 3.4292834
3.2011018 3.545655 3.2700348 3.7440233 3.1167047 3.762807 3.5537524 3.3144422
-0.43032017 0.14462493 0.5485885 0.9187422 0.97102225 1.3423679 1.566429 1.607344
1.534789 1.8003657 1.7573663 2.1368675 2.2765877 2.2485006 2.2200866 2.5371108
2.3848605 2.2792985 2.4089754 2.8822496 3.0315313 2.9904988 2.9649885 2.8554542
3.2835257 2.655926 3.0136607 3.5590122 2.8148873 2.5855138 3.3281114 2.8086834
-0.48479393 0.597165 1.0528253 1.2012533 1.4054701 1.7882458 1.3806947 1.9506986
2.3243833 1.5371509 2.451971 2.1504714 2.4361057 2.3079283 2.3392339 2.4611683
2.4620883 2.6479583 2.7408159 2.75969 2.44495 2.4568589 3.0882058 2.923645
3.1818087 2.96507 3.0748503 3.0864973 3.165246 3.120719 3.2489908 2.7259622

mamba.layers.0.mixer.D f4 [32]
00000000: 60d2 943d 7dc9 833d 56b4 013f cf58 133c
00000010: b0a9 963e 0f28 5b3c 1367 373d 9344 c93b
00000020: f7db c13e fdea 013c 7d4d 903f dd99 523d
00000030: 73cd 3e3e e54e 3d3d 6acc d1bd 2239 8c3a
00000040: 9014 883c 198e 2a3e 0426 8d3e 24bb 5d3c
00000050: af54 af3e b387 3b3e 4c1b b63e f9b1 323f
00000060: 837d 013c aff4 693e 2f96 213e fa97 fd3d
00000070: 3919 4b3c af08 c13e 5f49 1f3e fadc 3d3e
0.07266688 0.06434915 0.50665796 0.008993342 0.29426336 0.01337625 0.044776034 0.006142208
0.37863132 0.007929561 1.1273648 0.051416267 0.1863306 0.046217818 -0.10244067 0.0010698179
0.016611367 0.16655768 0.27568066 0.013533387 0.34244296 0.18313484 0.355677 0.69802815
0.0079034595 0.22847246 0.15779947 0.12382503 0.01239615 0.37701938 0.15555333 0.18541327

mamba.layers.0.mixer.D_SSM f4 [32]
00000000: 60d2 943d 7dc9 833d 56b4 013f cf58 133c
00000010: b0a9 963e 0f28 5b3c 1367 373d 9344 c93b
00000020: f7db c13e fdea 013c 7d4d 903f dd99 523d
00000030: 73cd 3e3e e54e 3d3d 6acc d1bd 2239 8c3a
00000040: 9014 883c 198e 2a3e 0426 8d3e 24bb 5d3c
00000050: af54 af3e b387 3b3e 4c1b b63e f9b1 323f
00000060: 837d 013c aff4 693e 2f96 213e fa97 fd3d
00000070: 3919 4b3c af08 c13e 5f49 1f3e fadc 3d3e
0.07266688 0.06434915 0.50665796 0.008993342 0.29426336 0.01337625 0.044776034 0.006142208
0.37863132 0.007929561 1.1273648 0.051416267 0.1863306 0.046217818 -0.10244067 0.0010698179
0.016611367 0.16655768 0.27568066 0.013533387 0.34244296 0.18313484 0.355677 0.69802815
0.0079034595 0.22847246 0.15779947 0.12382503 0.01239615 0.37701938 0.15555333 0.18541327

mamba.layers.0.mixer.in_proj.weight f4 [64, 4]
00000000: e7b3 63bd 3fec 80be 35ad 25be 2ee0 bb3c
00000010: 47e1 7fbe 5c2d 133d 5fab 993e 9abb 363c
00000020: e2e0 a43b 8936 00bc ec90 d93d 555c b8bd
00000030: 7eb0 6b3d c70c 803e 66e2 363e 8b9c 3f3c
00000040: 6558 96be 1253 983d 5f8b 043d 6f29 893e
00000050: e996 fe3d ac79 c83e 8527 b63e fd3b 48be
00000060: acda 483e 1f21 5cbd e655 583e fa2b f5be
00000070: 9aeb 0d3e 6bab 45be bb21 283e a0c0 88be
00000080: d716 c4bd 00f1 933e 40f5 d73d 6d5a ddbd
00000090: 6fb6 14bd 7ccd 613e 786d 613e 481d 0a3d
000000a0: 9375 bf3e 1c76 15bd 76e4 c2be d173 a93e
000000b0: 92ab 1e3e a80c 39bd 2f87 1cbf 3169 bfbd
000000c0: 85e4 313e 4764 bbbd 1ecd c5bd 494b d5bd
000000d0: 590d b33b c52a 8abe ec45 ccbe a1b1 1d3e
000000e0: 2446 ccbe 543f 393e 2ed9 4d3e b0b1 7d3e
000000f0: d4d2 efbd 08dd 963d cb71 8fbc 829d 8c3e
00000100: d4d3 8fbe a300 4dbd 488e 223e c58d d73e
00000110: b83b 62bd 05ba 5b3e 96b5 023f 08c0 c83d
00000120: c35c e93d f90c 12be c2b5 133e b9bb 00be
00000130: 50b4 70bd 743c 3f3d b0a5 08be 4a4d 363e
00000140: f04c 55be bcec 163d 7f71 4f3e e42a 7f3e
00000150: 3e20 843d a979 38be 429c 57be 66d2 ec3d
00000160: d4d9 12be 3b7d 97be bc84 3ebe 1934 293d
00000170: 53c0 533e c4fa 883e a7cc 8b3d e2a4 aebe
00000180: 1dd2 833e e08a 47be 7203 5abe 54a1 b8be
00000190: 6313 88bd 7d04 113e a972 94bc 4d22 0fbd
000001a0: 8880 683e 556e 58be 6dec ddbe ba14 83be
000001b0: 8ed0 e43e 3c2a 803d b98f 12bd 86ce c6be
000001c0: 0ee7 10be abac 0c3e fff3 943d 2d4e febd
000001d0: 02ae 56be f675 c1bd 3aed 44bd e057 fc3e
000001e0: 5823 053e c96a a2bb 15bd 54be b92a c5be
000001f0: fb1d a9be a882 803d 5638 983e f929 f93e
00000200: 441a 5f3e 7225 a5be 5ede a2be 10de 7d3e
00000210: 50da 06be 9e50 ffbe 90e7 a13e 804a 9b3c
00000220: 5c4d 33be 9822 a1be d031 abbd 4075 63bd
00000230: fc5a 79be 6687 a7be d047 d63d de0e e03e
00000240: 60a4 c3bd 487b cabe 3c94 733e 008f b5bd
00000250: c02e 9b3d b49a 77be 28ae 8e3e 0c38 68be
00000260: 2021 9bbe 2832 94bd a0a9 1abe 8e47 f03e
00000270: 2af1 b8be 42b2 a03e 44b9 cb3e 004f 5d3c
00000280: 2a91 db3e 780e ddbd 30e7 59be f494 6dbe
00000290: d4d2 653e 625b febe 649b c03e 548b e33e
000002a0: 0020 b83c 127e e53e 3812 13be 2091 8fbd
000002b0: 8ad5 d2be b2e9 9d3e fc30 05be e014 5a3d
000002c0: d042 97be acd1 2cbe 30d0 57bd 6c09 72be
000002d0: d8b9 81be 4009 2cbc 46be a53e 82bb b23e
000002e0: d00f d3bd ec34 b43e 52e3 e1be 80fc b0bd
000002f0: 1815 2dbe 2c13 30be cad8 f1be 848c c73e
00000300: 80fc cc3d a495 4dbe 9822 52be 2406 e03e
00000310: 5e16 96be d810 aebd 605c b7bd a0c1 43bd
00000320: 5a33 d9be ac88 123e b611 b73e 349a 5e3e
00000330: 8c12 fc3e a05c 5a3d d0ae 89bd 9084 5b3d
00000340: a809 ebbd c089 c43d 2c9c 143e 2eb7 a33e
00000350: aca3 5d3e 3803 183e 64b8 51be 9061 aabd
00000360: aa33 fcbe 8092 8c3c 0059 12be da80 e03e
00000370: 44c1 79be 00b3 453b bc1f 913e 58b0 9dbd
00000380: 5ab0 f83e 76f2 8d3e d45d a9be 383c f23d
00000390: 9862 703e 1ca8 26be 7629 ab3e 6048 3dbe
000003a0: 0c37 3fbe f8af 37be 7615 8d3e a0c3 783e
000003b0: 5082 c2bd 4048 e8be f8ba ea3e b20a cabe
000003c0: 08e0 4c3e 6052 6fbe 18a7 d5be 8871 753e
000003d0: 0020 88b8 743f 7cbe aca1 9abe 70f5 77be
000003e0: f80b 123e 727e f9be 8e9d c73e 30a7 08bd
000003f0: d011 cbbe 521d a13e 0805 abbd 44c5 74be
-0.05559149 -0.2518024 -0.16179354 0.022934046 -0.2498828 0.03593193 0.30013558 0.011153126
0.005031691 -0.007825502 0.10623345 -0.09001986 0.057541363 0.25009748 0.17859802 0.011695038
-0.29364315 0.074377194 0.032359477 0.26789424 0.124311276 0.39155328 0.35577026 -0.19554134
0.19614667 -0.053742524 0.21126518 -0.47885114 0.13859406 -0.19303672 0.16419117 -0.2670946
-0.09574669 0.28894806 0.105448246 -0.10808263 -0.036306795 0.22051042 0.22014415 0.03371933
0.3739439 -0.03648959 -0.38064927 0.33096173 0.15495136 -0.045178086 -0.61143774 -0.093462355
0.1737233 -0.09149986 -0.096582636 -0.1041475 0.0054642376 -0.26985756 -0.39897096 0.15399791
-0.39897263 0.18090564 0.20102379 0.24774814 -0.11710134 0.07366377 -0.017510315 0.2746392
-0.280913 -0.050049435 0.15874588 0.4210035 -0.055232733 0.2145768 0.5105833 0.09802252
0.11394646 -0.14262761 0.14424804 -0.1257161 -0.05876571 0.046688512 -0.13344455 0.17802921
-0.2083013 0.03684686 0.20258139 0.24918705 0.06451462 -0.1801516 -0.21055701 0.11563568
-0.14340907 -0.2958773 -0.18605322 0.04130945 0.20678835 0.2675382 0.06826144 -0.3411017
0.2574624 -0.1948657 -0.21290377 -0.36060584 -0.06644323 0.14161868 -0.01812108 -0.03494482
0.22705281 -0.21135838 -0.4334444 -0.2560175 0.44690365 0.062580556 -0.035781596 -0.3882944
-0.1415064 0.13737743 0.07273101 -0.124172546 -0.20964816 -0.094463274 -0.0480778 0.49285793
0.13001764 -0.0049565774 -0.20775254 -0.38509157 -0.33030686 0.06274921 0.2973048 0.48664835
0.21787363 -0.3225513 -0.31810278 0.24791741 -0.13169217 -0.49866194 0.3162198 0.018956423
-0.17509979 -0.31471705 -0.0835911 -0.05553174 -0.24351114 -0.32720488 0.10462916 0.43761343
-0.095528364 -0.3954718 0.23787016 -0.08865166 0.07577276 -0.24180108 0.27867246 -0.2267763
-0.3029871 -0.07236129 -0.1510377 0.46929592 -0.36121494 0.31386 0.39789784 0.013507605
0.4288419 -0.10793775 -0.21279597 -0.23201352 0.22443706 -0.49679095 0.37618554 0.44442236
0.022476196 0.44822747 -0.14362419 -0.07010102 -0.41178542 0.30842358 -0.13006967 0.053242564
-0.2954316 -0.16876858 -0.052688777 -0.23636407 -0.253371 -0.010500252 0.3237173 0.34908682
-0.1030575 0.35196626 -0.44118744 -0.086419106 -0.16902578 -0.17194813 -0.4723571 0.38974392
0.10009098 -0.20076615 -0.20521009 0.43754685 -0.2931394 -0.084993064 -0.08953166 -0.047792077
-0.4242199 0.14309949 0.357557 0.21738511 0.492329 0.05331099 -0.06722796 0.05359322
-0.11476451 0.09596586 0.145127 0.31975693 0.21644467 0.14844978 -0.20480496 -0.0831939
-0.49258167 0.0171597 -0.14291763 0.43848306 -0.24390131 0.0030166507 0.28344524 -0.076996505
0.48572046 0.27724046 -0.33079398 0.11827892 0.2347511 -0.16275066 0.3343007 -0.1848464
-0.18673342 -0.1793822 0.27555436 0.24293375 -0.094975114 -0.45367622 0.4584577 -0.39461285
0.20007336 -0.23371267 -0.41729045 0.2396909 -6.490946e-05 -0.2463358 -0.3020147 -0.2421472
0.14262378 -0.48729283 0.38987392 -0.033362567 -0.39662027 0.31467682 -0.08350569 -0.23903376

mamba.layers.0.mixer.conv1d.weight f4 [32, 1, 16]
00000000: f9db dbbc 0610 de3d b7b3 343d 6fe1 88be
00000010: 845a d03d e4a9 ddbc 5fb0 773d 05e8 7cbe
00000020: 7964 f93d a457 3ebd b7a4 5dbe 50e5 2b3e
00000030: fc6e fe3d 3c7a 1cbe 6ee9 89be de73 243e
00000040: 2bec 86be 2c26 013e 09ad eabd 1b15 99be
00000050: c05f 2a3e 26cb 0f3e fdf9 54bd b03b dd3d
00000060: cc4b be3c 2bed 82be 0812 45be 8990 2cbd
00000070: ba9f 0d3e 046a 17be f98c 63be 9c6b 55bc
00000080: 3fa7 c93d 9371 3f3e c04e 1c3d 37cd 663e
00000090: c6c0 4c3e 70f8 c83c 694d 033e 3f57 46be
000000a0: eacc 523e 772b 5cbd 8239 7a3d b399 5c3d
000000b0: 0625 863e 5f99 b03d 80d8 9f3d 1954 083e
000000c0: e7d4 313e fb6c 3abe 8a6f 6cbe 91d2 613e
000000d0: 7f95 763b eaa7 17bc 6c62 5d3e bb28 7e3e
000000e0: 268e 8d3d a908 afbc 3aa8 423c 2dce 98bd
000000f0: ae8c 093e c44c 87bd b0d0 2dbe 9f63 093e
00000100: 6f62 0d3d 7142 fe3d 34a4 c3bc dcba 91be
00000110: 82c1 24be a554 cc3d 84ae f9bc ca97 27be
00000120: a9ed 0bbe a11f 003d fad0 d93d 64e6 86be
00000130: 0fac 6fbe 3946 61be 2344 f43d ef59 143d
00000140: 2317 083d f84e 363d 56a9 003e 9753 c7bd
00000150: 3cd8 e03d 1b7f 6b3c 67f4 5e3e 06d0 263e
00000160: 73b3 22be 5ef1 a0bd 5db3 a6bd 9605 933c
00000170: 20d4 b6bd 8fe8 e1bd b178 183c 6694 72bd
00000180: 5e20 2dbe 27a0 24be a163 9f3d 2207 843e
00000190: cad3 39be 6856 433d 9a31 413e 78c5 ff3d
000001a0: 6407 ab3d edc9 1a3e d7c3 23bd 9a15 353e
000001b0: e5e7 743e 925e 1e3e e6f7 1bbe 6b84 a4bc
000001c0: 3ee1 6b3e 2561 a53d 9ab6 17be 2c2a 5bbd
000001d0: 3c06 243e 9b5b 47be 0e8d ebbd 875f 5e3e
000001e0: 5cdb 3bbd 5456 d93d dc75 53bd 8ffd 81be
000001f0: d9cb f73c 5a16 313e 0461 dbbd 733e b7bd
00000200: 1b4c f53d a556 99bd 652d 783e 13bf 3b3c
00000210: 74bd c13d 3ac0 4b3e d7ad 3b3e e42a 0ebe
00000220: 0c99 21be 2aca 18be 2945 e0bd faae fcbd
00000230: 6c20 d53d 3143 4f3e 7c14 00bd b44e 62bc
00000240: 2bc7 933e 2f7c 183e d556 d03c dba2 02bd
00000250: 2a01 173e 6e94 903c e07d 813e c828 203e
00000260: 23fc 2dbe 4f99 6abd dbd1 19be f932 b4bd
00000270: 90a9 6d3e 118f f7bd b526 903d d73d 743d
00000280: 7268 a33d 0faa 9bbd 5a8b 75bd 603e 4b3e
00000290: 81fb 8f3c ddba ea3d 069b 8f3c a0c9 67bd
000002a0: b050 683c 5efe 4e3e a6e3 833e 4606 8ebd
000002b0: 2d3f 5cbe 2675 22be 34a7 82bc b949 51be
000002c0: e49a 253e d617 41be f274 5b3e 31e8 f13d
000002d0: b11b 493e 8e96 19be a1e6 40be cd17 0a3c
000002e0: 512f 163e 771e 2dbb 57e5 48be 34c8 e4bc
000002f0: d57e 1b3e 1b86 24be 4a24 883e 2fbc c2bd
00000300: 1bbc 07be 6288 973d 7c13 803d 382b 58bd
00000310: 52b8 f5bc 052e bb3d e06f 433e d8a9 5fbe
00000320: 8ca1 0d3d dcae 363e 4fdf 06be 6aa1 2cbe
00000330: 24bd d73d 0bc7 acbc 92d9 c5bd 08a4 193e
00000340: cd79 25be 195b 463e ea05 bf3c 48c8 82be
00000350: 43e1 1c3e d204 73bd 25f4 26bc 8739 83be
00000360: ba96 1fbe 96ec 303e 9c41 1d3d 7ca8 e73d
00000370: f3ab 623e 17f8 71be 98e7 1fbe 1f7f 83be
00000380: fd7d 5f3e f706 0a3e a2ea 42be e722 3f3e
00000390: ec01 03be a6e7 563e 9e3a e6bd 06f3 bc3d
000003a0: 02b1 54be 9fe6 a7bd 265c 223e 06dc f43d
000003b0: d843 663e e66d b4bd a81b a53d c011 dfbd
000003c0: 9936 d13d e511 84bd bdc8 66be 3f9f 72be
000003d0: 222f 2a3e 69ef 193e 27bf c9bd 26d6 13bd
000003e0: 0478 f43d d667 5c3e 150b b8bd 5281 5d3d
000003f0: d957 10be 027b cfbd 7f9a 1dbb fca8 303e
-0.02683829 0.108429 0.044116702 -0.26734492 0.101735145 -0.02705855 0.060470935 -0.24697883
0.12177367 -0.0464703 -0.21644865 0.16786695 0.12423512 -0.15281004 -0.26935905 0.16059825
-0.26352057 0.12612218 -0.11458785 -0.29898915 0.16638088 0.14042339 -0.05199622 0.108024
0.023229502 -0.2557157 -0.1924516 -0.042130027 0.13830462 -0.14786536 -0.22221746 -0.013026144
0.09846353 0.18695669 0.03816104 0.22539221 0.19995412 0.024532527 0.12822498 -0.19369219
0.20585981 -0.05375239 0.06109 0.053857516 0.26200122 0.08623003 0.07804966 0.1331333
0.17366372 -0.18205635 -0.23089424 0.22052981 0.0037625728 -0.009256342 0.21619576 0.24820225
0.06911878 -0.021366434 0.011880929 -0.074612 0.13432571 -0.06606439 -0.16974139 0.13416909
0.0345177 0.124150164 -0.02388201 -0.28462875 -0.16089442 0.09977082 -0.030478723 -0.16366497
-0.13664879 0.031280164 0.10635562 -0.2634765 -0.23405479 -0.21999444 0.119270585 0.03621858
0.03322519 0.044508904 0.12564597 -0.0973274 0.109787434 0.014373566 0.2177292 0.16290292
-0.15888767 -0.07858537 -0.081396796 0.017947 -0.089271784 -0.11030685 0.009306119 -0.059223555
-0.16906878 -0.16076718 0.077826746 0.25786692 -0.18147197 0.047689825 0.18866578 0.12488836
0.08351019 0.15116091 -0.03998169 0.17684022 0.23916586 0.15465763 -0.15231284 -0.020082673
0.23035142 0.080751695 -0.1481575 -0.053507015 0.16018003 -0.19468538 -0.115015134 0.21716128
-0.045863494 0.10612169 -0.05162607 -0.25388762 0.03024857 0.17293683 -0.10711864 -0.08947458
0.119774066 -0.07487229 0.24236067 0.01145913 0.094599634 0.19897547 0.18328033 -0.13883549
-0.15781039 -0.1492087 -0.10950691 -0.12338062 0.104065746 0.20240475 -0.031269535 -0.01381271
0.2886289 0.14891122 0.02543203 -0.031893592 0.14746538 0.017648902 0.25291348 0.15640557
-0.16990714 -0.057275113 -0.1502146 -0.08798785 0.23209214 -0.120878346 0.07038633 0.059629288
0.07978906 -0.076007955 -0.05994735 0.19848013 0.017575981 0.114614226 0.017529976 -0.05658877
0.014179394 0.20214221 0.2575962 -0.0693479 -0.21508475 -0.15865001 -0.01594887 -0.20438279
0.16172367 -0.18856749 0.2143133 0.11811865 0.1963947 -0.14998838 -0.18837978 0.008428526
0.14666487 -0.0026415864 -0.19618736 -0.027927496 0.15185101 -0.16066782 0.26590186 -0.095085494
-0.1325535 0.0739906 0.06253716 -0.05277559 -0.029995117 0.09139637 0.19085646 -0.21842134
0.03457789 0.17840141 -0.13171123 -0.1685845 0.105341226 -0.021091005 -0.09660639 0.15003979
-0.16159745 0.19370688 0.02331825 -0.25543427 0.15320306 -0.05933077 -0.0101900445 -0.25629827
-0.15584841 0.1727775 0.038392648 0.11311433 0.22135906 -0.23629795 -0.1561569 -0.25682923
0.21825404 0.1347922 -0.19034818 0.18665658 -0.12793702 0.20986804 -0.11241649 0.092260405
-0.20770648 -0.08198284 0.15855464 0.11956029 0.22486818 -0.08810024 0.08061916 -0.108920574
0.10215492 -0.064487256 -0.22537513 -0.2369356 0.16619542 0.15032734 -0.098509125 -0.0360929
0.11936954 0.21523985 -0.08986489 0.054078408 -0.14096011 -0.10130884 -0.0024048386 0.17251962

mamba.layers.0.mixer.conv1d.bias f4 [32]
00000000: 1871 8d3b 82ba c6bc 3428 e33a a745 93bd
00000010: 346d 3cbb cf4c b8bc 5605 27bb c81a 18bb
00000020: 8b3f ad3b 186f bebd 579c 0dbb 3ee2 53bd
00000030: 496d 5a3c 8ed2 3d3d f5d7 57bd 91e4 c13c
00000040: 7fed 72bb fd4d 39ba 2f85 20bc 39ee 59bd
00000050: 5073 7d3a b6bc 093c 9ced 053b ea1b 2dbd
00000060: 9b50 02be 2106 efba 7fee acbc 1093 d3ba
00000070: 046d 37bd 8214 82ba b8e3 a3bb fa7d 25ba
0.0043164603 -0.024258856 0.0017330707 -0.071910195 -0.0028751614 -0.022497563 -0.0025485358 -0.0023209322
0.005287116 -0.09298533 -0.0021608078 -0.051729433 0.01333172 0.04634338 -0.052696187 0.02366856
-0.0037067828 -0.0007068811 -0.009797378 -0.053205702 0.0009668367 0.008406809 0.0020435816 -0.04226295
-0.12726061 -0.001823608 -0.021109818 -0.001614185 -0.0447817 -0.0009924325 -0.0050015114 -0.00063130225

mamba.layers.0.mixer.x_proj.weight f4 [65, 32]
00000000: b11b 98bc f6b1 2d3f 10f2 353e 6d4b 623d
00000010: 6737 e6be 1567 80be b255 81be 1961 b6be
00000020: 7855 973e aa93 04bd b576 1b3e f2e5 013d
00000030: bbec a13e ae71 08be bb83 19be fac7 11be
00000040: 6a6e cd3d 9a48 9e3e 190e c63e 9e3f e3bc
00000050: 19db 05bf 4ba2 f5bd 9e14 cd3e f8c1 84be
00000060: 021f be3d 47d3 f6be 31b5 253f 2dcd 96be
00000070: 9ddb 80be 5cc4 59bd 2700 513e f84d 903e
00000080: 42bd 96be bbc9 273e 5c1b 193e d973 8cbe
00000090: 9dd1 a33e 3a74 8fbe 9924 80bb 1d9d a73e
000000a0: b444 0bbe d646 1bbe 3204 623e 0f00 9f3e
000000b0: de16 8e3e ab71 e6bd 9ffe 0bbe 0d6c 923e
000000c0: 9054 ab3d c290 8e3e 728d 123e 3237 12be
000000d0: 303b a93e 68e5 1e3e 83f1 8b3e b86b c43d
000000e0: 53d1 bdbe 8215 96be 22a6 48be 3cf3 26be
000000f0: 8f67 51bc bd92 2cbe b5e7 0f3c aaf3 bd3d
00000100: aacc c83d 754b a6be 2f79 213e b130 eb3e
00000110: 6b97 6ebc 6896 013d c5dd 8a3e 633c 34be
00000120: 8738 4f3e 2f6f 103f 14d4 3fbe 91b4 61be
00000130: 1245 e9bb 932b 433e c110 1d3f b3d8 23be
00000140: 8854 983d 279d cb3d 71dc 7cbe 7385 ac3e
00000150: 24c3 2fbc 7cb7 bb3d 4c35 983c 2e8d 9a3d
00000160: c8c0 3b3e 39b9 7f3d b98b 11bf 5bfd 1dbe
00000170: 4dba 43be 70be 9d3e 4e13 193e fad2 d3bd
00000180: d5fc 18be fcea 443e f4da 043e 6cae eebe
00000190: f2e4 173f 1a9c d4bc 0524 87bd 8c98 d33c
000001a0: 206e 82be 5211 cbbe 4e4c 6c3e ea20 4a3c
000001b0: b496 2f3c c989 5cbd f3f5 e9be 54e0 e43e
000001c0: 16a0 533d fa76 7abe cf7b 79bd 7acc 98be
000001d0: 2319 4b3e a5a9 0c3e ff25 a13d 49cc 21be
000001e0: 2db5 22be fbe2 1dbe 297d 433d dd8b ae3e
000001f0: 2888 5cbd c434 c1be 11b5 1fbe 1ba9 943b
00000200: 5e4e 513e c6ba 56be b60a 353d b25c cb3d
00000210: 5be1 993e 74de 4b3d e521 1b3d efbd cebe
00000220: 12b4 cabd 9f2c d63e cd12 56bb ea1b ed3d
00000230: 92aa 8d3e 65c0 703e 78b6 1dbd 2031 5e3d
00000240: 596f 00be a848 a7be bb5c 01bd f342 5a3c
00000250: ce5a 57be ae8a 6b3e c586 e33e 5f0c ab3e
00000260: 4620 953e 8caf 86be 3077 4dbe 0b2d 0b3e
00000270: eb33 a43e bdfc 803d 72cb 91be abd2 fcbc
00000280: ca42 093e 2c2a e3bd 1dfc 593d c5fc d039
00000290: d6d8 703e a63a c5be 816c 82be 7f24 2bbe
000002a0: 0130 9ebd 126d bf3d 61c0 053b a2b1 d0be
000002b0: 852e 213e 7aca 823e 8a41 c1bd e33e 49be
000002c0: 68be 6b3e 2d6d ebbc 07d8 2a3d 44e9 9f3e
000002d0: 8e5f 83be 6119 d1bd 0d35 19be af17 853e
000002e0: 1f2e 133f e11c 713e a7f3 bbbe 4fa9 7cbe
000002f0: 2a60 7e3d 411d e8bd 57a4 513e 4e55 d63e
00000300: ccda cebc f30f bf3d 56c7 f43d 15fe 7a3d
00000310: 2ba5 483e dca2 183e 2099 17be e9a7 a1bd
00000320: 14e7 073e e9cc dc3c f259 80bc fa41 793d
00000330: 35b2 973e eacb 8c3d 04a1 8c3e 77bf 773e
00000340: 841c 863e 8b4a 50be c842 b6bd 94c4 09be
00000350: e428 26be f271 803e 7979 c23d 9031 223e
00000360: 8409 7a3e 39d4 17be 42ca 523e 6148 dabc
00000370: a742 f7bd 6a2a 103d a377 21be da2a c4bd
00000380: 1a7a 9bbe c1b3 04be 382f 1abe 9ba4 a8be
00000390: bb6e e73c 02f5 b4bc f6a9 793c c927 803e
000003a0: 0851 9abd 3df5 55be d30a c63d 4489 673e
000003b0: 2d1c 6dbc 9af2 043d 615f bc3b 3b30 a8bd
000003c0: 0e4e eebd fbd0 a7be 63c1 04bd 7a13 543e
000003d0: 7157 4bbd c468 2e3e c72f 92be 403f 2b3e
000003e0: be58 13be 1b06 ec3d 3377 683e d69b 01be
000003f0: 3505 463e b7e4 ab3d 38ab edbd 6cf6 95be
-0.018567892 0.6784967 0.17768121 0.055247713 -0.44964144 -0.25078645 -0.25260693 -0.35620955
0.29557395 -0.032367386 0.15182002 0.031713434 0.31625924 -0.13324615 -0.14991657 -0.14236441
0.100308254 0.30914766 0.3868263 -0.027740296 -0.5228744 -0.119938456 0.40054792 -0.25929236
0.09283258 -0.48208067 0.647296 -0.29453412 -0.25167552 -0.05316578 0.20410214 0.28184485
-0.29441267 0.16385548 0.14951843 -0.27432135 0.3199586 -0.2801836 -0.003910613 0.32737055
-0.13600427 -0.1516374 0.22071913 0.31054732 0.2775182 -0.11252149 -0.13671349 0.2859806
0.083657384 0.27844816 0.1431177 -0.14278868 0.3305297 0.15517199 0.27332696 0.09590858
-0.37073764 -0.29313284 -0.19594625 -0.16303724 -0.012781038 -0.16852851 0.008783271 0.09274991
0.098046616 -0.32479444 0.15768884 0.45935586 -0.014562468 0.03163758 0.27122322 -0.1760116
0.20236407 0.5641965 -0.18733245 -0.22041537 -0.0071188295 0.19059591 0.6135369 -0.16000633
0.07437998 0.09942084 -0.24693467 0.33695564 -0.0107276775 0.09165856 0.018580101 0.07546459
0.18335259 0.0624325 -0.56853825 -0.15428679 -0.19114037 0.30809355 0.1494877 -0.10342975
-0.14940198 0.19230264 0.12974149 -0.46617448 0.5933372 -0.025953341 -0.06598667 0.025829576
-0.25474644 -0.39661652 0.23075983 0.012336949 0.010717083 -0.05384234 -0.45695457 0.447024
0.05166634 -0.24459448 -0.06090909 -0.29843503 0.19833808 0.13736589 0.07868575 -0.15800585
-0.15889426 -0.15418617 0.047726784 0.34091082 -0.053840786 -0.3773557 -0.15596415 0.0045367605
0.20440051 -0.20969686 0.044199668 0.099297896 0.30054745 0.049772695 0.03787412 -0.40379283
-0.09897627 0.41830918 -0.0032665015 0.1157759 0.27669197 0.23510893 -0.038504094 0.054246068
-0.12542476 -0.3267262 -0.031582575 0.013321626 -0.21030733 0.23002121 0.44438758 0.33407876
0.29126185 -0.26305807 -0.20064998 0.13591401 0.3207086 0.06298206 -0.2847553 -0.030862173
0.13404384 -0.11092028 0.05321895 0.0003986118 0.23520216 -0.38521308 -0.25473407 -0.16713141
-0.07724 0.093469754 0.0020408856 -0.40760523 0.15740402 0.25545102 -0.09436329 -0.19652896
0.23021853 -0.028738583 0.041709926 0.31232655 -0.2565884 -0.10209919 -0.14961644 0.25994632
0.5749225 0.23546173 -0.3670933 -0.24673961 0.062103428 -0.11333705 0.20472847 0.41861957
-0.025250815 0.09329214 0.11952083 0.061277468 0.19594257 0.14905876 -0.14804506 -0.078933544
0.13271743 0.026953178 -0.01566789 0.060853936 0.2962815 0.06874831 0.27466595 0.24194132
0.2619363 -0.20340936 -0.08899456 -0.13453895 -0.16226536 0.25086933 0.09495825 0.15839219
0.24417692 -0.1482705 0.20584968 -0.026645841 -0.1207326 0.0351967 -0.15768294 -0.09578486
-0.30366594 -0.12959196 -0.15057075 -0.32938084 0.028251043 -0.022089485 0.015238276 0.25030354
-0.07534987 -0.20894332 0.09670033 0.22610956 -0.01447205 0.032457925 0.0057486747 -0.08212324
-0.116359815 -0.32776627 -0.03241099 0.20710555 -0.049643937 0.17032152 -0.28552076 0.16723347
-0.14389321 0.11524602 0.22701721 -0.12657103 0.19337924 0.08393233 -0.11604923 -0.29289567

mamba.layers.0.mixer.dt_proj.weight f4 [32, 1]
00000000: 8935 a4be 34e5 7fbe 65fa 41bf d00e 953e
00000010: 9999 433f 6b42 ae3f d015 8e3e 9770 79bf
00000020: 2dff 98be 4f6e 74be 9305 aabe 3d00 babe
00000030: 13ef 5fbf 05f5 2c3f 4108 8d3e 6fcd 3fbe
00000040: 3a4e 48bf e2ff 9f3e a244 413f ac0c 4ebe
00000050: cf84 0e3f 0897 1ebf 9888 8abf eea0 69be
00000060: 0649 cb3e 540f b73f 02d2 1fbf f8fc 37bf
00000070: 648f c8be 3fc9 523f 1ee7 00bf 590e bb3d
-0.32072094 -0.24989778 -0.75772697 0.29112864 0.76406246 1.3614019 0.27751017 -0.97437423
-0.29882184 -0.23870204 -0.33207378 -0.36328307 -0.87474173 0.6756137 0.2754536 -0.1873071
-0.78244364 0.3124991 0.7549535 -0.20122021 0.556714 -0.61949205 -1.0822935 -0.22815296
0.3970415 1.4301553 -0.6242982 -0.71870375 -0.39171898 0.8233833 -0.50352657 0.09133596

mamba.layers.0.mixer.dt_proj.bias f4 [32]
00000000: 48e4 b5c0 8e58 47c0 ddde 4cc0 487a bac0
00000010: 7d7c 74c0 5517 46c0 eaf6 0dc0 b812 afc0
00000020: d60a 6cc0 5af6 80c0 c1ca ccc0 4bc8 82c0
00000030: 662a a5c0 689e 47c0 0fdd 9ec0 e0fa 23c0
00000040: fd1b b7c0 f998 0fc0 e5fb 23c0 6406 acc0
00000050: 94f6 4ac0 b629 a9c0 5950 b7c0 6f66 f2c0
00000060: 4a35 89c0 c31a 12c0 441a c2c0 b73f b2c0
00000070: 4011 b0c0 ade8 7cc0 1133 86c0 1c97 bec0
-5.6841164 -3.11478 -3.2011025 -5.827427 -3.8200982 -3.095174 -2.2181954 -5.471035
-3.6881614 -4.030072 -6.39975 -4.08695 -5.1614256 -3.1190434 -4.9644847 -2.5621872
-5.7221665 -2.2437117 -2.5622494 -5.37578 -3.1713 -5.2863417 -5.728558 -7.575004
-4.287755 -2.2828834 -6.0657063 -5.5702777 -5.5021057 -3.9517014 -4.1937337 -5.955946

mamba.layers.0.mixer.out_proj.weight f4 [4, 32]
00000000: 5e62 edbd 00c6 db3b 83cf b1bd d663 e93d
00000010: 5f24 f2bd 5c27 2b3d a80a babd f26c 24be
00000020: 3ab1 d13d 7ee5 2abe 86f7 fd3d ba68 e03d
00000030: 9876 573d 0ddd 02be c4d7 253d f074 e93c
00000040: e44a 8abd afd3 23be f9ff 043e 8e87 fb3d
00000050: 8043 643c c22e be3d 9952 d9bd 1f5d 203e
00000060: 6aa1 22be 0611 fc3d 3985 043e 2c15 73bd
00000070: d88f ccbc d414 613d e047 8cbc 9c12 29bd
00000080: 2f86 033e be27 91bd e4a3 8c3d bc9b 1c3d
00000090: 4aae b5bd fcc5 4abd 80a3 dabd b887 9a3c
000000a0: a8c2 903d f29d 06be 5500 22be 19d1 343e
000000b0: f368 023e 7518 0b3e ac14 10bd 8101 11be
000000c0: a7a0 2cbe f022 413d 860e b33d 2ef3 26be
000000d0: 501b 3c3d f637 d63d 00d6 993b e817 34bd
000000e0: 0083 48bd 7a75 d23d 5017 fe3c a8c4 d0bd
000000f0: ce05 cd3d 9b2c 07be 98ca 2e3d e22e ab3d
00000100: 0e88 e23d 8842 9abc 684c febc 384d 18be
00000110: 0080 52b9 bc18 3d3d c3b3 143e a4a7 2d3d
00000120: a390 1ebe 5a30 08be 1ed1 cb3d b1ae 06be
00000130: c031 cf3c 6017 4bbc 8c32 733d cef8 07be
00000140: aac5 fc3d ee7d 903d 2da1 103e 38d5 21be
00000150: 35c8 0f3e d626 a4bd 50f6 92bc 73f2 2e3e
00000160: 3867 383d a7e9 163e d0ea 323d e633 bd3d
00000170: 56e8 c73d 284e 853d bfef 1cbe 2280 d6bd
00000180: 1bcf 1e3e 22e2 99bd 0157 94bd d08f ddbc
00000190: b50d 1b3e 3b4e 1f3e f5bd 103e 6d7e 0f3e
000001a0: 6e6c 0fbe e5c6 9cbd 0182 d1bd fe91 cc3d
000001b0: 3d1c 163e 28be ccbc e25d ebbd a441 3b3d
000001c0: 400d 9abc 8ea0 63bd ea71 983d f831 84bc
000001d0: c0bd 19bc 7e43 c03d b4b2 04be 4f05 20be
000001e0: 32a9 a33d 4474 043d 9a4b fc3d 2048 fa3c
000001f0: 147c 02be ed2b 26be 4e16 2ebe 185a 1e3d
-0.11591028 0.006706953 -0.08682158 0.11395995 -0.118233435 0.041785583 -0.09084064 -0.16057184
0.102388814 -0.16689107 0.12400727 0.10957475 0.052603334 -0.12779637 0.040488973 0.028498143
-0.067525655 -0.1599872 0.12988271 0.122817144 0.013932109 0.09286262 -0.106114574 0.15660523
-0.15881887 0.123079345 0.12941445 -0.059346363 -0.024970934 0.054951504 -0.017124116 -0.041277513
0.12844156 -0.07087658 0.06867197 0.038234457 -0.088711336 -0.04950522 -0.106757164 0.018863544
0.07068378 -0.13146189 -0.15820439 0.1765789 0.12735347 0.13583548 -0.035175964 -0.1416073
-0.16858159 0.04715246 0.087430045 -0.16303703 0.045924485 0.104598925 0.0046947002 -0.04396811
-0.048953056 0.10276313 0.031016976 -0.10193759 0.10010873 -0.1320061 0.042673677 0.083585516
0.110611066 -0.018830553 -0.031042293 -0.14873207 -0.00020074844 0.046166167 0.14521699 0.042396203
-0.15484862 -0.13299695 0.09951995 -0.13152577 0.025292277 -0.01239571 0.059374377 -0.13278505
0.12342389 0.07055269 0.14123984 -0.15803993 0.14041217 -0.0801522 -0.017939717 0.17084675
0.045020312 0.14737569 0.043680966 0.092384145 0.097611114 0.06509048 -0.15325831 -0.10473658
0.15508692 -0.075138345 -0.07243157 -0.027046114 0.15141948 0.15557186 0.14134963 0.14013071
-0.14006206 -0.076551236 -0.102298744 0.09988783 0.1465921 -0.024993017 -0.11492516 0.045716897
-0.018805146 -0.05557304 0.074436024 -0.016137108 -0.009383619 0.09387873 -0.12958795 -0.15627025
0.07991256 0.032337442 0.12319107 0.03055197 -0.12742645 -0.16227694 -0.17000696 0.03866014

mamba.layers.0.norm.weight f4 [4]
00000000: bef4 7d3e 03ae 743d 0bfd 283d d34c 263e
0.24800393 0.059736263 0.041256946 0.16240244

fc.weight f4 [1, 32]
00000000: d80a 033b 8d3a 97bc 9808 e53b f90c 2bbb
00000010: 1150 7fbc 3127 f7bb f4de 98bc e7bb e1bd
00000020: c726 dd3b e36a 76ba 662f c1bb cb6e 90bc
00000030: 647f 27bc 91a3 0f3c 3e34 66bc 933f 9dbc
00000040: 1097 98bc 4617 04b9 f2e3 1abc d4c6 32bb
00000050: 2c20 9a3b 639b 133b 7ca2 abb8 ece0 90bc
00000060: 95e2 9bba 7e49 3abb 053e 1ebc 4aec 0ebc
00000070: c71b 9dbb 7503 87ba 3fdd 183c ddb0 863a
0.0019995477 -0.018460536 0.00698955 -0.0026100262 -0.015583054 -0.007542514 -0.018661 -0.11022168
0.0067490074 -0.00094000826 -0.005895543 -0.017630955 -0.010223243 0.008767025 -0.014050541 -0.019195354
-0.01862672 -0.00012597171 -0.00945376 -0.0027279155 0.004703542 0.0022523038 -8.1841805e-05 -0.017685376
-0.0011893088 -0.0028425152 -0.009658341 -0.008723328 -0.004794571 -0.0010300713 0.009330093 0.0010276098
