models/classification/mamba_delV_1.0_trainDim_2_pN_100.0_vN_1.0_nonDim_False.pth (torch, 36947 bytes, 12 tensors)

mamba.layers.0.mixer.A_log f4 [64, 32]
00000000: 57a6 803f b5d5 8140 f4ef ae40 f127 8040
00000010: 4d30 6840 04c2 6240 dddd 0640 6728 6d40
00000020: 9805 6040 967e 8940 fe21 0640 8cb5 4640
00000030: d013 8540 415a c13f 89a9 4a40 e38d 6940
00000040: cb22 8840 3f71 5340 a2a4 9040 c74b 6240
00000050: 1fe6 7540 a4f4 9540 58fb 8740 e2d1 8340
00000060: b228 5f40 2b75 8a40 ef8a 8a40 ca8a 9340
00000070: 5fdd 8440 b414 8040 159f 5440 628b 8640
00000080: 9ccd e93d 1cfd 1b40 f0f6 8d40 617a 1c40
00000090: 2fa5 6e40 b924 c93f ae30 d33f 8a8a e93f
000000a0: 9d46 4e40 35bc 1f40 61fc 1c40 0b21 5340
000000b0: 004e 6840 ac00 0740 c8b6 0640 b46f 7f40
000000c0: d63b 2940 b6c9 1440 78d7 3e40 e713 4340
000000d0: e176 0d40 86b4 3440 2751 2940 4f99 6140
000000e0: 36f9 4740 34c7 2340 3513 3c40 9995 5640
000000f0: c531 7340 b057 6540 01e8 7040 dc24 5e40
00000100: 1bc8 ab40 1328 693e 4bb7 1b40 c090 0a40
00000110: fee1 a93f 0b5e b940 157a b740 6a2f e440
00000120: 2d67 c540 9e9d 7440 a3a4 a540 cae7 d740
00000130: 75b8 d040 377e 9340 330e cf40 1bb3 a440
00000140: 2a5c d640 14ad dd40 052d d340 6856 ca40
00000150: e5db d240 e9f6 c840 4c3f d540 e15b e840
00000160: 6bb0 d940 0b11 e640 a354 e540 54f7 de40
00000170: ae99 e740 b6cb c340 2127 f440 e292 da40
00000180: 753c fb3f 1710 7c40 66b3 a040 b327 4240
00000190: 6181 7340 e3d9 4840 3d71 1240 296a 5840
000001a0: c333 4740 3f67 4a40 b0cf e93f 9101 8b40
000001b0: d2b1 3840 16af cf3f bae0 6940 46a8 7840
000001c0: bdd8 8240 c024 7440 0896 8f40 e04b 7d40
000001d0: 6208 8440 ab64 8740 2f6b 8d40 d484 5940
000001e0: f104 5240 7ae3 7940 e840 8340 81ff 9140
000001f0: 24de 8740 35ed 8b40 fc92 4640 63b8 8c40
00000200: 3d89 fc3e 7d2c 0840 9dd2 5340 c501 0040
00000210: 65a7 2b40 6711 f43f ba71 4840 c21e 1240
00000220: b9cf 2640 2006 2b40 8681 ef3f f1df 2e40
00000230: ce61 3a40 5ed9 0b40 958c 0140 83a8 6c40
00000240: a351 4b40 ae02 2340 360d 7640 805a 2f40
00000250: a38d 6740 79a6 6a40 3bbf 4340 716d 5940
00000260: 2511 1340 196b 8c40 e4e6 3d40 534a 6640
00000270: a13c 9140 d875 9340 8e02 4940 61d0 6740
00000280: c51a 8b3f 99a8 f03f 6469 1740 1472 3b40
00000290: ec04 2040 51ed d53f 8172 f83f 6a30 0a40
000002a0: 1b8d 1940 717b 5b40 4f6c 0c40 abfc 5f40
000002b0: c732 5140 4bea ff3f cca2 3940 e4ca 4740
000002c0: 70c3 6d40 7f86 4740 42c6 4940 baa9 fc3f
000002d0: 6fb8 4a40 065f 4440 f340 4740 f315 7140
000002e0: 4539 5d40 35f3 7b40 f30c 6e40 1db9 7f40
000002f0: cb8e 6d40 9a9a 6940 a166 6340 9d3a 6040
00000300: 1a15 0a40 bcf3 7940 29a4 9c40 1611 7140
00000310: 22f7 5d40 c4df 4340 4e4d ea3f c6c3 8040
00000320: 6740 6240 fe0f 7940 b712 0740 2e82 8740
00000330: f943 8540 dd24 563f 70ae 8a40 9bf7 8140
00000340: 9c6a 7b40 ecf8 5940 fa7d 8440 468e 7b40
00000350: c5d0 7540 cf97 8940 2389 8840 707f 4c40
00000360: 48b5 5740 8534 6340 bf19 8a40 e601 a340
00000370: 8020 9640 be47 8e40 b166 4e40 de1d a940
00000380: eb60 45bf 5ff5 7040 7715 8140 2cae 6f40
00000390: fff7 7740 df26 f43e 071b d93f 23a6 0d40
000003a0: c7b1 e03f 6527 7f40 b2ec 2a40 b32b 2840
000003b0: 5d68 6540 002d f23f 57a9 1440 e590 2640
000003c0: ebb6 0540 c4ba 3140 8e10 1740 1e3c 4040
000003d0: be46 2f40 5476 3740 4273 5640 a247 5e40
000003e0: f6dc 4940 fc37 6c40 4458 4440 c625 5340
000003f0: 5ed3 5c40 9c7b 7640 ef66 2e40 bbda 2a40
1.0050763 4.0573373 5.466791 4.0048757 3.627948 3.5430918 2.1072915 3.705591
3.5003414 4.2967024 2.0958247 3.1048307 4.1586685 1.5105668 3.1665976 3.649285
4.254247 3.303787 4.520097 3.535875 3.8421705 4.6861134 4.2494316 4.1193705
3.4868588 4.3268027 4.3294597 4.610692 4.152023 4.002527 3.3222096 4.2045145
0.1141617 2.4373236 4.4363937 2.4449694 3.728832 1.5714332 1.6499231 1.8245404
3.22306 2.4958622 2.452904 3.2988918 3.6297607 2.109416 2.104906 3.9911928
2.644277 2.3248115 2.9819012 3.0480897 2.2103808 2.8235183 2.6455781 3.5249822
3.1245856 2.5590334 2.9386723 3.3528807 3.7999127 3.583477 3.7641604 3.4709997
5.368177 0.22769193 2.4330623 2.1650848 1.3272092 5.79273 5.7336526 7.130788
6.1688447 3.8221202 5.1763473 6.7470446 6.5225167 4.609157 6.4704833 5.1468635
6.6987505 6.9273777 6.5992455 6.3230476 6.5893426 6.2801404 6.6639767 7.2612157
6.8027854 7.1895804 7.1665816 6.9676914 7.2375097 6.118617 7.6297765 6.83043
1.9627825 3.938482 5.021899 3.033673 3.8047717 3.1382987 2.2881615 3.3814795
3.1125343 3.1625516 1.8266506 4.343941 2.8858533 1.6225307 3.6543412 3.8852706
4.0889573 3.814743 4.4870644 3.957756 4.1260233 4.2310386 4.419334 3.3987322
3.2815516 3.904509 4.101673 4.5624394 4.245867 4.372706 3.1027212 4.397508
0.49323454 2.1277153 3.3097298 2.000108 2.682092 1.9067811 3.1319413 2.2831273
2.6064284 2.6722488 1.8711402 2.7324183 2.9122195 2.185142 2.0242054 3.6977851
3.1768577 2.5470386 3.8445563 2.7398987 3.6180198 3.6664107 3.0585468 3.3973048
2.2979214 4.3880734 2.9672174 3.5982864 4.538651 4.608135 3.140781 3.6220934
1.0867544 1.8801452 2.3658075 2.9288378 2.5003004 1.6713048 1.9409944 2.159205
2.3992374 3.4294093 2.1941106 3.4997966 3.2687242 1.9993376 2.9005613 3.1217585
3.7150536 3.117584 3.1527257 1.9739296 3.167507 3.0682998 3.1133392 3.7669647
3.4566205 3.9367192 3.7195404 3.9956734 3.7118404 3.6500611 3.553139 3.5035775
2.157538 3.9055014 4.895039 3.7666678 3.4682088 3.0605326 1.8304842 4.023898
3.5351808 3.891601 2.1105173 4.234641 4.1645474 0.8365 4.3337936 4.0614753
3.928382 3.405818 4.140378 3.9305587 3.8408673 4.2997813 4.2667403 3.1952782
3.3704395 3.5500805 4.315643 5.0939817 4.6914673 4.4462576 3.2250178 5.284896
-0.7710101 3.7649763 4.03387 3.7450056 3.8745115 0.47685906 1.6961373 2.2132652
1.7554253 3.9867795 2.6706967 2.6276672 3.5844948 1.8919983 2.3228357 2.6025937
2.0892894 2.7770243 2.3603854 3.0036693 2.7386928 2.8665972 3.3507848 3.4731221
3.1541114 3.690917 3.0678873 3.2991805 3.4504008 3.8512945 2.7250326 2.6696002

mamba.layers.0.mixer.D f4 [64]
00000000: e5bb 39c0 9a73 c7bf 6510 c9bf cd5a 1abd
00000010: cabf 19be ebd9 5abf 07e0 36c0 b651 80bf
00000020: fb8c f7bf 1dc7 283e 1084 c5bf fe03 79bf
00000030: 22a0 a4bf f932 1dc0 4a52 80bf 8022 f4be
00000040: 82a8 00c0 8775 12c0 2646 80bf 135f 10c0
00000050: 739e d4bf 0ed4 09c0 7b49 62bf 9d61 cabf
00000060: 04e8 8cbf 009e 543f 2eb1 f4bf 59b2 abbf
00000070: 0858 c1bf a105 ddbf 26f2 4e40 6170 e4bf
00000080: 788d d3bf 2c79 dabe 0de6 18bf 9c00 d5bf
00000090: 1ad2 06c0 6485 f2bf 4c4a 8bbf 6955 acbf
000000a0: 6601 8a3f 3478 f1bf 5701 d8bf 45c6 6bbf
000000b0: 03fb 35bf 388b 023f 56ab 75c0 dc92 c3bf
000000c0: 9656 92bf b826 b6bf 608e f2bf c34b 343f
000000d0: 991e c9bf 3445 04c0 4479 c5bf 4321 0cbf
000000e0: 051d b3bf 552c 28c0 28f0 e33f 92de c7bd
000000f0: 4b01 c1be 824c dbbf 7234 99be 53d2 80bf
-2.9020932 -1.5582154 -1.5708128 -0.03768425 -0.15014568 -0.85488766 -2.8574235 -1.0024936
-1.9339899 0.16482206 -1.5430927 -0.97271717 -1.2861369 -2.4562361 -1.0025113 -0.4768257
-2.010285 -2.2884233 -1.0021408 -2.2558029 -1.6610855 -2.1535678 -0.8839337 -1.5811039
-1.1008306 0.8305359 -1.9116571 -1.3413802 -1.510499 -1.7267343 3.2335296 -1.7846795
-1.6527548 -0.42670572 -0.5972603 -1.6640811 -2.1065736 -1.8946958 -1.0882049 -1.3463565
1.0781677 -1.8864808 -1.6875409 -0.9209941 -0.7108614 0.5099368 -3.8385825 -1.5279193
-1.1432674 -1.4230566 -1.8949699 0.70428103 -1.5712463 -2.0667238 -1.5427632 -0.54738253
-1.3993231 -2.6277058 1.7807665 -0.09759249 -0.376963 -1.7132723 -0.29922825 -1.0064186

mamba.layers.0.mixer.D_SSM f4 [64]
00000000: e5bb 39c0 9a73 c7bf 6510 c9bf cd5a 1abd
00000010: cabf 19be ebd9 5abf 07e0 36c0 b651 80bf
00000020: fb8c f7bf 1dc7 283e 1084 c5bf fe03 79bf
00000030: 22a0 a4bf f932 1dc0 4a52 80bf 8022 f4be
00000040: 82a8 00c0 8775 12c0 2646 80bf 135f 10c0
00000050: 739e d4bf 0ed4 09c0 7b49 62bf 9d61 cabf
00000060: 04e8 8cbf 009e 543f 2eb1 f4bf 59b2 abbf
00000070: 0858 c1bf a105 ddbf 26f2 4e40 6170 e4bf
00000080: 788d d3bf 2c79 dabe 0de6 18bf 9c00 d5bf
00000090: 1ad2 06c0 6485 f2bf 4c4a 8bbf 6955 acbf
000000a0: 6601 8a3f 3478 f1bf 5701 d8bf 45c6 6bbf
000000b0: 03fb 35bf 388b 023f 56ab 75c0 dc92 c3bf
000000c0: 9656 92bf b826 b6bf 608e f2bf c34b 343f
000000d0: 991e c9bf 3445 04c0 4479 c5bf 4321 0cbf
000000e0: 051d b3bf 552c 28c0 28f0 e33f 92de c7bd
000000f0: 4b01 c1be 824c dbbf 7234 99be 53d2 80bf
-2.9020932 -1.5582154 -1.5708128 -0.03768425 -0.15014568 -0.85488766 -2.8574235 -1.0024936
-1.9339899 0.16482206 -1.5430927 -0.97271717 -1.2861369 -2.4562361 -1.0025113 -0.4768257
-2.010285 -2.2884233 -1.0021408 -2.2558029 -1.6610855 -2.1535678 -0.8839337 -1.5811039
-1.1008306 0.8305359 -1.9116571 -1.3413802 -1.510499 -1.7267343 3.2335296 -1.7846795
-1.6527548 -0.42670572 -0.5972603 -1.6640811 -2.1065736 -1.8946958 -1.0882049 -1.3463565
1.0781677 -1.8864808 -1.6875409 -0.9209941 -0.7108614 0.5099368 -3.8385825 -1.5279193
-1.1432674 -1.4230566 -1.8949699 0.70428103 -1.5712463 -2.0667238 -1.5427632 -0.54738253
-1.3993231 -2.6277058 1.7807665 -0.09759249 -0.376963 -1.7132723 -0.29922825 -1.0064186

mamba.layers.0.mixer.in_proj.weight f4 [128, 2]
00000000: a5b6 2b3b c7bf 9dbb 313a 9c37 63d0 57b9
00000010: c907 c2be dbb3 b1be a28b 0e38 d5b5 0e3a
00000020: 4bb5 7bb9 6fe0 59ba e3c8 1e39 93b8 f837
00000030: 16fe 02bb 129d 23bb 871b 68b9 a27a ca3a
00000040: 8f0b c53a 5613 fbb9 69a6 01b9 d4d9 21ba
00000050: da22 d4be 2a9e 4b3f bd68 5838 fe5a 9e39
00000060: 4450 46b9 5163 dfb9 a63d 7db8 a4a5 10bb
00000070: 4b39 4cb8 3b2d 21b8 bbdf 28b8 5722 083a
00000080: dc0d a2ba cf2e b7ba 5f7e 0dbb 40ef 41bb
00000090: 59de b7b8 14d1 4a3a d60b fe3d 8da0 4f3f
000000a0: e884 bb37 5374 883a 03ba 9338 f318 f6b8
000000b0: 547e 1e39 e084 30b9 1c5f 1d38 423f 6db9
000000c0: 70df 5a36 efac bfb9 69c8 d23f 6edc 17bf
000000d0: 324a 8eb9 bef0 5d37 1257 55b9 2cd2 043a
000000e0: 52c9 96b9 6489 5a39 5562 f438 38df 8538
000000f0: 247f 92be 66c5 edbf 1a7a 2c3e 74e9 433f
00000100: 54bd 8f39 701e 1537 b6b6 3839 8bba f4b9
00000110: 198e 38b9 4328 f339 f2c8 b339 aa8e 99b9
00000120: 9ab8 f2b8 8216 103a f1d5 d739 f2cd 363a
00000130: 74b5 a5b9 73ec fb39 1cd8 6e39 a84b 13b9
00000140: 870b 13c0 7cc0 9a3d 4bf8 023a 17d3 d0b9
00000150: 5119 7bb9 e064 b939 cdce dbb5 ba82 0fb9
00000160: 2940 5039 0366 77b9 ecea 3138 3477 2aba
00000170: 1492 ff3e fcad 693f 5652 a038 2196 f3b9
00000180: 91d3 8bba 3651 53b9 33b0 d639 8f51 3f37
00000190: 70ae 74ba 2e26 94b9 8759 99b8 e68c 0eb9
000001a0: 5038 e537 e3cb 49ba a9b6 61b9 8881 1f3a
000001b0: c5f6 c33e edfd f4bf 1b1c 5d39 790e e3b9
000001c0: 72d4 1f39 c00a ed39 ff6b 9537 a5a9 a1ba
000001d0: 54b7 25b9 6a88 25b7 1df0 f939 7968 5539
000001e0: a441 93be 8073 89bf 9c40 4337 a9df 06b9
000001f0: 5482 4d39 e614 f4b9 65bb 643a 89ea 373a
00000200: 788c c4ba a8c7 393b edeb 9c3c 6f2f 51ba
00000210: 227c 95bf 9dfa 13bf f4f1 533e b39e acbc
00000220: 3519 023d 5707 f73d 068d 8d3a 4e57 dfbb
00000230: 8011 673a 1d2e 02bb e721 623d 1816 053d
00000240: 839f f4bb fe55 8c3b cea7 5a3f 6a0d e73e
00000250: ae67 b7b4 8a02 95b4 ecc7 a2bc 6444 23be
00000260: 51a9 c2bd bf70 d9bd eef4 24b2 719f 6630
00000270: f4fa 20bd 1844 903d aaa9 8ebd eb1d 8cbd
00000280: 341f ab3b 0b21 443d e1f5 adbb 9560 66bd
00000290: f409 583e 71e4 a8bd d03d e8b3 6289 7f33
000002a0: d480 8e30 1516 0d32 40ee 70ba 50e4 2e3b
000002b0: 400e 2d3c 76e6 9dbb a4f7 5db4 afff fdb4
000002c0: e31c 3abb 0458 053c a90b 43bf bc47 603f
000002d0: acfa e5bc c583 cebd 1812 ebbb c9dd c73c
000002e0: 8a85 8739 804b a7bc 0f09 72be 11d4 3bbc
000002f0: bafc aabf c11c 8dbf 10de 3037 7fe4 63b8
00000300: 6930 4f3c 6a3d 563c dd11 63bc 314f 2e3d
00000310: d2db 1eb2 c9f0 a3b2 ec16 063c 47d8 d73c
00000320: ac2e adbd 998b 2a3d 15cf b4b6 460d 85b6
00000330: 05a4 34bd 227c 03be 085e a233 a31e 33b3
00000340: 3076 2cbf ec36 cb3f 33b5 dc30 aff4 a02f
00000350: 62df a837 919b 9038 43b1 30be 4c77 073e
00000360: 7e3b 683d 1106 cb3c 5394 4c31 264d b7b1
00000370: cc4f 4038 6b4c 1238 bc34 a1bc 8137 3e3d
00000380: fca0 83bc 685d 90bc 2106 fd38 8b19 94ba
00000390: 1bac 2dbd 0622 1ebc 9b76 563e 779b 263e
000003a0: a955 9bbd bee7 36bd 1447 b4bc a99c d73c
000003b0: c64b 23b9 721e 6139 ff88 ae38 ca96 8838
000003c0: c720 423b 21af 583d 5b4d b2b5 c7f7 a6b4
000003d0: 7829 dcbf ea69 af3d fa0f 8a3c 8de1 e13d
000003e0: f10e bdbe 5ded 8fbf 8ae0 18bb 82e6 84bb
000003f0: 0f5c ad31 d1e9 2232 d5d4 ceb8 f51e 5838
0.0026201394 -0.0048141214 1.8623747e-05 -0.00020581628 -0.37896565 -0.3470753 3.398548e-05 0.0005443965
-0.00024004762 -0.0008311336 0.0001514289 2.9649853e-05 -0.0019987873 -0.0024965447 -0.00022135499 0.0015447924
0.0015033352 -0.00047888857 -0.00012364391 -0.00061741215 -0.4143284 0.79538214 5.159596e-05 0.00030203903
-0.00018912653 -0.0004260787 -6.0377315e-05 -0.0022071386 -4.869075e-05 -3.8427515e-05 -4.0262687e-05 0.00051931053
-0.001236375 -0.0013975742 -0.0021590216 -0.0029592067 -8.7675355e-05 0.00077368435 0.12404601 0.81104356
2.2354026e-05 0.0010410644 7.0441536e-05 -0.00011734841 0.00015115115 -0.00016834168 3.7520294e-05 -0.00022625647
3.261459e-06 -0.00036559204 1.646741 -0.59320724 -0.0002713963 1.3228679e-05 -0.00020345699 0.00050667184
-0.00028760225 0.00020841282 0.000116531424 6.383512e-05 -0.28612626 -1.8575866 0.16843453 0.76528096
0.00027416146 8.888179e-06 0.00017615673 -0.00046678292 -0.00017600543 0.0004637857 0.00034291256 -0.00029288727
-0.00011573844 0.0005496518 0.00041167394 0.0006973437 -0.00031606446 0.0004805062 0.00022777956 -0.00014047197
-2.2975786 0.07556245 0.0004996105 -0.00039830126 -0.00023946656 0.00035361107 -1.6376958e-06 -0.00013686242
0.00019860327 -0.00023593758 4.2418877e-05 -0.0006502748 0.49916136 0.91281104 7.644731e-05 -0.00046460427
-0.001066791 -0.00020152782 0.0004094854 1.14034765e-05 -0.00093338545 -0.00028257206 -7.312284e-05 -0.00013594664
2.732515e-05 -0.0007697923 -0.00021525718 0.00060846703 0.38274208 -1.9139992 0.00021086672 -0.00043307597
0.00015242564 0.00045212172 1.7812474e-05 -0.0012333883 -0.00015803921 -9.866528e-06 0.0004767188 0.00020352182
-0.28761017 -1.0738373 1.1637949e-05 -0.00012862556 0.00019598874 -0.00046554877 0.0008725434 0.00070158445
-0.0014995476 0.0028347764 0.019155467 -0.00079797854 -1.1678507 -0.5780428 0.20697767 -0.021071767
0.03176232 0.12061947 0.0010799475 -0.0068158275 0.00088145584 -0.0019863911 0.055208113 0.032491773
-0.0074653043 0.004282712 0.854123 0.45127422 -3.4161843e-07 -2.775526e-07 -0.01987072 -0.15944058
-0.09504951 -0.10617208 -9.601747e-09 8.390009e-10 -0.039301828 0.07044238 -0.069659546 -0.06841644
0.0052222256 0.047883075 -0.005308852 -0.05624445 0.21097547 -0.08246697 -1.08145855e-07 5.9496763e-08
1.0368475e-09 8.212301e-09 -0.00091907755 0.0026686378 0.0105624795 -0.004818733 -2.067232e-07 -4.7310957e-07
-0.0028398565 0.00813866 -0.76189667 0.8760946 -0.028073631 -0.10083727 -0.007173788 0.024397748
0.000258487 -0.020421743 -0.23636268 -0.011464135 -1.3358376 -1.10244 1.054212e-05 -5.433382e-05
0.012645819 0.013076166 -0.013859239 0.04255599 -9.246792e-09 -1.9085194e-08 0.008184176 0.026348246
-0.084561676 0.041637037 -5.3885256e-06 -3.965254e-06 -0.044101734 -0.12840322 7.560817e-08 -4.170455e-08
-0.6736784 1.5876136 1.6058607e-09 2.9277689e-10 2.0131181e-05 6.8954316e-05 -0.1725512 0.13229102
0.05669736 0.024783166 2.977022e-09 -5.3347717e-09 4.5850684e-05 3.4880282e-05 -0.019678466 0.04643965
-0.016067974 -0.017622665 0.00012065122 -0.0011299116 -0.04240046 -0.0096516665 0.20943682 0.16270243
-0.07584698 -0.0446546 -0.022006549 0.026319819 -0.00015573119 0.00021469014 8.322484e-05 6.513072e-05
0.0029621588 0.05290139 -1.3284547e-06 -3.110019e-07 -1.7200155 0.085651234 0.016853321 0.110293485
-0.36925462 -1.1244313 -0.0023327195 -0.004055799 5.0454285e-09 9.482805e-09 -9.8624885e-05 5.1527244e-05

mamba.layers.0.mixer.conv1d.weight f4 [64, 1, 16]
00000000: 8ca1 243e eeb9 edbd 5c13 ad3d 0517 023c
00000010: 0092 4abd fbf5 333e 4480 2d3e 09a0 9dbe
00000020: 7ca0 4cbd 8056 49be a3f7 923d 0bb3 5dbd
00000030: b3e3 c93d 685b 353e 7e76 febd b35e c7bd
00000040: bf4e 77be 73d2 663e 2642 c03d f89b e0bd
00000050: d7a5 703e 04b0 6bbd 0ded 8cbd 59b0 5f3d
00000060: 853e 8b3d 6a2d 2b3e 1326 693d 1be2 57be
00000070: 3240 df3d af4c 10be 9c78 16be 427e 1abd
00000080: f0c3 8b3e c3e7 d6bc 1131 0f3d 33a8 e0bd
00000090: f6ee a03e e2c4 ceba 6afa 283e fd9e 1b3e
000000a0: 4ff2 d0bd 1743 a33e 417a 8dbd 1315 403c
000000b0: b199 8b3e 92e3 fe3d 346a ab3e e7f0 aa3e
000000c0: 9604 c9bd bab5 d03d 1f6f 353e d7ce 8b3d
000000d0: 37fb b13c c3d4 93bd bea0 413e dbd9 0d3e
000000e0: eaf8 e3bc fe26 b1bd 666a 4bbe bd78 163e
000000f0: 7f9a 8fbe 79d8 b9bd 37b8 b4bd 543a b73d
00000100: fb9a 43be 2a36 093e 8bd9 86be e66b 283e
00000110: 1d1c b13d 2f1c c83d 9d76 5bbd 0c54 6d3d
00000120: a66d 043e 10b2 4e3c 284f 4abe d35d 743d
00000130: e648 343e 06b9 20be 7cb3 b0bd 6d2f 1c3d
00000140: 42a8 97bc 4c11 4dbe 6424 663e 8f90 9e3c
00000150: a645 a73d 688e d13d ddd5 bcbb 845c dabd
00000160: 114f b2bd 365c 323c 001d b5bd 4685 eabd
00000170: 6843 93bd 0172 70bd da0f 613e 4d71 ba3d
00000180: 49ca 76be 2ba0 5d3e c2e3 df3d a48b d0bd
00000190: d68c c5bd b939 76bd a30f 1a3d 95a3 003e
000001a0: f723 1ebc 3113 5b3d c6ae babd ff4c debc
000001b0: ba78 1b3e 4ace cf3d fdc6 f0bc ed3e 11be
000001c0: 008e 0fbd 5f57 86bc 297c d1bd 476e 463e
000001d0: 3cf3 3c3e 84de 06be bc7e 50bd 0f8b 0d3c
000001e0: eb9b 02be 38a3 3fbd f6c4 51bd 68ae 08be
000001f0: d016 913e 869a 2bbe b31b 993e 667f b5bd
00000200: e28f 79bd 1c75 cfbd 1de9 d3bd 9911 5d3e
00000210: a924 c43d 4905 cf3d d43d 9abc 90d9 b5bd
00000220: 6adc 753c af71 6ebe ea7b 3f3e 421b e13d
00000230: 6e68 2a3e 329b 48be 9a5a c63d b571 48be
00000240: fe29 6ebe 7847 c33d f6a4 3b3c e184 ec3d
00000250: 7e35 773e 6254 6abe 1379 7cbd 31b5 80bd
00000260: a366 dd3d da79 11bd e3ac 323e 4d91 ea3d
00000270: 0d57 723d 405e 6ebd 592a b6bd 0263 23be
00000280: 1c45 00bf 890f 15bf d0cc babe 02f4 c3be
00000290: d311 15bf d734 1dbf 149f aebe 6a07 a4be
000002a0: f849 cdbe f255 09be 96b3 cebe 45d6 efbe
000002b0: f17b c1be 2a3d b2be 6999 dabe 08f2 a1be
000002c0: f56a ba3d 1a6a 173e fd9a 5cbe a2f1 2a3e
000002d0: a768 983c fa5a 2ebe 0fac 03bd e775 133e
000002e0: 6eff 88be ab4b 1fbe 7322 253e 55a5 31bb
000002f0: be20 81be 9280 153e e9cb 183d c2fc 373e
00000300: 18fb d63d 954f b73d 9f50 67be b6dd 5e3e
00000310: 6f69 0ebe adee 70be 48ce 4e3e 7303 8ebd
00000320: 5678 eabd 723b 423e fca3 373e d817 22be
00000330: 3155 84bd 72e3 89bc b260 19bd 6b00 a03d
00000340: 9eb2 263d 8eac 1e3e 4254 263d 17bc 02bd
00000350: 2539 0a3e b4d2 1f3c b288 bcbd 4283 0b3d
00000360: f03f 4fbe c505 383e 89b6 18be f0a9 29be
00000370: 631b c7bc 585a 22be 625c b43d b941 0f3e
00000380: d955 4e3d 18be 393c 6a5f d6bc 4d86 5abe
00000390: 1fb1 013c 6997 0fbd e405 343a 6572 863e
000003a0: 5cf5 843e b0f8 26be df26 dbbd b662 e93c
000003b0: 8011 3b3d 407c 53be 52dc 30bd e376 023e
000003c0: b1f4 293d d7f3 55be ab5d acbd 6906 12be
000003d0: f771 fc3d f8c8 6a3e 112f dbbd 38e7 d03d
000003e0: 8f16 3b3e d040 04be 0058 5fbe 7af8 753e
000003f0: 98e0 5c3d 82f3 06be 991d 1abd e178 be3d
0.1607725 -0.11607729 0.08450958 0.007940059 -0.049455643 0.17574303 0.1694346 -0.3078616
-0.049957737 -0.19661903 0.07176139 -0.054125827 0.09857883 0.1771065 -0.12424944 -0.09734859
-0.24151133 0.22541218 0.09387617 -0.10967249 0.23500763 -0.05754091 -0.06881151 0.054611538
0.06799034 0.16716543 0.056921076 -0.21082346 0.10900916 -0.14091752 -0.14694446 -0.037718065
0.27297926 -0.02623356 0.034958903 -0.109695815 0.31432313 -0.0015775228 0.16501775 0.15197368
-0.10202467 0.31887123 -0.06908084 0.0117237745 0.27265695 0.12445749 0.33479464 0.3338692
-0.09815328 0.101909116 0.1771817 0.06826561 0.021726234 -0.072183155 0.18908975 0.13852637
-0.027828652 -0.08650015 -0.19864807 0.14694495 -0.2804756 -0.09074492 -0.08824199 0.08946672
-0.19102089 0.13399568 -0.26337847 0.1644741 0.0864794 0.097710006 -0.053579915 0.05794148
0.12932453 0.012615696 -0.19756758 0.05965979 0.17605934 -0.15695581 -0.08627984 0.038131166
-0.018512849 -0.2002613 0.2247482 0.01935604 0.08167581 0.1023224 -0.005762799 -0.10662177
-0.08706487 0.010886243 -0.08843422 -0.11451201 -0.07190591 -0.058702473 0.21978703 0.09103642
-0.24100603 0.2164313 0.10932113 -0.10182884 -0.09646003 -0.060113642 0.03761257 0.12562402
-0.009652129 0.0534851 -0.09115367 -0.027136324 0.15182772 0.101467684 -0.02939176 -0.1418416
-0.03504753 -0.016399084 -0.1022876 0.19378005 0.18452162 -0.1317082 -0.050902113 0.008639111
-0.1275479 -0.046786517 -0.051213227 -0.1334778 0.28337717 -0.16758165 0.29903945 -0.0886219
-0.060928233 -0.10129759 -0.10347197 0.21588744 0.09577305 0.1010843 -0.01882831 -0.088793874
0.015006164 -0.23285554 0.18699613 0.10991527 0.166414 -0.19590452 0.096852496 -0.19574626
-0.23258206 0.09535116 0.011452904 0.11548782 0.241415 -0.22883752 -0.061638903 -0.062845595
0.10810592 -0.035516597 0.17448764 0.11453495 0.05916505 -0.058195353 -0.08894796 -0.15955737
-0.5010545 -0.5822683 -0.36484385 -0.382721 -0.5823032 -0.6140875 -0.34105742 -0.32036906
-0.40095496 -0.13411692 -0.40371388 -0.46843162 -0.37789872 -0.3481229 -0.42695168 -0.31629968
0.09102432 0.14786568 -0.21543498 0.16693738 0.01860459 -0.17026892 -0.03214651 0.14400445
-0.26757377 -0.15556209 0.16126423 -0.0027106602 -0.25220293 0.14599827 0.03730384 0.17967513
0.10497111 0.08950726 -0.22589348 0.21764264 -0.13907407 -0.23528548 0.20195878 -0.06934252
-0.114487335 0.18967989 0.17933649 -0.15829408 -0.064615615 -0.016832087 -0.03744573 0.0781258
0.040697686 0.15495512 0.0406077 -0.031917658 0.13498361 0.009754825 -0.0920576 0.034060724
-0.20239234 0.17970951 -0.14913382 -0.16568732 -0.024305051 -0.15854776 0.08806683 0.13989915
0.05037484 0.011336826 -0.026168544 -0.21340294 0.007915764 -0.035056505 0.0006867333 0.2625915
0.25968444 -0.16305804 -0.107007734 0.028489452 0.045670986 -0.20652866 -0.043178864 0.12740664
0.04149312 -0.20893799 -0.08416303 -0.14260258 0.123264246 0.22928226 -0.107023366 0.102003515
0.18270324 -0.12915349 -0.21810913 0.24020568 0.053925127 -0.13178828 -0.037625883 0.093003996

mamba.layers.0.mixer.conv1d.bias f4 [64]
00000000: 7d9f a3bf 3d0f a2b9 d128 b4bf e558 ba3a
00000010: 1a66 233b be62 90b9 a09d a3bf a262 abb7
00000020: 2ca1 a3bf c29f 76bf 7a75 3fbe 33a3 0a3a
00000030: 46da 613a 54a3 a3bf 56e2 17bb 7b76 ecbc
00000040: 93a3 a3bf 54a3 a3bf 8427 13be 6bc8 61bf
00000050: 77cd 65be 00e3 7c3d c56d 0c3b 983e 50bd
00000060: 4d97 39b9 1956 653f 5c1d d239 2e4a 3c3d
00000070: fad1 e53c 850d 6c39 400a 7fbf 6149 81bf
00000080: d4c4 1cbb e6b6 9ebc 297f 04bd 0e53 8b3c
00000090: 51f3 a93a 64ab a3bf b05e 543b 9aee 14bd
000000a0: 9c7d c9bd 2aac a3bf 2ced fcbc 3c32 2038
000000b0: 802e 69ba 36a8 a3bf 78ee aebf 8652 76bd
000000c0: 5b7a 1d3a 2da3 a3bf bf7f 2aba c754 d43c
000000d0: 15b0 86bb dd61 9ab9 8605 cf3f 1596 853c
000000e0: a69b 80bc 991f c3bf 8ba3 a3bf b249 013c
000000f0: 8ff2 993e a7a4 a3bf ef2f a8bd 85a3 01bb
-1.2783047 -0.000309104 -1.4074956 0.0014217166 0.0024932683 -0.0002753939 -1.2782478 -2.0430718e-05
-1.2783561 -0.9633752 -0.18697158 0.0005288601 0.0008615594 -1.2784219 -0.0023175678 -0.02886509
-1.2784294 -1.2784219 -0.14370543 -0.8819644 -0.2244166 0.06173992 0.0021427732 -0.050840944
-0.00017699339 0.895845 0.00040076196 0.04596918 0.028054226 0.0002251175 -0.99625015 -1.0100518
-0.002392103 -0.019374322 -0.032347832 0.017007377 0.0012966191 -1.2786679 0.003240507 -0.03636036
-0.09838411 -1.2786915 -0.030874811 3.8193757e-05 -0.00088951737 -1.2785709 -1.3666525 -0.060137294
0.0006007307 -1.2784172 -0.0006504021 0.025919331 -0.004110346 -0.00029446083 1.6173561 0.016306916
-0.015699219 -1.5244018 -1.2784284 0.0078911055 0.3006787 -1.2784623 -0.082122676 -0.0019781303

mamba.layers.0.mixer.x_proj.weight f4 [65, 64]
00000000: 37cc de3f de06 693b c534 493f a421 14bc
00000010: c504 40bc f6c9 de3b c174 f43f d054 d13a
00000020: 68d3 e23f 39e9 913f 7ba1 bd3e e522 ccba
00000030: bcb9 0fbc 1c6a f83f e59a dc3b f86e 003d
00000040: a9e2 fd3f a4f2 de3f f6d7 613d 8f80 b73e
00000050: 39de 083e 03e8 1bbd 98aa 60bc 331c 043d
00000060: 2179 48bb 036a 263f 6a87 ccbb 9089 11bd
00000070: 4f68 b9bc 2302 a93b a294 3c3f 645c d93e
00000080: 882b f43b 6e2f c73c 25da bf3c 89f1 cabc
00000090: 7a09 00bc 09a0 e13f 4f45 d1bb a0fe eb3c
000000a0: 6517 c83f 7abb fb3f ec9f df3c b2e2 9b3a
000000b0: bd71 ed3b 4305 ac3f 48e0 173f 8320 0f3d
000000c0: 6c3a 13bc 1125 f23f cf58 3c3b 3196 0dbd
000000d0: 4b3f 493c 429c 983b 78da 083f 1a6e 97bc
000000e0: c47f ad3c 0e9a e93f f50f 913f 3762 67bc
000000f0: b3b1 853e 8560 c03f 27da 793d 81ac 183c
00000100: f402 753e 08be 18bf 0fd1 973d ce3a 593d
00000110: 9ed8 923e 4f93 133f 8e95 b2be 0d27 9a3e
00000120: 17a7 e43c 5159 893d 846d 24be ecc7 b83e
00000130: e9f0 c5bb ab86 c7bd b005 9bbe 3bd8 31bf
00000140: f58f 4a3d 0d8c 8f3c 562c 023e a4e7 85bb
00000150: 663c c63e 79b4 37bf 0b95 863e d7e0 e7be
00000160: 5ae3 8bbf 333a 893d 24d0 413f edcb 073f
00000170: 87da 9d3f 6f48 0e3e 384c 633d 49e5 11bf
00000180: a299 1a3f 86d5 603f 03d5 6abf 7277 433f
00000190: 4710 d0be 458e 7abe 6f47 6cbe b1b8 8b3d
000001a0: e735 633d 5eb9 52be 6c4f a83e df0c 9abe
000001b0: 4d2b 283f fe83 89be 7ef9 523e 568d f6be
000001c0: 0a28 d8bd 3d48 a53e 6e6b 043f 24de 9ebe
000001d0: 3694 11bf f1ee fb3e 6b57 d0bd 2546 163e
000001e0: 3935 043e 4b75 943e 8b4d 10be c289 71bf
000001f0: 3488 eebc 103c 23be e8a5 0e3f dc87 cfbe
00000200: 36d0 b03c a7fe 343c 5381 0a3f 8458 353c
00000210: fb5f 533b 352a 043c 2483 b73e c4ae 31bb
00000220: 23e6 1c3e 2580 343e 87d2 ab3e 5f0f 2ebb
00000230: 400c 83bc 8fbf d03e ddf1 9f3c f78a e43c
00000240: 1986 f5bd 82d9 d5bd 2991 e23d 0233 7b3f
00000250: 3222 2e3e a61e 15bc 8814 79bc 42f7 ad3c
00000260: 0d83 93bb f3b8 85c0 35a6 4639 8f1d 0fbd
00000270: 94df 00bd d1b3 13bc 314f 143f 37ef bc3e
00000280: 5e05 6e3c 617e 743c 4667 b33c 81eb 50ba
00000290: a2aa ca3b 51a7 6e3e 6a01 f7bb 7fcb 113c
000002a0: a669 afbe 4c49 3c3d aa4a bd3c d7a8 dfbb
000002b0: 416e 8b3b af1f a43e 52b2 bc3f eec4 a13c
000002c0: 34a5 5fbc ae07 b1bd f40e 103c 3334 4d3d
000002d0: 5db3 573b c68f 5fb9 bae2 913e 9b4b b1ba
000002e0: b0f7 edbb 207e 893d 61bd 973e b58f cabc
000002f0: a7ca 723d f6d5 c13e 0f24 ab3c e7c0 263c
00000300: e257 8bbf 76cc e0ba 726c f4bf 645a c03b
00000310: 87dc 08bb 8695 d63c d736 8bbf b68c 313a
00000320: 5df6 9cbf b738 28bf c3af efbe e86b 233b
00000330: e3b5 bebc 2bb0 5dbf bf88 c13c 747c 3a3d
00000340: a502 c8bf 965b aebf 33b4 563d bdcd 27bf
00000350: 71b1 123d af4d beba ee6b 75bc 67b5 a83c
00000360: ca11 2dbc 93d1 183f 0f98 f03a a2d1 49bd
00000370: 4a75 0cbd 4357 debb c2c1 e7bf 8451 a4be
00000380: 67c1 6a3c 553b a43c a106 2b3c 97be cebb
00000390: 6872 183c 642f 90bf fd4f 8d3b 6992 fe3b
000003a0: 2f9d 6840 f193 8fbf 38fc a13c 6890 b7bb
000003b0: e17b fd3b 22e3 98bf 0095 1ac0 61f8 843c
000003c0: a1d2 eabc 1e05 b7bf 015b 3f3c c4be 60bd
000003d0: cb36 b23a 4006 9739 1caf 91bf 7695 e8bb
000003e0: cd43 5bbc 3089 8abf ef72 95bf ca80 b3bc
000003f0: 1302 37bf f0bc a5bf c668 e13c 9c0c cd3c
1.7406071 0.0035557072 0.78596145 -0.009041224 -0.011719887 0.006798978 1.909813 0.0015970711
1.7720766 1.1399299 0.37037262 -0.0015574364 -0.00877231 1.9407382 0.006732332 0.031355828
1.9834796 1.7417798 0.055137597 0.3584027 0.13366021 -0.03806306 -0.013712548 0.032253455
-0.0030589777 0.6500551 -0.0062417286 -0.03553158 -0.022632746 0.0051577254 0.73664296 0.424533
0.0074514784 0.024314608 0.02341945 -0.024773376 -0.007814759 1.7626964 -0.006386436 0.028807938
1.563214 1.9666588 0.027297936 0.0011893122 0.0072462247 1.3439106 0.593266 0.034943115
-0.008986097 1.8917562 0.0028739457 -0.03456706 0.012283157 0.0046572993 0.53458357 -0.018485118
0.021179087 1.8250139 1.1332995 -0.014122537 0.26112136 1.5029455 0.060999062 0.009318472
0.23926908 -0.59664965 0.07412922 0.053034596 0.2868089 0.5764665 -0.34879726 0.30107918
0.027911706 0.06706489 -0.16057402 0.36090028 -0.0060406816 -0.09742483 -0.30277777 -0.69470567
0.049453694 0.017522836 0.12712225 -0.0040864516 0.38717955 -0.71759754 0.26285586 -0.45288727
-1.0928757 0.06700554 0.7570822 0.5304554 1.2332314 0.13894819 0.05549261 -0.56990486
0.60390675 0.8782581 -0.9173128 0.76354134 -0.4063742 -0.24468334 -0.23074125 0.068223365
0.055471327 -0.20578524 0.32873094 -0.30087945 0.6569107 -0.26858515 0.20602986 -0.48154706
-0.10554512 0.32281676 0.51726425 -0.31028855 -0.56866777 0.49205735 -0.10172924 0.14675196
0.12910928 0.28995737 -0.1409208 -0.94350827 -0.029117681 -0.15940881 0.557219 -0.4053334
0.021583658 0.011047042 0.54103583 0.011068467 0.0032253254 0.008066704 0.3584224 -0.0027112225
0.15322165 0.17627008 0.33559057 -0.0026559455 -0.015997052 0.40771148 0.01952451 0.027898295
-0.11988468 -0.10441877 0.11062843 0.98124707 0.17005232 -0.009101545 -0.015202649 0.021236066
-0.0045017065 -4.178827 0.00018944668 -0.0349403 -0.03146322 -0.00901504 0.57933336 0.36901256
0.014527647 0.014922709 0.02189983 -0.0007969663 0.006184892 0.23306014 -0.0075380104 0.008898615
-0.3426029 0.04596834 0.023106892 -0.006825547 0.0042550866 0.32055423 1.4741919 0.019747224
-0.013650227 -0.08644043 0.008792628 0.05009861 0.0032913305 -0.00021320497 0.2849329 -0.001352656
-0.0072621927 0.067135096 0.29636672 -0.024726728 0.059275296 0.37858552 0.020891218 0.010177827
-1.0886195 -0.0017150778 -1.9095595 0.0058701504 -0.0020883398 0.026194345 -1.0876111 0.0006772982
-1.2262684 -0.6571154 -0.46813783 0.0024936143 -0.02328009 -0.86596936 0.023624776 0.045528844
-1.5625807 -1.36217 0.052417945 -0.65548307 0.035813753 -0.0014519001 -0.014979346 0.020594312
-0.010563323 0.59694785 0.0018355864 -0.049272187 -0.034291543 -0.0067853048 -1.8106005 -0.3209344
0.014328337 0.020047823 0.010438592 -0.006309341 0.00930462 -1.1264462 0.004312514 0.0077689183
3.6345937 -1.1217023 0.019773588 -0.0056019314 0.007735715 -1.1944315 -2.4153442 0.016231718
-0.028664889 -1.4298437 0.011679412 -0.05486943 0.0013596652 0.0002880562 -1.1381564 -0.0070978953
-0.013382864 -1.0823116 -1.16757 -0.021911997 -0.7148754 -1.2948284 0.02751578 0.025030427

mamba.layers.0.mixer.dt_proj.weight f4 [64, 1]
00000000: 21b3 9a3f d1b2 5fbf 10e9 ba3f a679 85bf
00000010: d69a cdbe 4866 543f 1448 4b3f 5cc2 b3bf
00000020: d6a0 e8be 213d f93f 6cd5 883f 1586 9dbe
00000030: 860f a13e 39a1 843d ba82 e23e 1665 043f
00000040: c3c1 523f 8964 853f c038 c93e 16de 063f
00000050: 0805 b73e d3cc 293d 0efb b13e 43a6 093e
00000060: c89b 7bbd 19a3 25be 564b 73be aac8 f93e
00000070: c1dc cc3f 5110 013e c63a b5bd accb 963c
00000080: 84c0 863f 6857 04bf 5e17 d83f 9ef5 1940
00000090: 0786 833f 1f77 1b3f 0bed 10bf c5dc 54be
000000a0: 420a 73be 6ced 7d3f 8cbb 09bf 1a54 ea3f
000000b0: 611d 953e 17af a5be 9230 5f3f 8576 053e
000000c0: f4db 69be 8082 693f 00b9 923e 7cb6 c63e
000000d0: b861 a7be ce1a dfbe 8680 483e 61a6 bebf
000000e0: 087c 9a3e 9506 f03e 6507 02be e90b 31bf
000000f0: 8c89 e53e 0744 d7be 921d 9e3e f99d 4d3e
1.2085916 -0.8738223 1.4602375 -1.0427749 -0.40157193 0.8296857 0.7940686 -1.4043689
-0.45435208 1.947178 1.0690131 -0.3076636 0.31457156 0.06476063 0.4424036 0.51716745
0.82326907 1.0421306 0.3930111 0.52682626 0.35746026 0.0414551 0.34761852 0.1344233
-0.06142786 -0.16175498 -0.23759207 0.48785907 1.6004869 0.1260388 -0.08849101 0.018407665
1.0527501 -0.5169587 1.6882131 2.4056163 1.0275277 0.6072864 -0.566117 -0.20787342
-0.23734382 0.991904 -0.538018 1.8306916 0.29123977 -0.32360145 0.8718349 0.13033493
-0.22837812 0.9121475 0.2865677 0.388111 -0.3269174 -0.43575138 0.19580278 -1.4894525
0.30172753 0.46880022 -0.12698133 -0.691588 0.44831502 -0.42044088 0.30881935 0.20079793

mamba.layers.0.mixer.dt_proj.bias f4 [64]
00000000: 4d01 05c1 6661 cfc0 95c9 09c1 806e c9c0
00000010: a954 12c1 38b5 5bc0 fe79 e6c0 9f27 f6c0
00000020: 5f39 02c1 0aaa ebc0 8158 16c1 692a 14c1
00000030: 71d3 bcc0 bcc0 e2c0 ef0f abc0 1e7e b9c0
00000040: fe09 e2c0 dfd3 ebc0 4eda c5c0 c14f 07c1
00000050: 7ffe a2c0 f2a1 abc0 4599 dac0 1897 e0c0
00000060: 4d93 13c1 6d9d eac0 05d7 cac0 2967 a7c0
00000070: 5bcb 0dc1 783c ddc0 7054 ffc0 ee29 3ac1
00000080: 85eb ddc0 6653 c5c0 1d34 e0c0 cccf ebc0
00000090: 7897 d7c0 18ac 1cc1 d3e5 abc0 292c bfc0
000000a0: 1dc2 d6c0 26d6 edc0 cbc9 abc0 b12f efc0
000000b0: 6625 90c0 bd31 2dc1 0c95 d0c0 b660 d6c0
000000c0: a338 b3c0 47e2 1bc1 a520 bbc0 60d9 11c1
000000d0: a7bd 1ec1 c0a5 bec0 30c1 2bc1 0998 dec0
000000e0: 7381 96c0 2760 f4c0 9c23 dcc0 ca0f b3c0
000000f0: 4e7c bcc0 6b37 e6c0 5e69 95c0 68da 96c0
-8.312818 -6.4806395 -8.611714 -6.294739 -9.145669 -3.4329357 -7.2023916 -7.6923366
-8.139007 -7.3645067 -9.396607 -9.260354 -5.9008107 -7.086027 -5.345695 -5.796645
-7.0637197 -7.369613 -6.1828985 -8.456971 -5.0935664 -5.3635187 -6.8312097 -7.018444
-9.223462 -7.331717 -6.3387475 -5.231343 -8.862147 -6.9136314 -7.9790573 -11.635237
-6.935 -6.1664305 -7.0063615 -7.369116 -6.73724 -9.792015 -5.3718047 -5.9741406
-6.7111955 -7.432391 -5.368383 -7.4745717 -4.5045652 -10.824643 -6.518194 -6.6993055
-5.6006637 -9.7427435 -5.847735 -9.11557 -9.921302 -5.957733 -10.734665 -6.956059
-4.703302 -7.6367373 -6.879347 -5.5956774 -5.890174 -7.194265 -4.669112 -4.714161

mamba.layers.0.mixer.out_proj.weight f4 [2, 64]
00000000: f2ae 933d c887 9f3d 62d7 a83d 681e a33c
00000010: b09f 2cbd d260 fcbd 549f 273d 4483 94bd
00000020: 20e8 563c d001 98bd 98fb 213d 94f5 4f3d
00000030: 402f b3bb 5059 ce3d 0885 78bd 44ea a73d
00000040: 1275 ec3d 7c1a c23d f804 b6bd 0ab4 d73d
00000050: ecf5 35bd 004d e73c 9ca6 e5bd c033 ccbc
00000060: 42e4 bcbd 58c0 463d dc6c 7b3d 8c35 9cbd
00000070: 7220 e1bd 20bf d93c 184a ddbd 1c80 9a3d
00000080: 583f a6bd 448e 503d e82b d63d 3c3c 4a3d
00000090: c033 ffbc 44ed 463d b473 aa3d 5c7a 0e3d
000000a0: 7eee d53d f0c2 5a3c 4006 513c 8caa f9bd
000000b0: 0889 da3c 48ba aa3d 0021 a7bd a4b0 3bbd
000000c0: c0b2 2c3b 08e2 bfbd 1041 883c 4461 9a3d
000000d0: e448 abbd 0c69 42bd 006f e9bd f864 af3c
000000e0: 6cf3 373d 20de cdbd 345c 7ebd 3c58 f73d
000000f0: 1020 bc3d 7cc8 af3d 50fd b43c 36e1 c83d
00000100: 50ee 7c3d 70bb f2bd 101b debd ee48 e7bd
00000110: 9036 a03c 7034 803d 009a b1ba f06c e83d
00000120: d24d ef3d 928c aabd d47c b03d 78c7 8d3c
00000130: 80d4 013d 006c 553c f4c8 af3d 6a06 fa3d
00000140: e850 c7bd 706d c23c 8811 cebd 40f7 6fbd
00000150: aa5b f1bd 6a93 8abd 769e 893d d251 b1bd
00000160: 5a1b cc3d 4051 af3c 04d8 a5bd ba5e 973d
00000170: 3687 d0bd 9879 70bd c0a4 d9bc 9efc dbbd
00000180: f876 b83c b839 d13d 0cf0 363d e03a 043c
00000190: 00b3 ea3d 0832 e63c 6c41 b1bd 5078 303d
000001a0: 8266 ec3d 40e5 1abd 7873 903d a4e7 923d
000001b0: 5882 1d3d 5ceb cf3d 6265 fb3d 32e4 e7bd
000001c0: b031 75bc bca2 803d 20ef a03d 908d d7bd
000001d0: 20d1 eb3c 00fa 0fbb e0d0 adbc b6be b6bd
000001e0: 1ab7 d1bd a809 bcbc 9e06 d3bd 084c 783d
000001f0: 4457 483d 406b bf3d 2c96 de3d 8038 a23c
0.072111025 0.0778957 0.08244206 0.01991196 -0.042144477 -0.123231545 0.04092343 -0.072515994
0.013116866 -0.07422221 0.03954658 0.05077131 -0.005468279 0.10075629 -0.060673743 0.081989795
0.11545767 0.09477708 -0.088876665 0.105323866 -0.044423983 0.028234959 -0.11213419 -0.02492702
-0.09223224 0.048523277 0.061383113 -0.07627401 -0.109925166 0.026580393 -0.10805148 0.07543966
-0.081175506 0.050916925 0.10457593 0.04937385 -0.031152606 0.048566118 0.0832285 0.03478466
0.104458794 0.013352141 0.012757838 -0.12190732 0.02667667 0.083363116 -0.08160591 -0.045822755
0.002635166 -0.09369284 0.016632587 0.07538083 -0.08363512 -0.04746346 -0.11398125 0.02141045
0.04490988 -0.100521326 -0.06209965 0.12077376 0.09185803 0.08583161 0.022093445 0.098085806
0.06175071 -0.11852157 -0.108450055 -0.11293207 0.019557267 0.06260002 -0.0013549924 0.11348903
0.11684765 -0.08327593 0.08617559 0.017307028 0.031696796 0.0130262375 0.08583251 0.12208255
-0.097322285 0.023733824 -0.100619376 -0.058585405 -0.11785062 -0.06766398 0.06719677 -0.08658184
0.099661544 0.021401048 -0.08097842 0.073911145 -0.101820394 -0.05870971 -0.026567817 -0.10741542
0.022517666 0.10216087 0.04466252 0.0080706775 0.11459923 0.028100029 -0.08655056 0.04308349
0.11542989 -0.037816286 0.07053274 0.07173088 0.038454384 0.10152313 0.122751966 -0.11322822
-0.01496546 0.06281039 0.078581095 -0.10525048 0.028786242 -0.002196908 -0.021217763 -0.08923094
-0.10240002 -0.022953823 -0.103039965 0.060619384 0.048911348 0.09346628 0.10868487 0.019802332

mamba.layers.0.norm.weight f4 [2]
00000000: 136e a63e a7f8 a03e
0.32505855 0.31439707

fc.weight f4 [1, 64]
00000000: efd9 973a 4d1d 23bc f262 443f ba3e 133e
00000010: 8c3e 853d 8a44 6dbb 2f3b 01ba 6ab0 213d
00000020: f625 43bb 9f9c 49bf 2330 c133 225b a0bd
00000030: cf3d e23b 94c4 9eb1 4449 5fbc 8eb7 1d3d
00000040: b993 1c3d 69e5 3cbd ddb8 b3bd d28e 10b3
00000050: 71c3 8f30 f308 e3b9 1f53 ffba 1161 bab3
00000060: 6920 53bb 9c10 c4be 5cc8 4a3d 1387 15bc
00000070: 526a 443c d2d8 043e a43b 8abf 117d 1c37
00000080: d55e a3bb 3a01 30bb 917c 8fb1 7c13 88bc
00000090: 9288 dabc c5d8 ee33 1f81 243d d0fd 1e33
000000a0: 2122 9abf 36b7 6330 c056 9b37 2d08 2dbd
000000b0: 531c 04bd e10e 8231 e1f8 10b8 7b97 83bc
000000c0: 573c 80bc f1b7 68b9 109a 3f3c 453b ef3d
000000d0: d2c2 063d 9b59 8e3b e13a 2b37 b35b 2bb8
000000e0: cb80 fe3c 2cfe c4b4 d74a 23c0 89db 64bd
000000f0: d1c4 963f 05a4 34bb 4ce3 ab31 3425 adb8
0.0011585335 -0.009955716 0.7671348 0.14379397 0.065060705 -0.0036204183 -0.00049297785 0.039474882
-0.0029777265 -0.7875461 8.996019e-08 -0.07829882 0.006904341 -4.6207536e-09 -0.013628308 0.03850513
0.038226817 -0.04611722 -0.08775494 -3.3657507e-08 1.0460167e-09 -0.00043303482 -0.0019479728 -8.678956e-08
-0.0032215363 -0.38293922 0.049507484 -0.0091264425 0.011988239 0.12973335 -1.0799451 9.327444e-06
-0.00498567 -0.00268562 -4.1760093e-09 -0.016610853 -0.02667645 1.1122169e-07 0.040162202 3.7018083e-08
-1.2041665 8.284248e-10 1.8517836e-05 -0.042244125 -0.032253575 3.7851895e-09 -3.4564062e-05 -0.016063442
-0.015653772 -0.00022193768 0.011694446 0.11681227 0.03290064 0.004344178 1.0206103e-05 -4.085498e-05
0.031067273 -3.669278e-07 -2.5514429 -0.055873428 1.1778814 -0.0027563584 5.0025957e-09 -8.2562125e-05
