models/classification/mamba_delV_10000.0_trainDim_2_pN_100.0_vN_1.0_nonDim_False.pth (torch, 37003 bytes, 12 tensors)

mamba.layers.0.mixer.A_log f4 [64, 32]
00000000: 05b3 a13f bc7a 1440 25c0 c33f 416a 1240
00000010: 30e6 0540 1cbd 0b40 9837 0940 e61c e43f
00000020: ce7a 973f 99c2 3540 200a 3640 c500 5440
00000030: e93e 6040 e061 7240 c185 2240 0063 6840
00000040: f8e6 8240 b92f 1a40 d74e 8740 e1bf 8140
00000050: ac42 6640 2d98 5340 8cc6 6340 ec36 7440
00000060: 4a0c 8c40 f0e6 9e40 603a 8940 fdd1 5240
00000070: 2ba6 2840 f2eb 9640 2c42 8640 b22a 5e40
00000080: 1378 d03f 81f0 983f b5cb d83f 1756 383f
00000090: a9e2 ec3f 1a34 4f3f 356e 6e3f 04cc ce3f
000000a0: 9633 0840 19e9 df3f 3dba 1f40 e2b9 1640
000000b0: b7dd f73f 0d7f 1c40 d052 0f40 bb8d 2b40
000000c0: 3cd3 e83f 0b33 2f40 a728 4740 4649 3f40
000000d0: 46e0 4a40 fd4f 2a40 6412 2440 a2b4 2d40
000000e0: aa30 3840 6b79 5a40 dfea 6040 b142 4740
000000f0: afa5 3c40 b270 5040 69ae 4840 12ab 3b40
00000100: 51f9 b93f 5cc9 8d3f 6791 d93f 5aab a93f
00000110: 9865 a73f 84c2 9e3f 94b8 b93e 2147 c43f
00000120: 7769 0b40 c66a cc3f acc6 e53f 72e6 f93f
00000130: 0855 ef3f 9878 0240 a021 d73f 1b84 1d40
00000140: 9255 903f ed99 d03f 29e3 0240 6285 4940
00000150: de78 5240 da2f 2f40 34f1 0a40 5c3e 3240
00000160: 0d9a 2240 208e 6b40 dfeb 3f40 21f7 2d40
00000170: 5277 3840 0d52 6040 1413 4940 cba8 4540
00000180: d520 303f 5f27 083f 9746 be3f bb6f f93f
00000190: fcb1 cf3f 7813 e73f 903e 2740 87a3 f43f
000001a0: 9042 5340 6855 3140 a471 5540 9dd0 2240
000001b0: 71de 3940 6aa1 2340 6385 1540 537d 5040
000001c0: d791 6140 bf57 5340 1782 8a40 a9be 7c40
000001d0: 7a5c 7140 8cb1 5840 b5a4 4840 949d 5840
000001e0: 04c5 6d40 8193 8340 1fef 6040 3dcd 5b40
000001f0: d55d 5040 0117 3c40 d243 7040 11b9 7040
00000200: e317 8f3f bc3d 0e40 c92a 1b40 3b4a b83f
00000210: 0320 3740 c2e8 3f3f 81fe 0b40 8c02 bf3f
00000220: 3db4 1240 43da 2240 1f41 a03f 2405 3240
00000230: de20 e83f 6342 e73f 7ae0 1940 aa89 0140
00000240: 37ca 6340 7e97 4c40 78ac 4740 242f 5740
00000250: f657 2440 cdef 7740 c886 3f40 48b7 2a40
00000260: 0122 3540 f4c2 8f40 308b 4d40 3757 8240
00000270: 67e4 7f40 e0b0 9440 19cc 7940 2aea 4d40
00000280: 036c c9c0 bc2e 0fbf eee0 103f f023 4b40
00000290: 04f4 603e fe66 4540 da9d 3540 0dae 6440
000002a0: 2edf 4340 b9c8 3b40 d92f 4040 6306 4140
000002b0: b965 5640 715c 3e40 324c 4640 94e3 3f40
000002c0: d273 5140 9ec8 8440 df1b 4140 51e3 4040
000002d0: a072 3f40 be4a 4640 c7d5 4140 d741 5040
000002e0: 914b 2240 941b 4040 7e20 4240 a9f3 3f40
000002f0: 43fe 3c40 410a 4a40 3871 4040 53b7 4a40
00000300: d89a 8d3f d2ab 433f f595 a33f 5089 f63d
00000310: 31c0 523f df3b 9b3f 00c9 e03d e42a 163f
00000320: 0f86 e93f bae1 d33f 9138 0440 508d 0a40
00000330: 6267 ff3f cc5c cd3f 845f 0440 19c6 1240
00000340: dbd1 f53f 68a8 b83f e95f 5040 2696 5240
00000350: 6a24 4140 b63d 5c40 fd69 1740 5aaf 4640
00000360: cb79 3840 3542 5540 dea7 4e40 8bce 2a40
00000370: 52ab 4b40 77ac 6640 a93f 5f40 75f1 5840
00000380: 4de3 b33f 6290 b93f ee71 e03f 7d5e 0040
00000390: 6cc6 a23f e545 2740 89be 2d3f b786 cd3f
000003a0: ec38 2940 2d5e 3540 1d22 1940 d38b 0640
000003b0: cf42 2640 264b 1640 9b18 5a40 b6b7 5040
000003c0: f16e 0e40 dd6f d13f 6511 2540 6fe1 4d40
000003d0: 299f 6740 65f8 5340 47c4 3e40 a9cd 5340
000003e0: f781 3b40 2342 5740 648a 3b40 473e 4640
000003f0: 4aa6 5140 0052 8340 8b03 7240 76bd 5240
1.2632757 2.319991 1.5293013 2.2877352 2.0921745 2.1834173 2.1440182 1.7821319
1.1834352 2.8400023 2.844368 3.312547 3.5038397 3.7872238 2.5394137 3.6310425
4.0906944 2.4091628 4.228374 4.0546727 3.5978193 3.306163 3.5589933 3.8158522
4.3765 4.9656906 4.288376 3.2940667 2.635142 4.716302 4.1955776 3.471356
1.6286644 1.1948396 1.6937166 0.7200636 1.8506671 0.80938876 0.9313691 1.6156011
2.1281486 1.7493011 2.495742 2.3550954 1.9364537 2.4452546 2.2394295 2.6805255
1.8189464 2.7374904 3.1118562 2.9888473 3.1699386 2.661132 2.5636225 2.71415
2.8779702 3.4136608 3.5143354 3.1134455 2.9476125 3.2568784 3.1356452 2.9323163
1.452921 1.1077075 1.6997498 1.3255417 1.3077879 1.2403111 0.36273634 1.5334207
2.178312 1.5970085 1.7951255 1.9523451 1.8697824 2.0386105 1.6807137 2.461188
1.1276114 1.6296974 2.0451148 3.148766 3.2886271 2.7372956 2.1709719 2.785056
2.5406525 3.6805496 2.9987714 2.7182086 2.8822827 3.505008 3.1417894 3.0884273
0.688001 0.53185076 1.4865292 1.9487222 1.6226192 1.8052816 2.6131935 1.9112405
3.3009377 2.7708378 3.335061 2.5439827 2.9042017 2.556727 2.3362663 3.2576492
3.5245264 3.3022306 4.32838 3.949137 3.7712693 3.3858366 3.135053 3.3846178
3.7151499 4.111756 3.5145948 3.4344018 3.255727 2.938904 3.7541394 3.7612956
1.1179165 2.222518 2.4244864 1.4397653 2.8613288 0.74964535 2.1874087 1.4922652
2.2922509 2.5445716 1.2519873 2.7815638 1.813503 1.8067135 2.404326 2.0240273
3.5592172 3.1967463 3.1199017 3.3622522 2.5678687 3.8740113 2.9926014 2.6674366
2.8302004 4.492548 3.2116203 4.0731463 3.9983156 4.646591 3.9030821 3.2174172
-6.294435 -0.55930686 0.56593215 3.1740685 0.21968085 3.0844111 2.8377595 3.5731232
3.0604968 2.9341261 3.0029204 3.0160148 3.3499587 2.9743922 3.0984006 2.9982653
3.272694 4.1494894 3.017326 3.0138743 2.9913712 3.098312 3.028673 3.2540185
2.5358622 3.0016832 3.0332332 2.9992468 2.953019 3.1568758 3.0069103 3.1674392
1.106288 0.7643405 1.2780138 0.12037909 0.8232451 1.2127646 0.10975838 0.58659196
1.8244036 1.6553261 2.0659525 2.164875 1.9953425 1.6043944 2.0683298 2.293341
1.9204668 1.4426394 3.255854 3.2904143 3.0178475 3.4412665 2.365844 3.1044526
2.8824337 3.332166 3.2289958 2.6688564 3.1823316 3.6042764 3.4882605 3.3897374
1.4053742 1.4497187 1.7534769 2.005767 1.2716804 2.613641 0.6786886 1.6056737
2.6440992 2.833873 2.392707 2.1022842 2.5978277 2.3483367 3.4077518 3.2612128
2.2255213 1.6362263 2.5791867 3.2168844 3.6190894 3.3120358 2.9807298 3.3094275
2.9298074 3.3634117 2.9303217 3.097551 3.2757745 4.10376 3.7814662 3.2928138

mamba.layers.0.mixer.D f4 [64]
00000000: 9c71 423e 4ce3 2b3f b667 f33d 0231 d73f
00000010: 0570 f23f 1410 ce3e 6ac2 93be d96b 123e
00000020: 926d 1240 7f48 fe3c 177c 283e f632 5d3f
00000030: c471 c03f f180 1d3f b259 db3d 49e6 273f
00000040: 46d5 cf3f 6e9c 3e3d 8675 0abc 270a 553f
00000050: 7f08 043f 7f74 a8bf 89d4 693f 0dff 083f
00000060: e9c6 023f 7dca bd3f 103f 563f 26b4 6cbe
00000070: d804 593f 56b7 213c 1949 983f 9cbd 623f
00000080: 718f 1ebf 72c2 fd3f 8da2 65be 28e9 a53f
00000090: 103a f53f 3a63 7f3f 9798 113f 81bd 33bf
000000a0: 7d3e 593f 510d 81bf 654e 683e 02bc 0040
000000b0: b235 bd3f 9c1e a0be 388d 153e 2561 2a3e
000000c0: 9986 073f 4454 f13f 28c8 bc3f a1a4 bc3f
000000d0: a3c1 b7bc d262 80be f625 cb3e b1f1 6b3f
000000e0: f3cb cd3f 4d9d 313e 7f3f 883f b52c 583f
000000f0: bcea ff3e d231 a63f 14c7 1c40 340f f53f
0.18988651 0.671437 0.11885016 1.6811831 1.8940436 0.40246642 -0.28859264 0.14298953
2.2879376 0.031040428 0.16453587 0.86405885 1.5034719 0.61524874 0.107104674 0.6558576
1.6236961 0.0465359 -0.008450871 0.83218616 0.51575464 -1.3160552 0.9133993 0.53514177
0.5108476 1.482742 0.83689976 -0.23115596 0.84773016 0.009870371 1.1897308 0.8857057
-0.61937624 1.9824965 -0.2242529 1.2961779 1.9158344 0.9976078 0.5687346 -0.70211035
0.84860975 -1.0082189 0.22686155 2.011475 1.4782012 -0.31273353 0.14604652 0.1663862
0.52939755 1.8853841 1.4748583 1.4737741 -0.0224312 -0.25075394 0.396774 0.92165667
1.6077865 0.17345162 1.0644377 0.8444322 0.49983776 1.2983954 2.4496508 1.9145265

mamba.layers.0.mixer.D_SSM f4 [64]
00000000: 9c71 423e 4ce3 2b3f b667 f33d 0231 d73f
00000010: 0570 f23f 1410 ce3e 6ac2 93be d96b 123e
00000020: 926d 1240 7f48 fe3c 177c 283e f632 5d3f
00000030: c471 c03f f180 1d3f b259 db3d 49e6 273f
00000040: 46d5 cf3f 6e9c 3e3d 8675 0abc 270a 553f
00000050: 7f08 043f 7f74 a8bf 89d4 693f 0dff 083f
00000060: e9c6 023f 7dca bd3f 103f 563f 26b4 6cbe
00000070: d804 593f 56b7 213c 1949 983f 9cbd 623f
00000080: 718f 1ebf 72c2 fd3f 8da2 65be 28e9 a53f
00000090: 103a f53f 3a63 7f3f 9798 113f 81bd 33bf
000000a0: 7d3e 593f 510d 81bf 654e 683e 02bc 0040
000000b0: b235 bd3f 9c1e a0be 388d 153e 2561 2a3e
000000c0: 9986 073f 4454 f13f 28c8 bc3f a1a4 bc3f
000000d0: a3c1 b7bc d262 80be f625 cb3e b1f1 6b3f
000000e0: f3cb cd3f 4d9d 313e 7f3f 883f b52c 583f
000000f0: bcea ff3e d231 a63f 14c7 1c40 340f f53f
0.18988651 0.671437 0.11885016 1.6811831 1.8940436 0.40246642 -0.28859264 0.14298953
2.2879376 0.031040428 0.16453587 0.86405885 1.5034719 0.61524874 0.107104674 0.6558576
1.6236961 0.0465359 -0.008450871 0.83218616 0.51575464 -1.3160552 0.9133993 0.53514177
0.5108476 1.482742 0.83689976 -0.23115596 0.84773016 0.009870371 1.1897308 0.8857057
-0.61937624 1.9824965 -0.2242529 1.2961779 1.9158344 0.9976078 0.5687346 -0.70211035
0.84860975 -1.0082189 0.22686155 2.011475 1.4782012 -0.31273353 0.14604652 0.1663862
0.52939755 1.8853841 1.4748583 1.4737741 -0.0224312 -0.25075394 0.396774 0.92165667
1.6077865 0.17345162 1.0644377 0.8444322 0.49983776 1.2983954 2.4496508 1.9145265

mamba.layers.0.mixer.in_proj.weight f4 [128, 2]
00000000: 90ec 97b9 1de4 8ab9 c448 2a39 5783 02ba
00000010: 2610 25bb 99f6 623b 3878 65b9 1ec4 7d36
00000020: e090 5f3a 3c08 44b8 e88b 52bf 6d31 3d3f
00000030: 9dd2 abb9 1611 8a39 bc5b cd39 5924 863a
00000040: 05a5 a7bf 8665 4c3d e335 003f 5ce4 823e
00000050: 1b7a 25ba 5fbf 9738 a590 89b9 fcd3 153a
00000060: 0ddb 3039 a861 d538 90dd a638 5657 35b8
00000070: bb56 c139 b236 cbb9 f070 b5b9 7b07 cd39
00000080: 6021 8ebe 7590 7a3f 27a2 e33a 0451 bf3a
00000090: 6922 8cb9 76a4 0939 9f41 efb8 0560 4ab9
000000a0: 3ddd b2bf 27b8 86be 317a 14bf 73bd 1cbf
000000b0: 8ca6 0a3a 3263 f8b7 dc76 96b9 cdfe 95ba
000000c0: f43d 0ebf e391 57be bb0d e137 5f53 aa3a
000000d0: 7e66 5d3a 317f dbb9 e3a4 02ba 4561 8cb9
000000e0: 19c3 113a fe88 8d39 fd8a 98be 5fae 6bbf
000000f0: 0abb 40bd 883c 483d c491 c439 e82c e7b9
00000100: 03fe b9b9 4461 813a 5fa5 283a 7adb 533a
00000110: b5b3 c43a 94d2 10ba 0e65 a339 edc3 40b9
00000120: c3d6 7339 5bc9 a0b9 2952 deb8 7f32 13b9
00000130: b636 db39 e71d ab39 b852 573a cb67 c0b9
00000140: f233 6239 14d3 3cb9 4bdd f13e 5f83 023f
00000150: dd58 96b9 faa1 6a38 899a 4239 9c13 a9b8
00000160: 211d 3db9 6f02 3339 3695 fe3a 5799 a3bb
00000170: 7824 313f f9df 3c3f b69d 183b 350e 113a
00000180: 1c35 7f3a c112 1839 0b5c 21ba af3e d639
00000190: 2d06 fdba 4b13 a93a 40b1 fa3a 8643 e0ba
000001a0: df18 9f39 fb80 8f38 37e9 873f afbd e2be
000001b0: e4af 183a db27 163a 59de 70ba 5beb 383b
000001c0: 5646 01b9 f65f 113a 6801 2cba b1d1 163a
000001d0: 01d1 80ba a1c9 f038 a650 84b9 febf 66b7
000001e0: 4f6e a6ba 8fa6 d4bb 3777 2f38 799b b238
000001f0: 2547 abba 8305 123a f665 93bf da62 e63e
00000200: 2fbf 06be ef57 dbbd 6eaa 00bd 617e c2bc
00000210: 0430 a33a ced4 d2bd 8992 3ebe 7630 04be
00000220: 1a6e 8939 207c 72b9 5097 bbbf 285d d53f
00000230: 05b8 423e ef37 163d 9af1 ee3d f685 d1bd
00000240: d2c6 abbf ef0a 87bf 6f8f 6d3e 84ac 94be
00000250: 2f3d 3bbd 3763 adbd 12d9 813e 9c6d 8c3d
00000260: fe5c 97bd 32ab d7bd 68cc 80bd 4921 b8bc
00000270: 1f66 84be 2fe9 8bbd 63c0 64be 07d2 44be
00000280: 150f 9f3f a533 3340 f747 42bc 636f 4ebb
00000290: 9794 02bd fd32 a33b 7737 2b3c c893 0abd
000002a0: 9211 523c 58a2 ed3c 03bd 0c3f 3655 463f
000002b0: 294c b239 187c 6c39 4e31 983c fc64 633c
000002c0: 6157 1fba 740d cf39 7e74 82be 635d d13d
000002d0: 9d3a 9234 01fb 8234 b360 893e abfa 403d
000002e0: c04f a03b 06f0 e0bd 31de b3bf c8b8 693f
000002f0: 071e a83b 8ab7 c73a ac6f 733c 0f49 d7bb
00000300: d834 173e 8b4f 1d3d 1723 b8bd f3ca 443d
00000310: abe4 ac3f d920 b0be 22b6 eebd 0d4c d83d
00000320: 6a85 82bd 51c5 4ebd 23ad 9ebd 2789 97bc
00000330: 8d85 eebb 0807 c6bb 14ff d0bd 25e6 fb3d
00000340: 0608 acbd 79ca 233e 5298 acb9 df9d 4c39
00000350: 7938 bbbd 66ae a2bd 095e 99bc f467 833c
00000360: 8382 3e3e f65d 8bbc e50e b5bd 83f3 70bd
00000370: 437b 9a3a dffb dd39 3d41 ecbc 0015 77bc
00000380: 6199 c53d 6dc9 e13d bc64 58b4 9afe d833
00000390: 8d1b 003f c1f4 0ac1 1997 4fbd 9816 653d
000003a0: f210 a43d 3b11 ef3d 6352 01c0 755e 22bf
000003b0: e841 73bd 67f0 053b 6ebc 9438 64dc fa35
000003c0: 8ee5 833e 01fa 44be edf7 26bd 2e03 a0bd
000003d0: 5db9 67bc 76ca dabd 5480 72bd 0652 9ebd
000003e0: 1884 d83d c3ae 003d d280 41be d72e 653d
000003f0: 5299 c9bd 1d10 75bd 1697 6e3f 7a40 08bf
-0.00028977217 -0.0002649137 0.0001623957 -0.00049786776 -0.0025186627 0.0034631847 -0.00021883927 3.7814093e-06
0.0008528363 -4.673771e-05 -0.8224473 0.7390354 -0.0003277258 0.0002633414 0.00039168994 0.0010234221
-1.3097235 0.049901508 0.50082225 0.2556485 -0.00063124456 7.235887e-05 -0.00026238445 0.0005715487
0.00016866271 0.00010174821 7.956766e-05 -4.32351e-05 0.00036876448 -0.00038759928 -0.00034607155 0.0003910622
-0.27759838 0.97876674 0.0017367051 0.0014596288 -0.00026728518 0.00013126605 -0.00011408631 -0.00019299991
-1.3973767 -0.26312372 -0.5799895 -0.61226577 0.00052890996 -2.9610095e-05 -0.00028698787 -0.0011443734
-0.5556328 -0.21051745 2.6828484e-05 0.0012994817 0.00084457535 -0.000418657 -0.00049836765 -0.00026775352
0.0005560383 0.00026995683 -0.2979354 -0.92062944 -0.047053374 0.048885852 0.00037492637 -0.0004409321
-0.00035475203 0.0009870906 0.00064333336 0.0008081716 0.001500717 -0.00055245426 0.00031165074 -0.00018383535
0.00023254291 -0.000306676 -0.000106010884 -0.00014037824 0.00041811698 0.0003263794 0.0008213925 -0.00036698426
0.0002157239 -0.0001800771 0.47239146 0.50981706 -0.00028676438 5.59408e-05 0.0001855885 -8.0622005e-05
-0.00018035296 0.00017071677 0.001942313 -0.004992645 0.6919627 0.73779255 0.0023287362 0.0005533428
0.0009735392 0.00014502836 -0.0006155378 0.00040863964 -0.0019304209 0.0012899427 0.0019126311 -0.0017109967
0.00030345374 6.842796e-05 1.0618047 -0.44285342 0.00058245496 0.0005727985 -0.0009188406 0.0028216455
-0.00012328601 0.00055456103 -0.0006561489 0.00057532924 -0.0009827913 0.00011481648 -0.0002523709 -1.375377e-05
-0.001269767 -0.006489582 4.183428e-05 8.5166605e-05 -0.0013067467 0.00055702793 -1.1515491 0.44997293
-0.13158868 -0.107101314 -0.031412534 -0.023741903 0.0012450223 -0.102944955 -0.18610586 -0.12909111
0.00026212708 -0.00023125159 -1.4655552 1.6669054 0.1901551 0.036674436 0.116671756 -0.10230629
-1.342005 -1.0550212 0.23199247 -0.2903787 -0.045712646 -0.08466189 0.25360924 0.06856844
-0.07390784 -0.105307 -0.062889874 -0.02247681 -0.25859162 -0.068315856 -0.22339015 -0.19220744
1.2426478 2.8000271 -0.011857978 -0.0031499497 -0.031879988 0.0049804435 0.010450236 -0.03383234
0.012821572 0.029008076 0.5497591 0.7747377 0.0003400755 0.00022552942 0.018578198 0.013879057
-0.0006078389 0.0003949214 -0.254795 0.1022289 2.7237266e-07 2.4397016e-07 0.26831588 0.047114056
0.0048923194 -0.10983281 -1.4052182 0.9129758 0.0051305327 0.0015237194 0.014858168 -0.0065699886
0.14766252 0.038405936 -0.08991068 0.04804511 1.3507284 -0.3440006 -0.11655833 0.105613805
-0.06373103 -0.050481144 -0.07747867 -0.018498017 -0.007279104 -0.0060433187 -0.10204902 0.12299756
-0.08399968 0.15995206 -0.00032919884 0.00019513768 -0.09141631 -0.0794342 -0.018721597 0.01604078
0.18604474 -0.017012578 -0.088407315 -0.05882598 0.0011786002 0.00042340063 -0.028839702 -0.01508069
0.09648395 0.11024747 -2.0153215e-07 1.01045956e-07 0.5004204 -8.684754 -0.050681207 0.05592975
0.080110446 0.11673208 -2.0206535 -0.6342538 -0.059389025 0.002043748 7.092288e-05 1.8690594e-06
0.25761074 -0.19235994 -0.040763784 -0.078131065 -0.014143315 -0.106831476 -0.059204414 -0.077304885
0.1057207 0.031416666 -0.18896797 0.055952873 -0.09843697 -0.05982982 0.9319929 -0.53223383

mamba.layers.0.mixer.conv1d.weight f4 [64, 1, 16]
00000000: 2c9e a9bd 1655 603d 2f20 61bd a0a6 10be
00000010: 324c 913e ea9f 5f3e b936 413d 8044 16be
00000020: 2186 10be 4ce9 443d 0a32 433e 3ef6 23be
00000030: faea 2ebe a860 fd3d f09d 1a3d f600 d6bd
00000040: d538 273e 698c 0c3e 05b9 553e 1240 d8bd
00000050: 7fb7 a4bd df96 153d 683a 963d d1bb a9bd
00000060: 6dbd 8c3d 0e78 44bc 311a 26be b875 ae3d
00000070: 6bda 3fbb b5b3 4fbe abf7 f3bd 42cc b739
00000080: 9a22 a43d 12f8 4a3e 561d 08bc 1f16 243d
00000090: 0094 153e 0574 57bd eb9c 2abe fb8f 3b3e
000000a0: 3bfd c9bd 3c0d 2abe b5cb 8abe 335a 6ebe
000000b0: 2e3d dcbd 6351 1b3e 3e78 d23d 2ad2 2d3e
000000c0: c7d1 0f3e 0a16 013d 6fcd 8c3d f8dc 923e
000000d0: 5a09 aabd 8285 4b3e f1f0 80bd e2af 15be
000000e0: f676 933d 55fe 1cbe 32ae 37be 321c 843e
000000f0: d14b 36be 7e98 febc acd7 74be 6694 263c
00000100: 1bef 16bc f006 0a3e a7bc a2bc a365 073e
00000110: 33cd 033e 7440 5ebd 8380 0dbd c5f6 6d3b
00000120: d058 c5b9 ee91 86be 7a32 253c c110 c33d
00000130: 5c65 38be 783b 953b b7b5 853d 9a6d 8dbc
00000140: 3ba7 103f ca56 123f 936b 803e 1c78 183f
00000150: c66a 8c3e 3b78 e03e 7321 f83e fe90 063e
00000160: c64b 6e3e fe80 143f 10bc 523e d1d0 a93e
00000170: 5ffa 203f 6b78 233f d129 073f d31d c43e
00000180: 3144 433e 3af3 c53d 3ccd 87bc 0ca1 cd3d
00000190: 1de7 643d 17d8 30be 7587 dbbd 0b3a 1f3e
000001a0: 708e b53c 148a 853d 262e 85be 8e39 203e
000001b0: 610f 82be 0876 9a3c 313a 39be 4d94 ff3d
000001c0: 66d7 45be b276 06be 2670 953c f081 903e
000001d0: c2f5 67bd c5ae ea3c 65f5 88bd bbe0 03be
000001e0: dd6d 5c3e 1d36 bfbc 8a07 e7bc 0be5 033e
000001f0: 103d b0bd 74bf 28be befc 613e 7fef 13bc
00000200: b435 a23d 2e4b fe3e 2121 903e 64c0 093f
00000210: 9e53 223f 6047 ac3e 75ba f93e e13e 0e3f
00000220: 1bd9 353f ffab 0f3f 9ecd 363f 5d27 cc3e
00000230: 834b 0e3f 6473 1f3f 927c 553f a68d 323f
00000240: d8c4 b8bd d124 10be 95d7 1bbe e098 5f3d
00000250: f3e2 93be 1722 bfbd ca3e b1be 9ec0 bcbe
00000260: eded aabe 92a7 bbbe c067 75be bae3 aebd
00000270: 78cd 2ebe 029a c2be b71c eabe 7a28 9cbe
00000280: 9afa 593c 9325 35be aa46 bdbd b3e8 bf3d
00000290: e669 3e3e 1f2b 453e 7a2c 5abc ca3d 1bbd
000002a0: 6952 c5bd 8604 7ebe 68bc 1a3c ad08 023e
000002b0: 6664 743d 992d 07be 323b f1bd d9d0 6e3e
000002c0: 109d 2e3e 9dba c03d ef7e 113e 7a63 133e
000002d0: e119 59be a9a3 103e 2e5f 333c 43d1 1ebe
000002e0: c38d ac3d e1db 06be 9d8e 253d 80fe 773b
000002f0: 7600 cf3d d7cf 5cbd ee12 0ebe 370a 78be
00000300: 49b2 053e 7206 773e 44ff 333e f965 853e
00000310: 6a82 26be 77da 18be 9565 08be d9c8 08be
00000320: 968a aebd 610c ac3d cd4c 693b 0bfd c3bd
00000330: 85c3 d53d b1e0 453d 1a13 67be 8c0e 8cbd
00000340: 8bff 13be e3a8 17bd 8404 6fbe ff77 9e3d
00000350: ee6c dd3d 616a dfbd 5531 803d 684a 11be
00000360: f1bf 193e 59c7 e73c 7985 58be 42ea 80bd
00000370: 60b1 1f3d 4efc 713e 345b 803e 9876 36bc
00000380: 0035 b7bd 99f1 4fbe 261b dd3c 6430 3cbe
00000390: 2597 f3bd 5bd5 cabd 40fe 173d 4618 553d
000003a0: 8e1b 043e a907 4a3c f559 f83d c31f 4c3e
000003b0: 4aca 09bd f4e3 413d 2da5 db3d a0cc c63b
000003c0: c1f7 6b3d 212a e5bd 51f8 0f3c 76e5 01be
000003d0: 87b2 fd3c 5dda 04bd e10b 673e 066f 513e
000003e0: 24b9 743e 7519 fc3d 87cd afbd 1252 4bbe
000003f0: ede0 0f3e 5874 11be 27b4 f0bd 7002 5fbe
-0.08282122 0.054768644 -0.054962333 -0.14126062 0.28378445 0.21838346 0.04717133 -0.14674568
-0.14113666 0.04807405 0.19062057 -0.16011903 -0.17081824 0.12371951 0.037748277 -0.10449402
0.16330273 0.13725437 0.2087136 -0.105590954 -0.080428116 0.036520835 0.07335359 -0.08287776
0.068720676 -0.011991514 -0.16220929 0.08518547 -0.0029274474 -0.20283397 -0.11912473 0.00035056664
0.08014412 0.19821194 -0.0083077755 0.04006016 0.14607239 -0.05260088 -0.16661422 0.18316643
-0.09862753 -0.16606611 -0.2710854 -0.23276596 -0.107538566 0.15167765 0.102768406 0.16974702
0.14044867 0.03151516 0.06875121 0.2868421 -0.08302565 0.19875148 -0.06295956 -0.14617875
0.072004244 -0.15331395 -0.17937544 0.2580276 -0.17802359 -0.031078573 -0.23910397 0.010167217
-0.009212281 0.13479209 -0.019865347 0.13222365 0.12871246 -0.054260686 -0.034546386 0.0036310416
-0.00037640939 -0.2628321 0.010082835 0.0952468 -0.18007416 0.0045542084 0.065288 -0.017264176
0.56505173 0.5716368 0.25082073 0.5955827 0.27425212 0.4384173 0.4846302 0.13141248
0.23271093 0.58009326 0.20579553 0.33167127 0.62882036 0.6385562 0.5279818 0.38304004
0.19068982 0.096655324 -0.016577356 0.10040483 0.05588447 -0.17269932 -0.10719196 0.15549485
0.022162646 0.06520477 -0.2601177 0.15646955 -0.25402358 0.01885511 -0.18088605 0.12479458
-0.19320449 -0.13131216 0.018241953 0.28224134 -0.056630857 0.02864779 -0.0668743 -0.12878697
0.21526285 -0.023341233 -0.028201837 0.12880342 -0.08605397 -0.16479284 0.2206907 -0.009029268
0.07920399 0.49666733 0.28150275 0.5380919 0.6340884 0.33648205 0.48775068 0.55564696
0.710344 0.5612182 0.71407497 0.39873782 0.5558397 0.6228545 0.83393204 0.6974739
-0.0902192 -0.14076544 -0.15218957 0.054589152 -0.28884086 -0.09332674 -0.34618217 -0.36865705
-0.33384648 -0.36651284 -0.23965359 -0.08539529 -0.17070568 -0.38008124 -0.45725033 -0.3049963
0.013304377 -0.17690115 -0.09241994 0.09370556 0.18595085 0.1925473 -0.013316268 -0.037900724
-0.09634859 -0.24806413 0.009444334 0.12698622 0.05966606 -0.13200988 -0.11778869 0.23321857
0.17052102 0.09410594 0.14208578 0.14393416 -0.21201278 0.14124931 0.010947986 -0.15509515
0.084254764 -0.13169815 0.04041921 0.0037840903 0.1010751 -0.05390915 -0.13874409 -0.24222647
0.13056292 0.24123552 0.17577845 0.2605436 -0.16260687 -0.14927088 -0.1332 -0.13357867
-0.08522527 0.084007986 0.0035598755 -0.095697485 0.10437683 0.048309986 -0.2256588 -0.06838712
-0.1445295 -0.037026297 -0.23341566 0.07737731 0.10811792 -0.10908962 0.06259409 -0.1418854
0.15014626 0.028293299 -0.21144666 -0.06294681 0.038987517 0.23631403 0.25069582 -0.011136673
-0.08945656 -0.20307006 0.026990484 -0.18377835 -0.11894063 -0.099039756 0.037107706 0.052025102
0.12901136 0.012330928 0.12126533 0.19933991 -0.033640184 0.047336534 0.10724864 0.0060668737
0.057609323 -0.11189676 0.008787231 -0.12685189 0.030968918 -0.03243481 0.22563125 0.20452508
0.2389875 0.12309543 -0.08584123 -0.19855526 0.14050646 -0.14204538 -0.11753111 -0.21778274

mamba.layers.0.mixer.conv1d.bias f4 [64]
00000000: 9dd8 1bba efe9 5fba 8a1c b2ba 91af 283a
00000010: 8820 a63a ba3c a9be 6dc5 8cba 48af 153a
00000020: 6339 a5ba 3a54 09bf f670 03ba 951d 18ba
00000030: 23aa 19bb 3cab 4b3a ef2b 01b8 e5bb 5cba
00000040: 3cda 2cbf b262 1aba 59d3 c239 c0ce 9cb9
00000050: 8c06 6f3e fcf8 1b3f 9704 883a 49da 043b
00000060: b15c 26bf 5fc9 3d3a 1773 4bba 2172 373b
00000070: 29b9 18ba d32a 3aba 5e5a c7bc ed44 3dba
00000080: b2dd 0dbc 2b96 adbc 2b76 cebe 0974 a4b9
00000090: 2bbd 13b8 794d 14ba f8ad 9039 ea87 053a
000000a0: c8d9 80b8 04b9 18be 35c1 a1ba 5dfb 08ba
000000b0: 56ee 65bb 2663 f3b8 6fd4 b4be 551b 88bb
000000c0: 5683 853a d7fe 8aba 83f6 4b3f a6d3 dab9
000000d0: be21 8eb9 d262 f93e 2b2d 07ba f173 0cbb
000000e0: 42db 043a af98 0fbb 97e4 2bbb 66e5 5839
000000f0: 6815 83ba baba 0dba f930 da39 ef9b 3b3f
-0.00059450587 -0.0008541634 -0.0013588828 0.0006434853 0.001267449 -0.33054143 -0.001073999 0.0005710018
-0.0012605604 -0.53644145 -0.0005014086 -0.0005802748 -0.0023447357 0.00077693514 -3.0796913e-05 -0.00084203325
-0.675205 -0.00058893405 0.0003716003 -0.0002990868 0.23342341 0.60926795 0.0010377344 0.002027171
-0.64985186 0.00072397845 -0.0007760985 0.002799161 -0.0005825931 -0.0007101718 -0.024335083 -0.00072200486
-0.008658813 -0.02118977 -0.4032453 -0.0003136697 -3.5223708e-05 -0.0005657296 0.00027595437 0.00050938
-6.1440805e-05 -0.14914328 -0.0012340905 -0.00052254443 -0.0035084686 -0.00011605611 -0.35318324 -0.004153649
0.0010186236 -0.0010604513 0.7967302 -0.0004173789 -0.0002710949 0.48708206 -0.0005156572 -0.002143141
0.00050680724 -0.0021911075 -0.002622878 0.00020684823 -0.0010000886 -0.00054065476 0.00041616688 0.7328481

mamba.layers.0.mixer.x_proj.weight f4 [65, 64]
00000000: 7fa4 e13b de7d c63c 53a7 e7bb 566b 08bb
00000010: 63dc c53c 4665 a23f b915 823b 4e2b 473c
00000020: 32bb 6f3e 1989 9b3e ceaf 413c 1a43 0c3c
00000030: 411e 283d 3414 023c d9ab 7fbc e169 05bc
00000040: 41c8 043f 6cfd b0bb 5bdc ee3b d8f7 80bc
00000050: 2363 223f cbe7 af3e 5904 673c df29 803c
00000060: 64d7 c33e 36e8 03bd 98d2 613b eae6 01bd
00000070: e8e3 003d 6b52 9c3e 39c7 803d 6e65 2ebc
00000080: 802f d63c cd07 8a3d c584 583f a488 303c
00000090: b7d0 5f3c aef2 d53b abcc 793c 1ff1 0abc
000000a0: b3d9 643c 4d49 b33e a369 693c 4796 9b3c
000000b0: 6a97 2e3d 6daf eb3b c56e 1f3f e1f9 603c
000000c0: db38 8bbc 1af2 823d 3bc2 a2bf 09c9 79bc
000000d0: bcf3 ff3c d9f6 01be 08a9 83ba 5e9b f63b
000000e0: daa7 33bd 57e8 263d db60 a2bb 59f8 ff3c
000000f0: 0dbb d53c db83 ad3c eabe 10bd eda5 a2bd
00000100: 147c fb3b 2a13 25bd 714c 89bd 4009 b9bc
00000110: 3199 043e 3f94 ccbe 28e5 2bbd cdaf 993d
00000120: c0f7 a6bf b117 81bf 96ea 6bbd 7f9a 09bc
00000130: 01c4 03bc 6393 ee3c 1aeb c8bd 4100 7fbd
00000140: 289e 4d3f f7c5 1abd 72b6 8e3d 6469 553c
00000150: 4a01 ab3f b5ad 13c0 7664 983d 79c8 833d
00000160: d417 8ebf fd95 07bd 8db2 26bd abd4 3cbd
00000170: d5e5 b33c d2ca a1bf e268 263d 815c e6bd
00000180: a9c0 27be 3d6a 713d 2532 22bf 00e3 f93c
00000190: 8d6a 36bd ea14 e6bc a49e 703d 9992 c73c
000001a0: fc3f 473d 869b 0ac0 dce9 15bd 20e6 9cbc
000001b0: 7680 aebc f8f7 33bd 1492 9c3f fc94 97bd
000001c0: 62aa 76bc 336a c03d f5db f03e 8e08 8ebd
000001d0: a33e c53d 7742 95be fa82 1abc ee2b 59bd
000001e0: 10f3 b6bd 6458 9cbd 3c94 01be 7961 e43c
000001f0: d7e8 043d e950 e23b ca05 a7bd 149a 43bd
00000200: 6b1a 113d 75a3 9c3d ca5f 003d 992f 8c3d
00000210: 59b3 0dbe 302a 213f 7559 4c3b 2d12 e2bd
00000220: a7ff a83f 0d5e 6f3d 6433 f53d 9c09 e9bc
00000230: fa48 c7bc 2ab6 473d 43ba 2d3e ea40 a83d
00000240: 1a20 a2bf ddeb 913d c261 efbd 157e d93c
00000250: 7a3d 1abf 9322 9ebd 6f4b 2dbd 14d2 75bc
00000260: 353f a63e 4355 863d 2ea9 36bd 823d 26bc
00000270: 378a a8bc 694e 47bf e501 82be 5592 b83d
00000280: fba6 043e d1af 25be 0e64 023f bfc0 b5bd
00000290: dbf9 3a3c 7903 253b a6c1 01be ec9d e0bd
000002a0: 22d4 18bc 030f ffbe 8093 bc3c 2385 0dbd
000002b0: 4fe1 72bd b1c6 0d3c 45b7 cabf e99a cf3d
000002c0: ccdf 23bd 1edf 14be aa0d a6be 8ffc c93c
000002d0: c5f9 76be eccb 833f b192 003c d55f 973d
000002e0: 28d2 ad3c f7ea 853d 0861 5b3e 87f4 4c3d
000002f0: c3f8 27be 8faa 9c3d 369b 0d3e 7c9a 243f
00000300: 3927 43bd 2f36 c53b 6691 4abb 2e2a 92bc
00000310: 2230 413d f42d 07c0 e39c 9c3c e6f2 0d3d
00000320: ce65 d0bd 1f80 223e b568 1bbc cfe1 3abd
00000330: ae76 2c3d c2e8 85bc 7c12 4d3d d045 10bd
00000340: fa2a e0bf 70f9 143c 1da2 4a3d a63e d2bb
00000350: dc6f 7b3f ee2d 953e 3b27 c63c 20af c13c
00000360: a3c0 abbd ecea b5bc 0b49 033d 98c3 02bd
00000370: 7607 563d 138b 0840 989b ed3b d920 8f3c
00000380: 9fbe 883d fc2a a33d 647c 933e 5707 26bc
00000390: fe7a feb9 dbfd 98ba e510 a3bb 3835 a0bb
000003a0: 5580 653d 28ff 2d3f d1c9 283c cc9d f13c
000003b0: c74c 4d3c 58d1 9a3b 1f71 483e 1b3b cf3a
000003c0: a784 623b e447 553d 07dd 923e 5bb2 bdbc
000003d0: 9ac1 eb3c 067d b13f 4223 80bc 17fa 2f3d
000003e0: 07f0 073d 01dd 353d a488 5fbd 420c 85bb
000003f0: 4d70 3b3d 2c82 8dbb aa9a 8ebd b388 0040
0.0068860645 0.02422994 -0.007069507 -0.002081593 0.02415294 1.2687156 0.0039698747 0.012156321
0.23411253 0.30378035 0.0118217 0.00856092 0.041044477 0.007939387 -0.0156049365 -0.008142919
0.51868063 -0.005401304 0.007289452 -0.015743181 0.6343252 0.34356532 0.014100158 0.015644966
0.38250268 -0.032203875 0.00344578 -0.031714357 0.03146735 0.3053163 0.06287999 -0.0106443
0.026145697 0.06739769 0.8457759 0.010774765 0.013660601 0.006529174 0.015246551 -0.008480339
0.013967919 0.35016862 0.014246377 0.018992556 0.04262487 0.0071925432 0.62278396 0.013731451
-0.016994884 0.063938335 -1.2715524 -0.015245684 0.031244151 -0.12691821 -0.0010044882 0.0075258454
-0.043861248 0.04074892 -0.0049553937 0.031246351 0.02609017 0.021181038 -0.03533832 -0.07941804
0.0076747034 -0.04030148 -0.06704033 -0.022587419 0.12949063 -0.39956853 -0.041966587 0.075042345
-1.3044357 -1.0085355 -0.057596765 -0.008398651 -0.008042336 0.029123014 -0.09810467 -0.0622561
0.8031945 -0.03778645 0.069683924 0.013025615 1.3359768 -2.3074772 0.074410364 0.064347215
-1.1101022 -0.033102024 -0.040697623 -0.046101253 0.021960178 -1.2640021 0.040627368 -0.112481125
-0.16382088 0.058939207 -0.63357764 0.03050375 -0.04453521 -0.028086144 0.05874504 0.024361895
0.048645005 -2.1657424 -0.03659998 -0.0191527 -0.02130149 -0.043937653 1.223208 -0.074014634
-0.015055271 0.09395256 0.47042814 -0.069352254 0.09631088 -0.2915227 -0.009430641 -0.05302041
-0.08933079 -0.07634047 -0.12654203 0.02787851 0.032448616 0.006906618 -0.08155401 -0.047754362
0.035425585 0.076483645 0.03134135 0.06845016 -0.13837947 0.62955 0.003118125 -0.11038623
1.3203019 0.058439303 0.119726926 -0.028446965 -0.02432679 0.04875771 0.16965584 0.082155064
-1.2666047 0.071250655 -0.11688568 0.026549378 -0.60250056 -0.07721438 -0.042308267 -0.0150037
0.32470098 0.06559231 -0.044594936 -0.010146501 -0.020573718 -0.7785402 -0.2539207 0.090122856
0.12954323 -0.1618035 0.5093392 -0.08874654 0.011412109 0.0025179072 -0.12671527 -0.10967621
-0.00932792 -0.4981614 0.023019552 -0.034550797 -0.059296902 0.008653329 -1.583718 0.10136969
-0.04000835 -0.14538237 -0.324323 0.024656562 -0.24118717 1.0296607 0.007847474 0.073913254
0.021218374 0.065389566 0.21423733 0.050037887 -0.16403489 0.07649719 0.1382874 0.64298224
-0.047644828 0.006018422 -0.0030909418 -0.017842378 0.047165044 -2.1121798 0.019117778 0.034655474
-0.10175668 0.15869187 -0.009485413 -0.045625504 0.04210537 -0.01634634 0.050066456 -0.03522283
-1.7513115 0.009092674 0.04947101 -0.0064161597 0.9821756 0.29136604 0.024188628 0.023643076
-0.08386352 -0.022206746 0.03205208 -0.031924814 0.05225321 2.1334884 0.0072512142 0.017471718
0.06676983 0.07967183 0.2880584 -0.010133586 -0.00048538292 -0.0011672335 -0.004976379 -0.0048891567
0.05603059 0.6796746 0.010302023 0.029494189 0.012530512 0.0047246628 0.19574402 0.0015810461
0.003456393 0.052070513 0.28684255 -0.023156336 0.02877884 1.3866279 -0.015641812 0.042963114
0.033187892 0.04440022 -0.05457367 -0.004060299 0.045761395 -0.004318496 -0.069630936 2.0083435

mamba.layers.0.mixer.dt_proj.weight f4 [64, 1]
00000000: b4a1 e53d 0f58 f33e 7b32 e8bd c775 263e
00000010: 5092 29c0 1993 01bf 17e7 6f3e 36df 673f
00000020: 300a 33be fbfc 413f 7e91 2b3f 73e3 0bbf
00000030: 6d1c 0ebe ffcb ff3d 5335 a8bd 91a4 883e
00000040: 037d 44be 8e4d dc3e 5064 b8bb 72d6 55be
00000050: 9471 843d 16c9 623f 67dc bfbe 4fc9 1b3f
00000060: 7e1d a8bd 58f5 18c0 32dd 03be e5af 423f
00000070: ec14 853f 012c 673f 3cfb 18c0 c168 08bf
00000080: aa63 453f 617f 293f 6345 f93f bbd6 0fc0
00000090: 9e6c a5bf 91bd c2be a438 2a3e 7438 6d3f
000000a0: 8e8a 03c0 e557 ac3d d00c 8fbe b7f3 38be
000000b0: 3d53 6abe 7dcf a93d c385 b73e 2b2a 563f
000000c0: 08aa a5bd f9fa 2dc0 4b46 2abe 5bbe 70be
000000d0: 9cc8 ba3d f3ae 043e 4fa9 d5be efa2 06be
000000e0: 63f0 84bf 02ee c2be 1c8e 0fc0 e7f9 513f
000000f0: 27d6 d13d d541 1f3f 1857 92bf 8893 613f
0.11212483 0.4752812 -0.113377534 0.16255866 -2.6495552 -0.5061508 0.23427998 0.9057497
-0.17484355 0.7577664 0.6701888 -0.54643935 -0.13878031 0.12490081 -0.08213296 0.26688054
-0.19188313 0.4302792 -0.0056271926 -0.20882586 0.06466976 0.8858808 -0.3747284 0.6085405
-0.0820875 -2.3899746 -0.12877348 0.76049644 1.039701 0.9030152 -2.3903341 -0.5328484
0.771052 0.6620999 1.94743 -2.247481 -1.2923772 -0.38035253 0.16623169 0.92664266
-2.0553317 0.08415202 -0.27939463 -0.1806172 -0.22883315 0.082915284 0.3584424 0.83658093
-0.080890715 -2.7184432 -0.16628377 -0.23510115 0.091202945 0.12957363 -0.41730735 -0.13148092
-1.038586 -0.3807221 -2.2430487 0.82021946 0.102459244 0.62209827 -1.1432829 0.8811574

mamba.layers.0.mixer.dt_proj.bias f4 [64]
00000000: 5c63 eec0 a792 8ec0 a98c 42c0 b4d5 ebc0
00000010: 069a d2c0 6258 9ec0 48cf 18c0 3250 a9c0
00000020: bfb6 ddc0 dc81 aec0 eb80 65c0 7dae 0bc0
00000030: 9ed8 cac0 9c6d bfc0 19c9 8ac0 101a 96c0
00000040: 52e2 ebc0 6064 1cc0 2784 89c0 92d5 bac0
00000050: fcdb adc0 cf5c 8fbf d537 8cc0 1e11 98c0
00000060: 5a9c 92c0 5e79 02c1 5b00 d4c0 bea7 e2c0
00000070: 685b 95c0 eb86 bbc0 c807 06c1 5533 3cc0
00000080: edee 76c0 273a b8c0 0651 26c0 711b e3c0
00000090: 94eb 04c1 939e 92c0 ea29 13c0 bbd2 83c0
000000a0: 0611 0ec1 0086 66c0 28e9 25c0 bd34 d1c0
000000b0: 3c9e aac0 ff43 4dc0 0902 afc0 5bf2 50c0
000000c0: a4fe 44c0 b576 eec0 9705 f2c0 e8c9 a4c0
000000d0: e97e 46c0 d9a1 f5c0 ed82 5bc0 4062 c7c0
000000e0: eb2d 7cc0 efc6 59c0 a582 07c1 cb25 fabf
000000f0: 6bfa d4c0 6657 8ac0 0850 04c1 c542 55c0
-7.449629 -4.455402 -3.0398352 -7.369837 -6.5813017 -4.948289 -2.3876514 -5.2910395
-6.928558 -5.453352 -3.5859935 -2.182525 -6.3389425 -5.98213 -4.337048 -4.6906815
-7.371377 -2.4436264 -4.297382 -5.8385706 -5.4331036 -1.1200198 -4.3818154 -4.7520895
-4.581586 -8.154631 -6.6250434 -7.0829763 -4.667408 -5.8602195 -8.3769 -2.940633
-3.8583329 -5.7570987 -2.5986953 -7.0971 -8.307514 -4.581857 -2.2994332 -4.119474
-8.879156 -3.6019287 -2.5923557 -6.537688 -5.3318157 -3.2072752 -5.4689984 -3.2647922
-3.078042 -7.4519906 -7.5631824 -5.1496468 -3.101496 -7.676007 -3.429866 -6.2307434
-3.9403026 -3.402767 -8.469396 -1.9542783 -6.6555686 -4.3231688 -8.269539 -3.3322003

mamba.layers.0.mixer.out_proj.weight f4 [2, 64]
00000000: 00a8 d7b9 0038 bc38 3c40 6a3d e202 9b3d
00000010: f0c7 07bd c054 243c 7081 c3bd 3480 67bd
00000020: 1a04 9c3d 1829 e3bc b807 07bd 50ad 2b3c
00000030: 08bf 9fbc b635 debd feef 893d 00d6 72bc
00000040: c0a1 43bb 0058 21bb 2c54 86bd 1c27 ddbd
00000050: 54bb e83d 282a b33c c231 cfbd ecd2 27bd
00000060: 7252 a7bd aa65 9bbd 4efe be3d 1cff 773d
00000070: 88b6 c23d 2875 c43d c40a 35bd 50e3 a63d
00000080: a46c 0cbd 307d 933c 0099 c5bc c4c4 4fbd
00000090: 10b4 1a3d 00c6 9abd f0bf 283c 76d2 c33d
000000a0: 80d3 a9bc 38aa fbbc 7cd3 f6bd 149b 5d3d
000000b0: 9cb9 a8bd a049 cdbb 88fd ecbd 3011 9e3c
000000c0: bce3 63bd ae92 f33d 3e87 aa3d 1426 823d
000000d0: 0ce1 263d 9819 afbd 6e8e dfbd 20fe e43b
000000e0: 7872 f83c cc38 c0bd a4e7 69bd e02f 543d
000000f0: e440 083d 2034 71bd c89a 813c 48c1 df3d
00000100: 6059 bcbc 8238 f63d 2633 86bd 2cc3 dfbd
00000110: 2430 323d d85b f8bd 0c9b b3bd 9c80 33bd
00000120: b014 073d 264f f6bd c0af 91bc c019 56bc
00000130: 10f6 9dbc 0061 1c3a 000b 3d3c 667e f3bd
00000140: c832 c7bd f02d ce3c 3441 7a3d 2044 c63d
00000150: cc67 ff3d 4444 4bbd c42b 943d 2a34 b2bd
00000160: 5472 62bd 944e 493d f8e0 343d 90b5 d93c
00000170: 1046 d43d 30d4 c13c 0857 943c c236 bbbd
00000180: d201 c03d a4a4 b8bd 22a8 a6bd e428 63bd
00000190: e04f 5f3d 484e 923d 7033 56bd fc1f ecbd
000001a0: 0891 7bbd e0c2 79bc 34f7 bb3d feb5 953d
000001b0: f0eb 4e3c 4237 eebd c004 7ebb 9890 753d
000001c0: c459 213d 38a7 e0bc bed7 b5bd 3eaa e43d
000001d0: 7838 0a3d 8ece dcbd 70c0 263c 6cdf 95bd
000001e0: f838 1d3d 04b7 98bd 00e4 cdbd b484 a23d
000001f0: 5c68 7abd 9044 bd3c 20f9 a33d 70ef d9bd
-0.00041133165 8.9749694e-05 0.057190165 0.07568909 -0.03314966 0.010029972 -0.095461726 -0.05651875
0.0761797 -0.027729556 -0.032966346 0.010478333 -0.01950027 -0.10850088 0.06735228 -0.014821529
-0.002985105 -0.0024619102 -0.06559023 -0.10798475 0.11363855 0.021870688 -0.101169124 -0.040972635
-0.08170022 -0.0758775 0.093258485 0.060546026 0.09507471 0.09592658 -0.04419972 0.08148825
-0.034283295 0.01800403 -0.024120808 -0.05072476 0.037769377 -0.07557297 0.010299668 0.095616266
-0.020730734 -0.030720815 -0.12052056 0.054102972 -0.08238527 -0.0062648803 -0.11571795 0.019295305
-0.055637106 0.11893211 0.08326577 0.06354919 0.040741965 -0.085498035 -0.10915838 0.006988302
0.03032802 -0.09385833 -0.057105675 0.05180347 0.03326501 -0.0588876 0.015820876 0.10925537
-0.022991836 0.12022497 -0.065527245 -0.10925898 0.04350294 -0.12126893 -0.08769807 -0.043823823
0.032978714 -0.12026815 -0.017784 -0.013067663 -0.01928237 0.0005965382 0.011538267 -0.11889343
-0.09726483 0.02516839 0.06109734 0.096809626 0.124709696 -0.04962565 0.0723491 -0.08701356
-0.055284813 0.049147204 0.04415986 0.026575834 0.10364926 0.02366075 0.018107906 -0.091413036
0.09375347 -0.09015778 -0.081375375 -0.05545892 0.054519534 0.07143837 -0.05229515 -0.11529538
-0.06141761 -0.015244216 0.0917801 0.07310103 0.012629494 -0.11631633 -0.0038760155 0.05995235
0.039392248 -0.027423486 -0.0887904 0.111652836 0.03374526 -0.10781585 0.010177717 -0.07318005
0.038384408 -0.074567825 -0.10053253 0.07935467 -0.06113468 0.023103982 0.08006501 -0.10641372

mamba.layers.0.norm.weight f4 [2]
00000000: d84e a43e dda5 073f
0.32091403 0.5298746

fc.weight f4 [1, 64]
00000000: 09f5 c93d 16a8 ebbc 9102 82bd 541a 12be
00000010: 6851 2fb9 c2fc df3f c25c 6a3d 2fba c53d
00000020: 327a 7b3f d2cd fabd 230f 5fbd f21e dfbd
00000030: 1ec4 cc3d 9ef5 2ebd e320 1cbe f2b0 b9bd
00000040: ae18 573f 261c e9bb 946c 9e39 dfc7 debc
00000050: 134f cc3c fa49 1b3f 8241 6e39 ea0a 703c
00000060: c565 8c38 6623 9c3d 187a 27b4 d877 c33d
00000070: ec70 e4bc 7157 613f 6bc1 19bb 6595 213c
00000080: 6446 9d3d b123 1fb9 8cab 1abf 485c 8e3d
00000090: 5ba3 883d 9a96 5ebd 1c6a e7bb bff2 cbbd
000000a0: dd2e eebd 815a a4b8 8061 87bd 1d25 8abc
000000b0: 7301 debd d253 86bd 6f91 3d39 186e babc
000000c0: 499a c83d 6c20 bab1 53ae 493f 579c 123b
000000d0: 0612 d4bd f53a b8be 6b31 233d f1da 93b6
000000e0: 4f9e 383e 890a 8cbd 5a58 b13d b70a 8bbd
000000f0: f8c7 85bd bc37 f23d 560c a4bd bfeb f7be
0.0986119 -0.028766673 -0.06348146 -0.14267856 -0.00016719627 1.749901 0.057217367 0.09654652
0.9823333 -0.12246288 -0.054457795 -0.10894574 0.09998344 -0.042714708 -0.1524692 -0.09066953
0.84022033 -0.0071139513 0.00030217005 -0.027194915 0.02494005 0.60659754 0.00022721852 0.01465104
6.694676e-05 0.07623939 -1.5597504e-07 0.09544343 -0.027885877 0.8802405 -0.0023461233 0.009862279
0.076794416 -0.00015176718 -0.6041801 0.06951195 0.066717826 -0.054342844 -0.00706221 -0.099584095
-0.11630032 -7.836987e-05 -0.066103935 -0.0168634 -0.1084012 -0.06558956 0.00018078623 -0.022757575
0.097950526 -5.4169984e-09 0.7878162 0.0022371018 -0.10355 -0.3598248 0.03984205 -4.4064295e-06
0.1802914 -0.06837947 0.0865943 -0.06789153 -0.06532282 0.11827037 -0.080101654 -0.48422047
