models/classification/mamba_delV_1.0_trainDim_6_pN_100.0_vN_1.0_nonDim_False.pth (torch, 31970 bytes, 12 tensors)

mamba.layers.0.mixer.A_log f4 [48, 32]
000000 8f 13 82 3f e7 10 f2 3e a7 82 a4 3f 19 4a ad 3f
       1.0162219 0.4727852 1.2852372 1.3538238
000010 ca cd 4e 40 2a e0 fa 3f bb df 05 40 aa 13 84 40
       3.2313104 1.959966 2.0917804 4.1274004
000020 4f 2b 25 40 68 ea 06 40 a7 b8 3e 40 51 00 75 40
       2.5807683 2.108057 2.9800203 3.8281443
000030 7f f5 c7 3f 7e fa 38 40 95 5d 2b 40 1b 71 82 40
       1.5621794 2.8902888 2.6775868 4.076307
000040 07 2d 45 40 ec 11 80 40 bc 56 4f 40 16 2a 95 40
       3.0808733 4.0021877 3.2396688 4.6613874
000050 34 e7 8c 40 67 3b 73 40 2b c6 91 40 80 f5 8f 40
       4.403223 3.8005006 4.5554404 4.4987183
000060 1c 86 88 40 bc 9a 98 40 58 12 80 40 38 45 80 40
       4.266371 4.7688885 4.002239 4.0084496
000070 83 b6 86 40 a7 f5 8a 40 19 9e 94 40 2c 92 a7 40
       4.2097793 4.342487 4.644299 5.2365932
000080 69 f8 76 3e a2 c1 a9 be 5f a7 30 3f 82 37 b4 3f
       0.24118198 -0.33155543 0.6900539 1.407944
000090 20 58 9d 3f 4c e8 f1 3f e1 66 a7 3f 46 49 ec 3f
       1.2292519 1.8899016 1.3078271 1.8459861
0000a0 97 b3 8f 40 7f bb 94 40 db 90 cd 3f bd 32 8b 3f
       4.4906726 4.6478877 1.6059831 1.0874859
0000b0 5d 7e 50 40 c7 12 85 40 ae 52 37 40 3e 3f 90 40
       3.2577126 4.158542 2.8644214 4.50772
0000c0 92 ee 67 40 b5 22 25 40 22 3a 3f 40 d8 f7 8d 40
       3.6239362 2.5802433 2.9879231 4.4365044
0000d0 8a f4 42 40 17 72 4c 40 7e 9a 94 40 17 1b 82 40
       3.0461755 3.1944635 4.643859 4.065807
0000e0 00 3c 6e 40 1e fd 82 40 48 ff 6e 40 0b 8a 78 40
       3.722412 4.093398 3.7343311 3.8834255
0000f0 46 99 75 40 c9 bd 2d 40 bd ea 61 40 c1 ab 8f 40
       3.83748 2.7147086 3.5299523 4.489716
000100 1b 54 08 bf 56 70 a2 3f 30 52 b1 3f 53 69 c5 3f
       -0.53253335 1.2690532 1.3853207 1.5422767
000110 5f 26 88 3e 2a 25 18 40 f5 3f 08 40 07 90 5f 3f
       0.26591775 2.3772683 2.1289036 0.87329143
000120 7c 9a de 3f f8 10 46 3f f5 d5 33 3f 3a 4e 85 3f
       1.7390895 0.7736964 0.7024835 1.0414498
000130 c6 36 0d 40 4d f1 b1 3f 1e 02 06 40 e4 93 67 40
       2.206468 1.3901764 2.0938792 3.6184015
000140 04 0c c8 3f fd 36 ff 3f 33 21 1b 40 25 bc 2e 40
       1.5628667 1.9938656 2.4239013 2.7302334
000150 db 98 2b 40 8f ec 1a 40 a0 71 7d 40 98 ff 4e 40
       2.6812046 2.4206884 3.9600601 3.2343502
000160 f6 62 41 40 c7 60 47 40 79 e6 3e 40 f3 e1 34 40
       3.021665 3.1152818 2.982817 2.8262908
000170 1c 16 40 40 3e 53 10 40 4f ed 39 40 49 7e 7e 40
       3.0013494 2.2550807 2.9051092 3.9764578
000180 d2 e4 f9 be f7 4a 24 3f 48 34 9f 3f f2 64 b3 3f
       -0.4880739 0.6417689 1.243783 1.4015181
000190 03 6a e7 3f 87 ea 1c 40 f3 f1 16 40 6b c2 3b 40
       1.8079227 2.4518144 2.3585174 2.9337413
0001a0 91 07 12 40 cf 37 18 40 43 ed 29 40 e4 dc 52 40
       2.2817118 2.3784063 2.6551063 3.294732
0001b0 b3 f0 51 40 5f d0 53 40 8e e8 83 40 a2 11 80 40
       3.280316 3.309593 4.122138 4.0021524
0001c0 b1 3b 5d 40 fb b9 63 40 79 e9 8a 40 31 cb 8e 40
       3.4567683 3.5582263 4.341 4.4623036
0001d0 e7 3b 6e 40 d4 8c 8d 40 5e 7d 8a 40 24 74 7e 40
       3.7224061 4.423441 4.3278036 3.9758387
0001e0 7e 2b 93 40 75 2d 96 40 63 73 95 40 8d 90 9f 40
       4.599059 4.693049 4.6703353 4.9863954
0001f0 e8 58 8b 40 cb 97 97 40 2f 8f 9b 40 f4 ad 92 40
       4.354603 4.7372794 4.8612285 4.5837345
000200 7f 26 c9 3e eb c7 c4 3e 2a 71 66 3f 90 0d 1e 3f
       0.39287183 0.38433775 0.90016425 0.61739445
000210 b1 54 a0 3f a2 72 e7 3f 63 0a c0 3f e9 67 db 3f
       1.2525846 1.8081858 1.500317 1.7141086
000220 7e c1 95 40 7c b7 9c 3f dd 88 85 3f c5 19 d1 3f
       4.6798697 1.2243495 1.0432392 1.6335989
000230 eb f7 49 40 70 4e 2d 40 e7 fd 9f 40 68 40 94 40
       3.1557567 2.7079124 4.999744 4.632862
000240 dc 47 eb 3f 27 ef 09 40 ff 09 87 40 07 ee 96 40
       1.8381305 2.1552217 4.21997 4.716556
000250 0d da 96 40 05 27 88 40 f7 95 82 40 6b 1a 81 40
       4.7141175 4.254763 4.0808063 4.034475
000260 a0 88 a7 40 ca a5 89 40 da 2c 9c 40 e7 d6 8e 40
       5.235428 4.301488 4.880475 4.463733
000270 9e 86 96 40 a7 bb 6a 40 8c e6 a8 40 1f 96 94 40
       4.703933 3.6677034 5.278143 4.6433253
000280 e0 46 e5 3f 93 22 4b 3f a8 67 6c 3f ce 8f 6c 3f
       1.7912254 0.7934963 0.92345667 0.9240693
000290 33 2c 2e 40 43 a6 d9 3f e1 8b 48 40 12 a0 3c 40
       2.7214477 1.7003864 3.1335375 2.94727
0002a0 f8 d2 18 40 63 0d 7a bf 9c 8e 9d 40 e1 73 21 40
       2.3878765 -0.97676677 4.9236584 2.5226977
0002b0 76 ac 65 40 ef 67 41 40 99 08 54 40 2a 8b 35 40
       3.5886512 3.0219686 3.3130248 2.836619
0002c0 ee e5 4a 40 2f 5b 53 40 86 43 53 40 df 8e 81 40
       3.1702838 3.3024404 3.3009963 4.0486903
0002d0 65 2d 24 40 b3 81 46 40 b6 6c 1b 40 43 72 61 40
       2.5652707 3.1016662 2.4285102 3.522599
0002e0 ac f5 44 40 6a a6 72 40 1a dd 85 40 e9 6b 51 40
       3.0774946 3.791407 4.18324 3.2722113
0002f0 25 35 ec 3f 6c 57 62 40 89 1d 4d 40 4c 9d 82 40
       1.8453718 3.5365858 3.2049277 4.0817013
000300 1d 44 48 3f 52 74 dd be ea 33 ea 3d 1d f9 53 3f
       0.7822893 -0.43252808 0.11435683 0.8280199
000310 41 97 4e 40 85 7d dc 3f 18 17 0e 40 85 23 5e 40
       3.2279818 1.7225806 2.2201595 3.470918
000320 39 b3 96 40 34 77 69 40 cf 87 5f 40 04 b2 79 40
       4.709378 3.6479006 3.492664 3.9014902
000330 71 91 8d 40 6d 2d 89 40 b4 f4 8d 40 35 3f 83 40
       4.424004 4.286795 4.436121 4.1014657
000340 6b bb 9c 40 77 58 35 40 f7 47 6a 40 62 50 90 40
       4.897878 2.8335245 3.6606424 4.5098124
000350 15 c2 96 40 eb 16 67 40 64 82 74 40 57 18 89 40
       4.7111917 3.6107738 3.8204584 4.284221
000360 b0 11 8e 40 64 4b 91 40 be 38 94 40 01 1e 77 40
       4.439659 4.540453 4.6319265 3.8612063
000370 1e 3b 8f 40 81 3e 94 40 12 7f 93 40 cd 0f a8 40
       4.4759665 4.63263 4.6092615 5.251929
000380 f7 97 a1 be 2f 5b 6a 3d c1 f5 05 3f e9 85 63 3f
       -0.31561252 0.057215866 0.52328116 0.88876206
000390 2c 9d 52 40 96 b7 42 40 f1 0a ad 3f 5f 4e 05 40
       3.290843 3.0424552 1.3518964 2.0829084
0003a0 df 4b 1c 40 66 d2 25 40 19 c3 f1 3f ae 32 46 40
       2.4421308 2.5909667 1.8887664 3.0968432
0003b0 d4 b0 cb 3f 68 1d 4b 40 59 ed e3 3f 9a 6a dc 3f
       1.5913339 3.1736698 1.7806808 1.7220032
0003c0 87 4c 09 40 93 f9 31 40 4f de 2a 40 ef 3f 87 40
       2.1452959 2.7808578 2.6698186 4.2265544
0003d0 02 99 df 3f 1b f7 e5 3f 07 75 d9 3f 70 4c 2c 40
       1.7468569 1.7966036 1.6988839 2.6921654
0003e0 39 6d 21 40 1d 17 86 40 9e 6c 5a 40 6b 2a 0e 40
       2.5222914 4.1903214 3.4128795 2.221339
0003f0 97 b8 b4 3f 9f 19 5c 40 bb 46 87 40 43 7a 0d 40
       1.4118832 3.4390638 4.227384 2.2105873

mamba.layers.0.mixer.D f4 [48]
000000 1e b8 18 3f 44 07 6f 40 3b c8 b0 be a0 35 24 be
       0.5965594 3.7348185 -0.34527764 -0.16036081
000010 9d ac 36 40 c7 e1 14 3f 29 95 a3 3f 28 53 f9 3f
       2.8542855 0.5815701 1.2779895 1.9478502
000020 f2 2a 13 3f 63 62 90 3e f0 29 78 3f 77 e7 5b be
       0.57487404 0.28200063 0.9693899 -0.21475016
000030 cc 4b ca 3f 5e c8 87 3d 49 dd 21 3f 03 05 7b 3f
       1.5804381 0.06630014 0.6322828 0.9805452
000040 91 c9 86 40 10 a6 53 3e 26 4c 80 3e d5 ea 99 3f
       4.2121053 0.20668817 0.25058097 1.202479
000050 81 98 46 bf 9c ba 69 3f 9f 69 ea 3e 09 fd 90 40
       -0.7757645 0.9130037 0.45783707 4.530888
000060 a6 79 aa bd 23 e8 b1 3f 87 8d 9b 3f 7b 52 30 40
       -0.08323984 1.3898968 1.2152566 2.7550342
000070 1e 39 62 40 60 60 b6 3f 01 db 13 40 a1 cc 70 3f
       3.5347362 1.4248161 2.310242 0.9406224
000080 04 53 3a 3e 27 5b 78 3f 19 ae bf 3e 86 7b bb 40
       0.1819573 0.9701409 0.37437513 5.8588285
000090 e7 4e 8d 3f 0e 53 9b 3f bc 3e 45 40 69 df 91 3f
       1.1039704 1.2134721 3.081954 1.1396304
0000a0 3e 4b aa 3e 37 e7 9d 40 40 e5 f6 3f c9 58 06 40
       0.3326053 4.9344745 1.9288712 2.099169
0000b0 81 c7 58 3e 68 71 71 3e e1 c8 47 40 88 53 74 be
       0.21169855 0.23578417 3.1216357 -0.2385999

mamba.layers.0.mixer.D_SSM f4 [48]
000000 1e b8 18 3f 44 07 6f 40 3b c8 b0 be a0 35 24 be
       0.5965594 3.7348185 -0.34527764 -0.16036081
000010 9d ac 36 40 c7 e1 14 3f 29 95 a3 3f 28 53 f9 3f
       2.8542855 0.5815701 1.2779895 1.9478502
000020 f2 2a 13 3f 63 62 90 3e f0 29 78 3f 77 e7 5b be
       0.57487404 0.28200063 0.9693899 -0.21475016
000030 cc 4b ca 3f 5e c8 87 3d 49 dd 21 3f 03 05 7b 3f
       1.5804381 0.06630014 0.6322828 0.9805452
000040 91 c9 86 40 10 a6 53 3e 26 4c 80 3e d5 ea 99 3f
       4.2121053 0.20668817 0.25058097 1.202479
000050 81 98 46 bf 9c ba 69 3f 9f 69 ea 3e 09 fd 90 40
       -0.7757645 0.9130037 0.45783707 4.530888
000060 a6 79 aa bd 23 e8 b1 3f 87 8d 9b 3f 7b 52 30 40
       -0.08323984 1.3898968 1.2152566 2.7550342
000070 1e 39 62 40 60 60 b6 3f 01 db 13 40 a1 cc 70 3f
       3.5347362 1.4248161 2.310242 0.9406224
000080 04 53 3a 3e 27 5b 78 3f 19 ae bf 3e 86 7b bb 40
       0.1819573 0.9701409 0.37437513 5.8588285
000090 e7 4e 8d 3f 0e 53 9b 3f bc 3e 45 40 69 df 91 3f
       1.1039704 1.2134721 3.081954 1.1396304
0000a0 3e 4b aa 3e 37 e7 9d 40 40 e5 f6 3f c9 58 06 40
       0.3326053 4.9344745 1.9288712 2.099169
0000b0 81 c7 58 3e 68 71 71 3e e1 c8 47 40 88 53 74 be
       0.21169855 0.23578417 3.1216357 -0.2385999

mamba.layers.0.mixer.in_proj.weight f4 [96, 6]
000000 22 ec 6a 3e 0b 77 c4 bd 5e 25 8d bf c5 0d a3 be
       0.2294164 -0.09593018 -1.1027029 -0.31846443
000010 14 75 1a bd 8b 70 20 be fa 0a f4 be 42 c4 87 3e
       -0.03770931 -0.15667932 -0.47664624 0.2651692
000020 74 9b 47 bf 7d 3a 33 3f 73 1c 2a 3f ea ae 94 3e
       -0.7797158 0.7001112 0.6644966 0.290397
000030 51 fb 2c be f3 cb 7b 3e 12 44 56 bf e2 59 8d bf
       -0.16892745 0.24589519 -0.8369762 -1.1043055
000040 b4 c5 5f bf cd 92 5f 3e a1 a7 b8 3d d9 71 a5 bc
       -0.87411046 0.21833344 0.09016348 -0.020195888
000050 56 fc 8e 3f d6 08 81 be 96 0e 82 3f 53 b0 c1 be
       1.1170757 -0.25202054 1.0160701 -0.37829837
000060 a8 80 46 bf 5e 85 da 3f 1c ce 44 c0 46 91 68 bf
       -0.77540064 1.707195 -3.07508 -0.9084667
000070 07 78 4d 3e 1b a8 00 c0 31 91 5c bd cd 2e a5 be
       0.20065318 -2.0102603 -0.053849403 -0.3226227
000080 65 9a 84 be 05 e4 4b 3f 6e ce 8f 3f 9e 8b 62 bf
       -0.25899044 0.79644805 1.1234872 -0.8849429
000090 9d 37 31 3e 3e 7d 53 3f b0 4b 93 bf 11 7d 01 3f
       0.17306371 0.8261298 -1.1507473 0.5058146
0000a0 1b 3a bc 3e ba 39 b7 3e 43 3b 3f bd d3 7e 47 3f
       0.3676308 0.3578623 -0.046687376 0.77927893
0000b0 e4 63 59 bf 80 fe 06 3d e6 37 fc be 22 e1 25 bf
       -0.84918046 0.032957554 -0.49261397 -0.6479665
0000c0 f5 e3 48 bd 7d 25 2a 3f 16 3b d1 3e 5e 53 05 bf
       -0.04904552 0.6646345 0.40865391 -0.52080333
0000d0 4a 53 c4 be 75 84 9f be fd 5a 03 3f 44 f2 57 be
       -0.38344795 -0.31155744 0.5131071 -0.21088511
0000e0 05 5e 96 3f b4 a7 16 bf 3c 1b a2 3e 8e 7e 91 3f
       1.1747442 -0.58849645 0.31661403 1.1366746
0000f0 39 52 02 bf 81 59 a1 be e9 22 92 3f 6a 6b 59 3e
       -0.5090671 -0.315136 1.1416904 0.21232381
000100 ea e2 dd be 71 ba 83 3f fa 51 26 3f 4c 4c 98 be
       -0.43337184 1.0291272 0.64968836 -0.2974571
000110 1d 8b e6 3e 1d 8f 8d 3e b6 28 c1 3e 17 05 00 bf
       0.4502801 0.2764825 0.37726372 -0.50007766
000120 4a 52 3c 3e bd a5 ef bc 2f d2 48 3f c3 30 b2 be
       0.18390766 -0.029253835 0.78445715 -0.34802827
000130 b2 5f 1a be 4b 67 04 be c1 00 71 3e 28 86 7f be
       -0.15075567 -0.12930028 0.23535444 -0.2495352
000140 99 b9 ab bf 29 73 c8 3e e2 06 05 3f 4e 13 9b bd
       -1.3416015 0.3915036 0.5196363 -0.075720415
000150 72 ae 07 be b3 bd aa 3d f1 f2 0f 40 0e e8 0d bf
       -0.1325014 0.083369635 2.249203 -0.5543221
000160 0b 9d 0d be 90 24 1d 3e 64 14 00 3d 1a 40 4a be
       -0.13829438 0.15345979 0.031269446 -0.19751015
000170 f6 4c bb 3e 0c 64 b3 3d 58 0f 2c 3f 6b 96 ad be
       0.36582154 0.08759317 0.6721091 -0.33903822
000180 74 ad 29 3f 07 1a 09 bf 37 04 68 3f 17 50 29 bf
       0.66280293 -0.5355534 0.9063143 -0.6613783
000190 38 48 19 bf 9b 20 f2 be 7a 22 f6 3d e2 cd 0c 3e
       -0.5987582 -0.472905 0.12018295 0.13750413
0001a0 1a af 07 c0 bc ae 2d be a4 23 11 bf 57 5a f2 3e
       -2.1200624 -0.16961187 -0.5669501 0.4733455
0001b0 62 4f f6 3e 7c 9a c6 3e 2a 3a e1 bd 69 e6 cc bf
       0.4810744 0.38789737 -0.10997422 -1.6007816
0001c0 88 0e 44 3f 4b 8d 22 bd b9 b2 60 3e a0 99 1a be
       0.7658467 -0.03968553 0.21943177 -0.15097666
0001d0 0f 6f 93 bb 87 cf 04 3e f9 fe 04 3e 05 c2 0e be
       -0.004499323 0.1296979 0.1298789 -0.139412
0001e0 6b cf ae bd a5 30 a5 be 0b 88 3a 3e 0d ea 3e 3e
       -0.085356556 -0.32263675 0.18215959 0.18643971
0001f0 94 34 3d be d2 8d 01 bf 25 62 81 be d5 75 f0 be
       -0.18477088 -0.50607026 -0.2527019 -0.469649
000200 79 3c 7f be 51 e2 81 3f 09 4c 63 3e de d8 72 bf
       -0.24925412 1.0147191 0.22196974 -0.94862163
000210 af 1f d2 bd 9b 7d 99 be 59 25 ba be d0 79 85 bf
       -0.102599494 -0.29978642 -0.3635662 -1.0427799
000220 ae 86 c0 3f 51 47 5f 3d 5b bf 95 3e be af a5 be
       1.5041101 0.054511372 0.29247555 -0.32360643
000230 d2 6f d8 3f 2b a4 97 bf b2 f1 56 3e 1b ce 82 3f
       1.6909125 -1.1846975 0.20990637 1.0219148
000240 89 23 15 be 9d e6 0f bf b2 01 1c be 39 c4 5f 3e
       -0.14564337 -0.5621126 -0.15235022 0.21852197
000250 aa 41 88 3f c4 a3 18 be ea 17 87 bf 59 13 ae 3e
       1.0645039 -0.14906222 -1.0554173 0.33999136
000260 70 fd 69 3e fa f3 91 3e 18 fd 35 be 28 c9 58 bf
       0.22850585 0.28506452 -0.17772329 -0.8468194
000270 e9 33 cb bd 3f f6 8f 3f 90 22 16 bf e3 bf 1b bf
       -0.099220105 1.1247023 -0.5864649 -0.6083967
000280 8f 11 50 be 42 8c a1 be ee 33 1c be ad f6 6c bf
       -0.20319198 -0.3155232 -0.15254185 -0.925639
000290 c3 90 4d c0 9a 8f b1 be 4e 65 6a be fb de b2 3c
       -3.2119606 -0.34679872 -0.22890207 0.021834841
0002a0 e0 e1 9b be 29 9b a4 3e ae 71 5f be b7 53 42 3e
       -0.30445766 0.32149628 -0.21820709 0.18977247
0002b0 65 00 f3 3d fd f2 3d bf 68 b0 d4 3d c6 63 03 bf
       0.118653096 -0.74198896 0.10385209 -0.5132412
0002c0 86 63 a3 bf d6 4a 6a bf c7 81 91 3e 0a 45 cf bd
       -1.2764747 -0.9152044 0.28419325 -0.1012059
0002d0 cb 95 24 bf 83 b2 5d bd 78 5d 3e 3f e3 5a 5a 3e
       -0.64291066 -0.05412532 0.7436137 0.21323733
0002e0 f3 d9 3c be f2 60 03 bf db fc 4a 3f f0 d9 a3 3e
       -0.18442516 -0.513198 0.79292077 0.3200221
0002f0 e4 11 93 3d a3 e3 cf 3c fd 2d 28 3f c8 4f 42 bf
       0.07181147 0.0253771 0.6569517 -0.75902987
000300 9a ed 95 3d c8 b3 2b bf 81 3b e4 3e c6 97 41 3f
       0.073207095 -0.670712 0.44576648 0.7562221
000310 6b 96 14 bf 8e e7 d4 3e 21 e9 bc 3e 3e 2d 04 bf
       -0.5804202 0.41582912 0.36896613 -0.51631534
000320 2e b1 21 be ef 4a 5e bf 11 cc a0 bd 7a 8f 07 3e
       -0.15790245 -0.8683309 -0.078514226 0.13238326
000330 2e 65 10 bf d2 11 2f bf ca 3e 2f 3f 45 07 39 bf
       -0.5640439 -0.68386567 0.68455184 -0.7227672
000340 a2 58 a1 3d df 80 ee bc 40 be a4 bf 12 bd ad bf
       0.078782335 -0.029114185 -1.287056 -1.3573325
000350 a5 79 26 be 57 10 fa bf 6b 99 9a be 22 cf a9 3f
       -0.16257341 -1.9536237 -0.30195174 1.3266337
000360 88 d5 b8 3c 8e 63 86 3e 75 dd 25 3f 7b 8d b2 bf
       0.022562757 0.2624783 0.6479104 -1.3949426
000370 0e de a5 be a1 52 da be 03 11 6f bd 96 85 73 bd
       -0.32395977 -0.42641166 -0.058365833 -0.05945357
000380 1f 7a 72 3d c6 26 8a 3f 4d fa 51 bf 87 bc 8e be
       0.059198495 1.0793083 -0.82022554 -0.2787821
000390 5e b3 81 3f 42 84 58 be 8c d1 cc 3f 1e 42 74 bf
       1.0132864 -0.21144202 1.6001449 -0.95413387
0003a0 fe 19 0b bf e7 39 c2 3e 78 17 18 bd d4 97 55 bd
       -0.54336536 0.379348 -0.037131757 -0.052146748
0003b0 af 97 34 bf 0c e3 47 3d 61 bd 88 3d 3f a1 f7 3e
       -0.7054395 0.048800513 0.06676746 0.48365209
0003c0 bd 89 7b bd d1 52 2d be e3 58 15 3f 17 ab e7 bf
       -0.061410654 -0.16926123 0.58338755 -1.8099087
0003d0 66 0b 8e bc c1 f5 ec 3e f3 00 ff 3f 4f 43 1d bf
       -0.01733942 0.46281245 1.9922165 -0.6143083
0003e0 df 81 b6 3f 29 2b ce be 60 06 c0 be fd da 8e 3f
       1.4258384 -0.40267304 -0.37504864 1.116058
0003f0 9e 77 e9 bd f4 53 62 bd 34 2b a7 bd 76 9c a0 bf
       -0.11399768 -0.055255845 -0.08162537 -1.2547748

mamba.layers.0.mixer.conv1d.weight f4 [48, 1, 16]
000000 b8 c2 f3 be ff dd 6a be 52 c0 92 bd 23 9b 4d be
       -0.47609496 -0.22936247 -0.071655884 -0.20078711
000010 4b 8a 2b 3e 7f 88 3e 3d d8 13 86 3e 61 5d 8a 3e
       0.16751973 0.04651689 0.26187015 0.27024367
000020 ca 88 61 bd 76 56 9f 3d 15 a7 ab 3e d5 d7 20 3e
       -0.055062093 0.07780163 0.3352591 0.15707333
000030 a1 01 08 3e 04 5d 0c be d4 07 5d be 35 50 97 be
       0.13281871 -0.13707358 -0.21585017 -0.2955338
000040 90 3c d2 be 90 ef cd be 6d 02 87 be 78 d9 fb bd
       -0.4106183 -0.40221834 -0.26369038 -0.12297338
000050 95 1a 5b 3e e6 f3 af 3e 7a 88 e2 bf a9 4b 8b bf
       0.21396859 0.34365767 -1.7697899 -1.0882465
000060 a9 fc c1 be 01 48 ac bb 43 8f bc 3e 6a 8f 4c 3f
       -0.37888077 -0.005257607 0.3682805 0.7990633
000070 6e d3 9a 3e e0 e4 1c 3e 48 23 9f 3e 87 9a f4 be
       0.30239433 0.15321684 0.31081605 -0.47774145
000080 5e e4 28 be db 1d c7 3d c6 9d 84 be 7d c7 9f 3d
       -0.16493365 0.09722491 -0.25901622 0.07801721
000090 a0 14 78 be 1c 99 80 be 32 13 2d bf ab 72 c1 be
       -0.24226618 -0.25116813 -0.67607415 -0.37782797
0000a0 2c f9 99 be b9 4d 0f 3e ef 99 aa 3e 4c cc 16 3f
       -0.30072916 0.13994493 0.33320567 0.5890548
0000b0 ec 8d 10 3f ef dd f6 3e f0 43 31 3e 8a 0d 17 3e
       0.56466556 0.48216197 0.17311072 0.14751258
0000c0 7b ce 30 bf 75 94 ef be b0 3a 98 be 67 b6 72 3e
       -0.69065064 -0.4679295 -0.29732275 0.23702393
0000d0 75 82 3c 3e 69 22 ab 3d 5a d2 0e be e5 98 d1 bd
       0.1840914 0.083561726 -0.1394743 -0.102342404
0000e0 55 f7 73 be a5 d3 a6 be b6 54 c1 be ef f1 93 be
       -0.23824818 -0.32583347 -0.37759942 -0.28895518
0000f0 f1 85 d6 bb d9 eb 97 3e 16 90 d5 3e 93 59 1d 3f
       -0.006546729 0.29672125 0.4171149 0.61464804
000100 01 53 8b 3d c5 37 95 3e e8 12 f9 3e a9 b1 1f 3f
       0.06802941 0.2914411 0.48647237 0.6238046
000110 c1 cc b0 3e a4 27 b5 3e 6b 0a 3e c0 54 27 f6 bf
       0.34531215 0.35381806 -2.9693859 -1.9230752
000120 c9 95 c3 bf c0 75 30 bf 29 a0 aa bd cd f8 17 3f
       -1.5280086 -0.6892967 -0.083313294 0.59364015
000130 13 39 1a 3f e2 f7 72 3f 9e 89 17 3f 48 55 32 3f
       0.6024334 0.9490949 0.5919436 0.6966138
000140 93 e4 f7 3e 2b 47 28 3f ad 61 08 3f 90 11 55 3f
       0.48416576 0.65733594 0.5327404 0.83229923
000150 01 ef 0b 3f 2b 03 97 3e ac f4 74 3c c3 6b dc be
       0.54661566 0.29494604 0.014950912 -0.43050966
000160 a7 3b 91 be 99 f7 d6 bd c3 f7 af 3d db 5f 83 3e
       -0.28365824 -0.10496444 0.08592179 0.2565907
000170 00 0a a2 bd 99 f0 d7 3d c9 ee 7f bc b7 93 a3 be
       -0.079120636 0.10543937 -0.015620896 -0.31948635
000180 b3 d1 81 be 0d 73 a0 be ae db 60 bf 0c fb a7 bf
       -0.253553 -0.31337777 -0.87835205 -1.3123488
000190 0d 4f a4 bf a0 f9 b8 bf 6d 76 1b bf 4f 10 a5 be
       -1.2836624 -1.445118 -0.6072758 -0.32239005
0001a0 fc 1b ea be 94 d6 3b be 73 8c d9 bc 4e 33 67 3d
       -0.45724475 -0.18343574 -0.02655623 0.056445412
0001b0 2b 14 f5 3d 01 e2 9e be 56 c9 9d be ef 30 e0 be
       0.11966737 -0.31031802 -0.3081767 -0.43787333
0001c0 71 bb 38 bf 02 04 36 bf 80 0c e0 be db 90 0e bf
       -0.7216101 -0.71099865 -0.43759537 -0.5568978
0001d0 c6 a2 2d be 9b 51 2e 3f 8d 8d 7b bf 03 87 8c bf
       -0.16956624 0.6809327 -0.98262864 -1.0978702
0001e0 af ec 89 bf 7e 22 b1 be c6 12 e3 3c e5 42 38 3e
       -1.0775355 -0.34596628 0.027718913 0.17994268
0001f0 96 86 fe 3d c0 72 38 3e 67 6c 58 3d 13 de 0a bf
       0.12428014 0.18012524 0.052837756 -0.5424511
000200 48 0f 80 bf a9 d6 26 bf df 0f 13 bf 9d 8e 20 bf
       -1.0004663 -0.65171295 -0.5744609 -0.6271761
000210 bf ad 81 bf 8a a4 3d bf ea b4 30 bf b2 42 2c bf
       -1.0131148 -0.7407919 -0.6902605 -0.6728927
000220 61 29 fc be b3 13 44 bf 17 3f 8d be 79 bf 04 bf
       -0.4925032 -0.7659256 -0.27587196 -0.51854664
000230 ea 7c 49 bd 8d 67 93 be 3e de 3a be bb 8a 07 be
       -0.049191393 -0.2878994 -0.18248841 -0.13236515
000240 44 48 e2 be 3e a1 ab be 17 26 48 be 14 a7 b9 3e
       -0.4419576 -0.33521456 -0.1954578 0.36260283
000250 3c 23 74 3f 60 cd a4 3f 7c be 91 bf 8f 9f 39 bf
       0.95366263 1.2875175 -1.1386256 -0.7250909
000260 75 6c 0b bf 85 a3 24 3e f8 d6 42 3e da f1 a7 3e
       -0.5446237 0.16078003 0.19027317 0.32801706
000270 c2 99 1f 3e fa 2c 0f 3e 01 f9 e9 3d a6 92 83 bd
       0.15585998 0.13982001 0.11424447 -0.06424455
000280 f4 75 e9 3e c0 4e e4 3e a0 00 8a 3f ab 4b 76 3f
       0.45597804 0.4459133 1.0781441 0.9620921
000290 e8 c4 96 3f 94 d0 cd 3f 77 5f c7 be 23 98 1f bf
       1.1778841 1.6079278 -0.3894002 -0.6234152
0002a0 4d f0 07 bf d5 98 3e be ac f9 85 3e 7b ba 1c 3f
       -0.53101045 -0.18612988 0.26167047 0.61222047
0002b0 d4 4f 18 3f 68 67 42 3f 07 8f a4 3e 67 8c 1a 3e
       0.5949681 0.75939035 0.3214037 0.15092622
0002c0 5e a7 72 be 5a 9b 62 3f a3 30 4b 3f 2b 6a 28 3f
       -0.23696658 0.885183 0.7937109 0.65787
0002d0 b2 30 75 3f e5 61 3e 3f 10 41 8d 3e 7f 7e f6 3d
       0.9577743 0.74368125 0.275887 0.12035846
0002e0 ab 0a ff be b6 05 1f bf 07 d4 fe be f3 e0 8f be
       -0.49812827 -0.6211809 -0.4977114 -0.2810131
0002f0 68 04 15 bf ee af 12 bf a2 e1 24 bf 5e 89 8b bf
       -0.5820985 -0.572997 -0.6440679 -1.0901296
000300 a4 d8 97 3d b4 38 8f 3e bc ca ed 3d d1 71 8a 3e
       0.07414368 0.2797295 0.11610934 0.2703996
000310 f1 fd dd 3e aa 74 9b 3e 96 bd 17 bf b5 87 89 be
       0.43357804 0.30362445 -0.5927366 -0.2686135
000320 6d 14 bc be 31 5f f6 3b 21 83 62 be b0 08 ea 3d
       -0.36734334 0.007518672 -0.22120334 0.11427438
000330 b5 f0 be 3d 19 6c 8b 3d 02 17 78 3d a5 0f 8e 3e
       0.09323255 0.06807727 0.060568817 0.2774631
000340 b2 9b 0a 3f 69 22 c4 3e b4 eb a2 3e 78 13 76 3e
       0.5414382 0.38307503 0.31820452 0.24030864
000350 46 31 11 3e 85 dc a3 bd 65 ad 57 bf 43 23 51 be
       0.14178953 -0.08001045 -0.84248954 -0.20423608
000360 99 81 82 be a1 09 3d 3e 4f 91 2e 3f f6 14 16 3f
       -0.254895 0.18460704 0.68190473 0.58625734
000370 5f 0d 99 3e 22 84 69 3e 3f cb 62 3e 2e 73 09 bd
       0.29893014 0.22804311 0.22147845 -0.03355711
000380 58 b2 cd be 74 84 e8 bd 89 82 4b 3e 89 5e fb 3e
       -0.40175128 -0.113533884 0.19874014 0.49095562
000390 b3 8a 16 3f 02 d9 c4 3e ce cb ab be 66 84 a9 be
       0.5880539 0.38446814 -0.33553928 -0.33108824
0003a0 dd 82 c0 bd bc 15 ac 3e 88 88 3e 3d bb 54 a0 3e
       -0.0939996 0.33610332 0.046516925 0.31314644
0003b0 6b 51 01 3e 5f 71 ca 3e 7c bf 13 3e 75 6c 0f bd
       0.12628715 0.3953962 0.14428514 -0.035015542
0003c0 d7 91 b7 be e0 60 30 be 20 c0 26 3d df b5 54 3e
       -0.35853454 -0.17224455 0.04071057 0.20772503
0003d0 51 9d 68 3b 01 20 03 3f 08 f4 b2 be cb c1 88 3d
       0.0035494159 0.5122071 -0.34951806 0.06677588
0003e0 7e 26 11 be 90 d9 b3 bc 78 7d 96 be b9 7f ab 3d
       -0.1417484 -0.021954328 -0.293926 0.083739705
0003f0 b6 bf 3e 3e 2a b0 b5 3e 80 f7 d1 3e 02 3e 07 3f
       0.1862782 0.35485965 0.4100914 0.5282899

mamba.layers.0.mixer.conv1d.bias f4 [48]
000000 2a 9a 8b bf 61 e8 90 bd d5 a2 1d bf 32 a8 90 bf
       -1.0906422 -0.07075573 -0.61576587 -1.1301329
000010 49 1b 28 bf ec 5c 76 bf 34 db 52 bf 7d 71 30 be
       -0.65666634 -0.9623554 -0.8236573 -0.17230792
000020 82 22 da be 2f 11 54 be bf 9c 85 be 40 6e 02 be
       -0.42604452 -0.2070968 -0.2609615 -0.1273737
000030 3f d8 b0 bf 4c 5d 67 bd 28 c4 9a be 42 8e 64 3d
       -1.3815993 -0.05648546 -0.3022778 0.05579973
000040 65 f1 95 be 16 b4 4b bf b6 96 95 bf a7 71 19 be
       -0.29285732 -0.79571664 -1.1686618 -0.14984761
000050 f0 e4 4b bf 32 bb 99 be 8c cb 24 3e 63 d4 a9 be
       -0.79646206 -0.3002563 0.16093272 -0.3316985
000060 8b 4a 54 be 8c 68 95 3d 7c e4 e1 bf fa 62 11 bf
       -0.20731561 0.07295331 -1.7647853 -0.5679165
000070 e1 16 0a bf 6e d9 19 3e ec a9 1c bf d8 89 30 bf
       -0.5394116 0.15024349 -0.6119678 -0.6896033
000080 9c 83 6e bf 38 90 ee 3d 33 20 b6 3d 4d e3 4d 3e
       -0.9316957 0.11648601 0.0889286 0.2010624
000090 59 b4 56 3e f4 70 0b bf 4e 2f 15 be 42 98 3d be
       0.20967235 -0.5446923 -0.14568827 -0.18515113
0000a0 3a 9a b8 be 7b 26 38 3f 7e 88 5b bc 6d a7 22 3e
       -0.36055166 0.71933717 -0.0133992415 0.1588418
0000b0 43 42 94 be 13 d4 d5 be 1f 7e 66 bf 03 57 e9 be
       -0.28956804 -0.41763362 -0.90036196 -0.45574197

mamba.layers.0.mixer.x_proj.weight f4 [65, 48]
000000 44 40 ee 3c 5e be 26 3e fc a3 8c be bf f9 54 be
       0.029083379 0.16283557 -0.2746886 -0.20798396
000010 c9 21 18 bf ef 3d ad be 1c 81 4b be 1f 0b cb 3c
       -0.5942655 -0.33836314 -0.1987347 0.024785576
000020 28 83 85 3e 7b a3 aa 3d 38 db 86 3e ab 7d b2 bd
       0.26076627 0.08331963 0.26339126 -0.087153755
000030 2c 64 88 be 6f ba f2 3e e8 49 4d be 6f b8 99 be
       -0.26638925 0.47407863 -0.20047724 -0.30023524
000040 f7 ff 47 be de 12 31 be 89 2c 36 3f aa 96 98 bd
       -0.19531237 -0.17292354 0.71161705 -0.07450612
000050 6e d0 f8 bd 48 0e 0e be 74 aa 32 be d4 93 82 be
       -0.1214913 -0.13872635 -0.17447835 -0.2550341
000060 b9 34 9b be e3 3f a9 3e fc 3b 26 3c a1 59 8b be
       -0.30313662 0.33056554 0.010146137 -0.2721682
000070 8f cb 41 3c 9a 1d db be a8 59 7a 3e c1 4c bb 3e
       0.011828317 -0.42796022 0.24448264 0.36581996
000080 f7 1e f6 3d d4 58 96 be 98 65 67 be b2 8f aa 3e
       0.12017625 -0.29364645 -0.22597349 0.33312756
000090 92 e1 2b be 8e d3 ea 3d e1 ee 84 3e 2c f9 c6 3d
       -0.16785267 0.11466132 0.259635 0.097154945
0000a0 14 a9 89 be 81 48 1c bf 08 a0 95 3d 3f d2 d9 bd
       -0.2688681 -0.6104813 0.07305914 -0.106358044
0000b0 1a d3 b9 3e 06 5e ee 3d e2 ec 8f 3f 7e cb b0 be
       0.3629387 0.11639027 1.1244166 -0.34530252
0000c0 cf 91 ae be b9 68 79 3d 61 b4 51 3f 97 54 1c bf
       -0.34095618 0.060890887 0.8191586 -0.61066574
0000d0 6f 45 4f bd 91 58 22 bf b3 6d bb be b4 31 7a 3e
       -0.050603326 -0.6341639 -0.3660713 0.24433023
0000e0 83 87 32 bf f0 db bc 3e 47 c3 22 bf 47 84 07 3f
       -0.69738024 0.3688655 -0.6357922 0.52936214
0000f0 97 76 07 be 84 b4 de be c9 8a c8 3e f1 4c 66 3e
       -0.13228832 -0.43497097 0.39168385 0.22490288
000100 3a 58 b4 bd 90 bb 61 bf 62 02 ff 3b 3c ef f0 3d
       -0.088058904 -0.8817682 0.0077822665 0.1176438
000110 ae 60 3c be 37 b4 15 3f 26 e4 96 3e 53 be f4 be
       -0.18396255 0.5847811 0.29470938 -0.47801456
000120 8f d9 89 bf a3 b7 4c bf ca ca 91 bf ba 79 f8 be
       -1.0769519 -0.7996771 -1.1390011 -0.4853037
000130 91 22 81 bf dc 83 41 be 00 3f 02 3f b1 61 b9 bf
       -1.0088674 -0.18897957 0.5087738 -1.4482938
000140 f1 65 72 bf b9 a6 a5 be c9 cc 71 3f 62 54 00 bf
       -0.946868 -0.32353762 0.944531 -0.5012876
000150 08 b0 07 3e b9 69 80 3d 06 07 16 3f 38 72 af bb
       0.13250744 0.06270165 0.58604467 -0.005354192
000160 cd d0 86 be a2 dc 52 3e 34 de 6f 3e fc 0f a3 3e
       -0.26331177 0.20591977 0.23424608 0.31848133
000170 0b 98 81 bf 73 61 41 bf ea d1 f5 bf 35 98 96 3e
       -1.0124525 -0.7553932 -1.9204686 0.29413
000180 2c 8e 25 bf d9 59 02 3f 1e b6 6c 3f 69 66 0f bf
       -0.6467006 0.50918347 0.9246539 -0.5601564
000190 1c 24 9c be 30 64 2b bf 73 c8 89 3e e8 77 52 bf
       -0.304963 -0.6694975 0.26910743 -0.8221421
0001a0 00 84 7c be cc 99 47 3d 76 bf 94 be 78 ec 2c 3f
       -0.24659729 0.048730657 -0.29052323 0.6754832
0001b0 b2 6b 9f bf 3d 82 83 be 45 37 d3 bd 52 b2 00 3e
       -1.2454741 -0.256853 -0.10313276 0.12568024
0001c0 da 3f 07 bf 6a cd 91 bd f4 9d 05 bf 65 b3 59 be
       -0.52831805 -0.07119258 -0.5219414 -0.2125984
0001d0 79 93 0d bf 1d fc 61 bf 03 c9 bc be 47 48 24 bf
       -0.5530315 -0.8827532 -0.3687211 -0.64172786
0001e0 67 c4 29 3f a1 9d 2f bf 92 06 68 3d 04 eb b0 bf
       0.6631531 -0.685999 0.05664689 -1.3821721
0001f0 79 b4 ac 3e 77 87 22 3e f6 f0 b8 3e 31 24 fc 3d
       0.3373144 0.15871988 0.3612134 0.123115905
000200 50 24 81 3f 75 62 79 be c3 01 e2 3e 9c d4 57 be
       1.0089207 -0.24353965 0.4414197 -0.21077198
000210 25 88 d9 3e 13 34 b5 bd 9d 59 19 3f 89 2f 33 3f
       0.42486683 -0.08847823 0.59902364 0.6999441
000220 c7 da 8e 3e 04 51 46 bf a0 ab dc be 2b 2f 04 3f
       0.2790129 -0.7746737 -0.4309969 0.5163447
000230 65 7f cd bd f0 95 a0 be 51 2e 24 3f 0a 38 85 3d
       -0.10034064 -0.31364393 0.64133173 0.06504829
000240 ea 94 9d 3f 0b fc f3 be 7f 90 46 bd 79 ee 73 3f
       1.231107 -0.4765323 -0.048477646 0.95285755
000250 d7 e0 32 3e c5 f5 29 3f af d7 60 be 0e 4b 6e 3f
       0.17468582 0.6639064 -0.21957277 0.93083274
000260 8b e5 47 3f 3b ba ff bd 6b 8e a8 3e 6a f1 0e bf
       0.7808463 -0.124866925 0.32921156 -0.5583712
000270 0f a9 b0 3f 44 30 c8 3e 19 fe c3 3c 9c c0 78 bd
       1.3801593 0.39099324 0.023924874 -0.06073056
000280 3c de c0 3e df 98 89 3e dd 76 99 3f 11 51 c1 3e
       0.3766955 0.26874444 1.1989399 0.3775716
000290 85 85 13 3f 52 a8 a0 3f 43 f6 57 3e fb 37 fa 3e
       0.5762561 1.2551367 0.21090035 0.48870835
0002a0 e6 36 66 3e 0c 3d b2 3e ae af fc 3d 89 de 01 3f
       0.2248188 0.348122 0.12338196 0.50730187
0002b0 c8 1f e0 be 81 10 ac be 2a bb da 3b 05 4c 99 3e
       -0.43774247 -0.3360634 0.0066751437 0.2994081
0002c0 7f f1 8d bf 6f 01 44 3e 13 85 2d be 02 fa eb be
       -1.1089324 0.19141172 -0.16945295 -0.46089178
0002d0 7e 45 96 bd 57 48 68 3e f6 a3 8a bf 71 32 15 bf
       -0.07337473 0.22683845 -1.0831287 -0.5828009
0002e0 6d eb 36 be e6 0e 25 3f 3b 79 d6 3d 90 e3 87 be
       -0.17863245 0.6447586 0.104723416 -0.26540804
0002f0 43 ea 98 3e 2c fd af 3e ff 1d 19 bf c3 3c d7 3e
       0.29866228 0.34372842 -0.59811395 0.42038545
000300 ad b0 b7 bf 5c 5c 49 3f 3a 4f d3 3c 9d a8 7c bf
       -1.4350792 0.78656554 0.025794614 -0.98694783
000310 13 a2 b4 3d 90 5b 1e bf c3 37 9a 3e 9b e2 9c bf
       0.08819976 -0.61858463 0.30120668 -1.2256655
000320 4e 78 12 be 3b 87 8f 3e 06 f1 48 bd c5 27 2c 3f
       -0.14303705 0.2803286 -0.049057983 0.67248183
000330 06 eb dd bf 91 69 07 bf b9 da 69 be 84 df 8b 3e
       -1.7337348 -0.52895457 -0.22837342 0.27318966
000340 9b 22 cc be 4b 8e 8e 3d 48 2a 77 bf db 86 f6 bc
       -0.39870152 0.06960734 -0.9654889 -0.030093601
000350 ad 36 9e bf d4 9c b7 bf e9 68 d7 be 45 e2 01 3d
       -1.2360436 -1.4344735 -0.42072228 0.031709928
000360 97 a1 8c 3e cd 2a 33 bf 16 13 98 3d 5a f1 6a be
       0.27467033 -0.69987184 0.07425515 -0.22943631
000370 f1 01 38 3f 73 57 b2 3e 0d 1a 5f bd 58 55 db 3e
       0.7187796 0.34832343 -0.054468203 0.4283855
000380 be d4 73 3f f7 c0 f9 be e0 90 ac bd 88 fc 06 3e
       0.95246494 -0.48780033 -0.0842607 0.1318227
000390 c1 53 dd 3d 88 5a 19 bf d4 d4 75 3f 68 6c 15 3f
       0.108069904 -0.59903765 0.96027875 0.5836854
0003a0 5a 54 28 3f 65 4c 4a bf f6 04 3e 3e bd e1 eb bd
       0.6575371 -0.7902282 0.1855658 -0.115176655
0003b0 6a 83 34 3d e2 fc 5a bf 78 80 bc 3f c2 46 5c bd
       0.04407064 -0.8554212 1.4726706 -0.053778417
0003c0 ff 51 5d 3e 53 d1 fe be 42 0f 83 be a6 da fa 3d
       0.2161331 -0.49769077 -0.25597578 0.12248735
0003d0 0c c1 c5 3e d9 73 1c be b3 bb 09 3d b8 26 62 3c
       0.38623846 -0.15278567 0.03362627 0.013803177
0003e0 74 d7 a9 3e 55 7f 9f 3f 88 12 02 3f 64 f1 ee be
       0.3317219 1.2460734 0.50809526 -0.4666854
0003f0 72 99 d4 3c 37 a6 21 bf 6b 4b 25 3f 85 e8 d2 3e
       0.025952075 -0.6314425 0.64568204 0.41193023

mamba.layers.0.mixer.dt_proj.weight f4 [48, 1]
000000 a1 6c 9e 3e 47 d8 42 3f cc af 34 3c ba ab 65 3e
       0.30942252 0.76111263 0.011028241 0.2242879
000010 8b d8 75 3f 36 2f c3 3e a3 e4 6c 3f 42 51 7c bd
       0.96033543 0.38121957 0.9253637 -0.06160093
000020 35 1e 3c 3f a6 60 fb 3e 52 24 35 3f 3b 33 0e 3f
       0.7348359 0.49097174 0.70758545 0.5554692
000030 f8 d6 bc 3e 0c a5 e9 3e 61 e8 a5 3e 1c bf a0 3e
       0.36882758 0.45633733 0.32403854 0.31395805
000040 6a 51 3a 3f 86 66 36 3f c5 f2 db 3d b1 5f 9d be
       0.7278048 0.7125019 0.10739664 -0.3073707
000050 f8 c2 25 be bf 85 8d be ad 04 47 3f 7d bf 00 3f
       -0.16187656 -0.27641103 0.7774151 0.5029219
000060 b1 da 94 3e ee 23 0e be 98 a1 3d 3e 9b 57 62 3f
       0.29073098 -0.13880894 0.18518674 0.88414925
000070 a3 3e ae 3d d0 3b 14 be b0 f8 70 be e2 b2 0d 3e
       0.08508041 -0.14475942 -0.23532367 0.1383777
000080 7a b2 6c be a8 df 84 3f d6 a2 a5 3e 10 74 b9 bd
       -0.23114958 1.0380754 0.32350796 -0.0905534
000090 ad e3 54 3d 93 1c f2 3e f9 1f f3 3c f0 5e cc bd
       0.05197494 0.47287425 0.029678332 -0.099790454
0000a0 77 a4 81 3e 27 e4 78 3f fd a8 d4 3e 24 7d 1f bf
       0.2532079 0.9722313 0.41535178 -0.62300324
0000b0 51 ae 97 3f ec 82 80 bf 4d cb ba 3f de 3e 55 3f
       1.1850072 -1.0039954 1.4593292 0.8329905

mamba.layers.0.mixer.dt_proj.bias f4 [48]
000000 0f e9 96 c0 f2 7e 56 c0 89 70 9c c0 13 86 04 c1
       -4.7159495 -3.3514981 -4.888737 -8.282733
000010 63 54 5e c0 ae f8 34 c0 fa 7d a0 c0 49 b8 80 c0
       -3.4739006 -2.8276782 -5.015378 -4.0224957
000020 88 1b db c0 0b c2 5b c0 5a a1 c9 c0 20 92 02 c1
       -6.8471107 -3.4337184 -6.300946 -8.160675
000030 09 f5 ac c0 0a 1a b3 c0 c0 09 28 c0 20 86 2a c0
       -5.4049115 -5.5969286 -2.625595 -2.6644363
000040 c7 79 81 c0 ff 4b b0 c0 ad 6c 40 c0 a1 cc 35 c0
       -4.0461154 -5.509277 -3.006633 -2.8406146
000050 7c c4 1c c0 00 22 37 c0 f8 0b 82 c0 da 5a 3a c0
       -2.4494925 -2.8614502 -4.063961 -2.9117951
000060 b5 1e fb c0 9f 44 cc c0 92 f9 97 c0 af 14 cb c0
       -7.8474984 -6.3833766 -4.749215 -6.346275
000070 d0 44 05 c1 28 61 ec c0 d9 34 06 c1 59 00 d6 c0
       -8.3293 -7.38686 -8.387902 -6.6875424
000080 30 9c e5 c0 45 ef 1a c0 60 30 ba c0 b8 60 53 c0
       -7.175316 -2.4208539 -5.818405 -3.3027782
000090 26 24 97 c0 76 ea 4f c0 63 f4 cb c0 d0 4e 6f c0
       -4.7231627 -3.2486854 -6.3735824 -3.7391853
0000a0 e5 d6 cf c0 41 8b 5e c0 37 ca 6b c0 60 ab 5b c0
       -6.4949822 -3.4772494 -3.6842172 -3.432335
0000b0 20 c0 71 c0 68 83 c6 c0 9f 19 cc c0 b0 e8 fd c0
       -3.7773514 -6.203541 -6.3781276 -7.934654

mamba.layers.0.mixer.out_proj.weight f4 [6, 48]
000000 60 f7 90 bb 43 f2 8c bd b0 10 72 3c 00 84 21 3a
       -0.0044240206 -0.06882145 0.014774486 0.0006161332
000010 80 48 33 bb b4 ba 64 3d 42 14 d7 3d 10 69 e0 3c
       -0.0027356446 0.055842116 0.10501911 0.027393848
000020 d4 dc ee bd e0 e9 9b bd 08 0f 9f 3c 2e a0 14 bd
       -0.11663213 -0.076129675 0.019416347 -0.03628557
000030 bb 99 00 be b0 9d 19 3d 54 58 fe bd 70 69 a2 3d
       -0.12558644 0.0375039 -0.12419191 0.07930267
000040 6c 3d 6f bd a8 67 91 bc ae 68 ba 3d 1c 5c c0 bd
       -0.058408186 -0.017749622 0.09101997 -0.093925685
000050 fd 5f 10 be 10 7b 03 3d 17 d7 b0 bd 50 d6 e7 3d
       -0.14099117 0.032099783 -0.08634775 0.11320174
000060 40 8a a6 bc 00 42 a7 3b a0 24 4c 3d c4 53 e9 bd
       -0.020329595 0.0051043034 0.049839616 -0.1139293
000070 70 08 a4 3d 9e 25 7a bd 0e f9 cc 3d e7 11 04 be
       0.08009422 -0.06107103 0.10008441 -0.12897454
000080 c8 de dd 3d 8d 22 fd bd 20 e7 ec bd 9a 70 bc bd
       0.10833508 -0.12360106 -0.11567521 -0.092011645
000090 d8 20 85 3d fc 84 e1 bd 40 70 39 bc 5c 77 c4 bc
       0.06500405 -0.11011693 -0.011318266 -0.023982696
0000a0 b8 20 d9 bc 08 a1 f4 3c fd 88 05 be b4 1e f4 3d
       -0.02650486 0.029861942 -0.13040538 0.11919919
0000b0 04 23 7b bd f0 55 d1 bd 08 d2 c3 bd c4 89 cc bc
       -0.06131269 -0.102214694 -0.09561545 -0.024968036
0000c0 a0 6a ad 3d dc 67 3c 3d 6a 29 d5 3d 70 13 c8 bd
       0.08467603 0.045997486 0.1040829 -0.097693324
0000d0 b0 3a ea bd 40 f4 9e bb c9 7a a3 bd c3 b0 00 be
       -0.11436975 -0.004850894 -0.07982404 -0.12567429
0000e0 94 67 0b 3e 5f 91 06 be d0 78 2a 3c 80 37 bd 3b
       0.1361373 -0.13141392 0.0104047805 0.0057744384
0000f0 48 06 19 bd 40 3f f4 3c 00 1c df 3b ec 5d c4 3d
       -0.037359506 0.029815316 0.006808758 0.09588227
000100 6a b4 d0 bd 30 bb fa 3d b8 c9 f5 bc 72 e6 85 3d
       -0.10190661 0.122427344 -0.030003414 0.065380946
000110 b0 7a 26 3c f8 27 e9 bd 3a a4 55 bd 68 83 ac bd
       0.010161087 -0.113845766 -0.05215857 -0.08423501
000120 6c 06 5f bd 4c 4f e4 3d 50 f7 ca 3c b8 72 ea bd
       -0.054449484 0.11147937 0.02477613 -0.11447662
000130 ec 2d 72 3d b8 41 e6 bd c4 d5 be 3d 94 35 3e 3d
       0.059125826 -0.112430036 0.09318116 0.046437815
000140 20 23 81 bc 38 05 e0 3d 50 da f3 3d b0 84 4b bc
       -0.01576382 0.109384954 0.11906874 -0.012421772
000150 3c 63 ca bc 08 87 f2 3d 6e b1 97 3d 08 1f 84 3c
       -0.024705522 0.118421614 0.07406889 0.016128078
000160 be 78 ad 3d 60 20 c2 bb 40 ac 08 3e 00 0d b3 bb
       0.08470295 -0.0059242696 0.13346958 -0.005464196
000170 40 d2 16 bb c6 a2 ae bd 70 4b 95 bc f8 86 0b be
       -0.0023013502 -0.0852714 -0.018224448 -0.13625705
000180 6e 80 cd 3d 07 a9 05 be ec 80 bc bc b8 1b eb bc
       0.10034262 -0.1305276 -0.023010693 -0.02869974
000190 6e 7a 58 bd 34 2d 54 3d fd b4 07 be 30 00 ea 3d
       -0.052851133 0.05180092 -0.13252635 0.11425817
0001a0 7c 2f 5b 3d 3e 51 de bd ae d3 0c 3e b6 22 78 bd
       0.05351208 -0.108553395 0.13752624 -0.060579978
0001b0 7f ba db bd c0 0e ab 3b c4 25 07 be 16 78 4a bd
       -0.10728931 0.005220264 -0.13198 -0.04943093
0001c0 c8 74 1f 3d 30 cb d9 bc 46 d5 d7 3d b0 1d 4c bc
       0.03892973 -0.026586145 0.105387256 -0.01245825
0001d0 b8 6d 0f 3d 8a fe c7 3d 72 7b a5 3d 80 c3 ab bd
       0.035016745 0.09765346 0.08080186 -0.08386898
0001e0 78 ab fe 3d 08 fb 74 bd e8 49 a4 3c 2a 71 54 bd
       0.12435049 -0.059809715 0.020054772 -0.051865734
0001f0 5e bf 3f bd 00 a2 db 39 d0 f7 cd 3d 22 83 10 3e
       -0.04681336 0.00041891634 0.10057032 0.14112523
000200 8a 52 d5 3d 30 14 eb 3c e4 86 1e 3d 92 15 dc bd
       0.10416134 0.02869615 0.03870286 -0.10746302
000210 0e 88 d0 3d 15 1d 0e be 08 1c 8f bd 88 f6 08 be
       0.101822 -0.13878281 -0.069877684 -0.13375294
000220 bd b7 11 be f1 94 cf bd 84 34 d2 bc 4c 2a c4 3d
       -0.14230247 -0.1013583 -0.025659807 0.0957838
000230 f4 02 1a 3d 10 be c7 bd 04 54 44 bd 6a 48 d8 3d
       0.037600473 -0.097530484 -0.047931686 0.10560687
000240 50 a7 ec 3c 38 33 b6 bc 88 6c 05 3d 8e 75 42 bd
       0.028888375 -0.02224122 0.032574207 -0.04747539
000250 80 dc f9 3b 62 6d 28 bd 22 0c 0f be 47 8b f0 bd
       0.0076251626 -0.04111994 -0.13969472 -0.11745315
000260 f0 6b 0f bc b0 41 e9 3d fa 65 ca bd 24 93 80 3d
       -0.008753762 0.11389482 -0.09882732 0.06278065
000270 b8 7e cc 3c 94 13 be bd 84 2e fe 3d e0 55 b8 bb
       0.024962768 -0.09281078 0.12411216 -0.0056254715
000280 3c 82 5a 3d cc 2d b0 bd bf 44 01 be 12 f6 b9 3d
       0.053346857 -0.08602485 -0.12623881 0.09080137
000290 a0 69 e2 3d 40 b2 8c 3c 6b 3f 88 bd 36 6c a7 3d
       0.110553026 0.01717484 -0.06652721 0.081749365
0002a0 7c 9c f9 bc c2 5c 0b be ac 3a e0 3d 60 2f 8b 3b
       -0.030470125 -0.13609603 0.10948691 0.004247591
0002b0 64 09 01 3e a0 07 af 3c 38 ba 84 bc bc e1 b3 bd
       0.12601238 0.02136594 -0.016202077 -0.0878329
0002c0 ea a6 95 3d c6 9e d1 3d 4c 0f dc bd ac e5 c4 bc
       0.07307227 0.10235362 -0.10745105 -0.024035297
0002d0 a0 bd eb 3d 06 cf f9 bd 98 34 a6 bd 1a 1f a1 bd
       0.115107775 -0.1219769 -0.081155 -0.0786726
0002e0 c0 9e 14 3c 78 2f fd 3c 3a 2c 0c be d2 73 a0 3d
       0.009071052 0.030906424 -0.13688746 0.07834591
0002f0 26 89 cc bd 78 82 f6 3d 98 d8 45 3d b4 ad cd 3d
       -0.099870965 0.12036604 0.048302263 0.10042897
000300 84 b5 0f bd c0 31 0f bc c8 cb df bd f6 da 04 3e
       -0.035085216 -0.008739889 -0.1092754 0.12974152
000310 00 07 12 3d 24 e9 65 3d 80 e1 3e 3b 8a a2 ad bd
       0.035651207 0.056130543 0.0029126108 -0.084782675
000320 f6 79 9b 3d fa 0e d6 3d 0c 68 77 3d 5c 4b d7 bd
       0.075916216 0.10452075 0.06040196 -0.105124205
000330 d8 f0 04 3e d4 a3 20 3d c0 12 46 bc c0 2f f3 bc
       0.129825 0.03921874 -0.012089431 -0.029685855
000340 e8 b5 0f 3e f2 3a 4d bd 9c 1f e0 bd 0f 76 03 be
       0.14034235 -0.050105043 -0.10943529 -0.12838005
000350 dc 9a 4b bd 27 9d b8 bd 54 64 8f 3d 68 7e 22 3d
       -0.049708232 -0.090143494 0.07001558 0.03967133
000360 7e 4c d8 bd 47 f0 10 be f8 3c 4f bd c4 7c d9 3d
       -0.10561465 -0.14154159 -0.050595254 0.106195
000370 80 34 bc bb df 6b 09 be dc fd 56 3d 36 2f 8f 3d
       -0.005743563 -0.13420056 0.052488193 0.06991427
000380 58 2f e6 3d 50 92 0a be fe be 0a be f4 a0 40 3d
       0.11239499 -0.13532376 -0.1354942 0.047028497
000390 08 ea c3 3d 08 4f 0b 3e 52 79 c8 bd b0 06 97 bc
       0.09566122 0.13604367 -0.09788765 -0.018435806
0003a0 ac d2 3d bd 9c 3e 09 3e f4 e5 a1 3d 70 f2 d4 3d
       -0.04634349 0.1340279 0.07905188 0.10397804
0003b0 bc 63 d7 bc 50 b4 71 3c f4 be e8 bd d8 cf f6 bc
       -0.026292674 0.0147524625 -0.113645464 -0.030128404
0003c0 a0 0f cd 3d 36 16 4c bd 40 ab bd 3c 98 5b bf bd
       0.10012746 -0.04982587 0.023152947 -0.09343642
0003d0 32 56 0b be 6a 44 b6 3d a0 7d d9 3b 92 d3 04 3e
       -0.136071 0.08899768 0.00663729 0.12971333
0003e0 14 08 85 3d 58 8e 0e 3d ac eb 6b bd 34 dc 99 3d
       0.064956814 0.03480372 -0.0575978 0.075127035
0003f0 48 84 e3 bc 20 df 09 3c 00 05 0e 3e 78 cd d8 bc
       -0.027773038 0.008415014 0.13869095 -0.026465163

mamba.layers.0.norm.weight f4 [6]
000000 d8 7b 8e 3e 7b e2 03 3f 96 75 4f 40 3c 14 e8 be
       0.2782886 0.51517457 3.2415519 -0.45327938
000010 cc c2 9d be b5 d0 02 40
       -0.3081268 2.0439885

fc.weight f4 [1, 48]
000000 ca ee 0d bd 64 4b 06 3f 82 8f 90 3d 61 c5 22 3a
       -0.034651555 0.52458787 0.07058622 0.00062092213
000010 0c 96 bd 3f 62 ae a8 3c d2 df 60 3e 93 ad d6 be
       1.4811416 0.020590965 0.2196038 -0.41929302
000020 50 1c d0 3c 24 db 9d 3d b9 af f8 3e bd 1c 1a bd
       0.025404125 0.077078134 0.48571566 -0.037625063
000030 97 17 e6 be 54 4e 31 bd 24 c4 6c 3e 98 3a f0 be
       -0.44939873 -0.04328759 0.23121697 -0.46919703
000040 2c bb e1 3f 37 49 01 be 8b dd a1 3e 48 1a 1c be
       1.7635245 -0.12625585 0.31614336 -0.152444
000050 b9 3c 8a bd d0 e9 0e bc 95 e9 8b be 6a 68 9c 3e
       -0.06749863 -0.008722737 -0.27326646 0.30548412
000060 f1 26 8c bc fd ac 91 bc 0a 8a d2 3b 6d ba 94 3f
       -0.017108412 -0.017782683 0.006425147 1.1619393
000070 93 00 cc 3f 3c 49 0c bb cf af 12 3f f8 d3 1d 3e
       1.5937675 -0.0021405956 0.5729951 0.15412891
000080 cb 2f 95 bc 9c c1 fd be 53 94 85 be 9e 20 36 c0
       -0.018211266 -0.49561775 -0.26089725 -2.8457408
000090 45 11 20 bc 14 38 f7 3e 5c f7 9f bf de 90 12 3e
       -0.009769742 0.48284972 -1.2497363 0.14313075
0000a0 4c 71 3b 3b 99 d6 dd 3f 2f a9 33 bd be 08 48 be
       0.0028601466 1.7331115 -0.043862518 -0.19534585
0000b0 91 42 05 3e 09 bf 14 be 64 e1 9f bf d6 44 ec 3b
       0.13013674 -0.14525999 -1.2490659 0.0072103543
