models/classification/mamba_delV_100.0_trainDim_2_pN_100.0_vN_1.0_nonDim_False.pth (torch, 36975 bytes, 12 tensors)

mamba.layers.0.mixer.A_log f4 [64, 32]
1.5531079 0.5906848 1.326452 1.1625051 1.2009132 1.601999 2.2590816 3.3977172
1.6365794 3.0036337 3.0958962 3.2883565 3.246537 3.144907 3.8959 3.2016027
3.3845627 3.7604678 3.2984211 3.676039 3.9853766 3.9826608 3.5367174 4.043726
3.4914691 4.2621956 4.0473237 4.063917 4.128441 4.525547 3.0808012 4.2290454
1.5569226 0.5454357 1.3940918 1.39696 1.4851413 1.7395988 1.9042803 4.1839886
1.8403505 2.8417919 2.556378 2.775789 2.5579271 3.6618848 3.085329 2.8346062
4.3152056 3.3909283 3.7493947 3.0577643 3.8128421 3.5683904 3.2977567 3.819827
3.1788661 3.7927291 3.486862 3.2710607 3.720827 3.8459892 2.6837409 3.437461
1.2520725 0.15382572 0.08775929 2.2918751 2.3377025 1.4201895 2.8673363 3.7844696
2.216222 2.8157995 3.0724757 3.0730417 2.7027931 2.8789449 2.6889527 3.5785902
4.1641893 4.4138036 4.3618417 3.3867116 4.476736 3.4271367 3.1552148 3.8216097
3.431661 4.459937 3.6678808 3.0048006 4.2396526 3.8591154 2.732325 3.6470456
1.5281483 0.71466285 2.1675253 2.3448186 2.2395585 2.3962681 2.5917652 3.0956078
2.3046563 2.7944365 2.529672 2.4857476 3.1501791 3.8622963 3.4007628 2.9588456
3.9356878 2.4002686 2.5399399 3.156599 2.9123013 3.5449553 3.4195943 3.819169
3.9052753 2.9266255 3.1872737 3.8804226 3.4104993 4.1140885 3.4599268 3.618043
1.3150268 0.25698534 0.96448976 0.96025753 1.7835585 1.6980921 2.4141784 2.7281482
2.1525385 1.6678888 2.0941048 1.5915282 2.046918 1.7779312 2.5333881 2.6152542
2.2266161 3.937633 3.504546 2.55109 3.804544 2.3962238 2.956346 2.2620475
2.9644563 3.7686732 2.9029226 3.2757676 3.6970031 2.9104445 3.9401472 3.419646
1.9923415 0.62452227 1.2727251 1.2628239 1.0868703 1.4391391 2.6716924 4.178475
1.509499 3.1787696 2.3159 3.2801657 2.1241748 4.2613683 3.0947716 3.0831437
4.290447 3.3247604 3.0157158 2.5996873 3.416155 3.3349936 2.95783 4.04368
3.511174 3.1133215 3.8853433 3.775732 3.8058317 3.6566858 3.6593502 3.1426935
1.2206609 0.3316203 1.5868459 1.5239812 1.031053 1.8361887 2.2982066 3.7142427
1.4888098 2.2352283 2.6826108 2.7103674 2.2245188 3.305314 2.6957297 3.150714
3.8410113 3.1739757 3.61874 2.6943443 4.193967 3.0011458 3.4407082 2.9853454
2.7830455 4.4946303 3.819912 3.3487844 3.9124901 4.075263 3.8600142 3.7032719
-1.7282968 0.3574057 2.5106916 2.5212688 2.3392708 2.8970335 3.136979 3.6368
1.3471767 3.3743308 3.728002 3.8500519 3.6691387 4.3021965 3.9595578 3.9034822
3.869663 5.3915386 3.5948973 4.3092666 4.9935365 4.200046 4.6840453 4.4861574
4.062677 5.8221283 4.6093755 4.4318666 4.7341785 4.141779 4.420926 4.354803
00000000: 3dcc c63f 1e37 173f 2ec9 a93f f8cc 943f
00000010: 86b7 993f 4e0e cd3f cb94 1040 3374 5940
00000020: 6f7b d13f 893b 4040 2a23 4640 6f74 5240
00000030: 43c7 4f40 2846 4940 6d56 7940 0fe7 4c40
00000040: ad9c 5840 81ab 7040 5519 5340 3944 6b40
00000050: 6910 7f40 eae3 7e40 9459 6240 3466 8140
00000060: 3b74 5f40 e863 8840 ad83 8140 9c0b 8240
00000070: 301c 8440 48d1 9040 d92b 4540 5754 8740
00000080: 3d49 c73f ada1 0b3f 9a71 b23f 96cf b23f
00000090: 1c19 be3f 2cab de3f 75bf f33f 3ce3 8540
000000a0: 9b90 eb3f ebdf 3540 b29b 2340 87a6 3140
000000b0: 14b5 2340 525c 6a40 0876 4540 306a 3540
000000c0: 2a16 8a40 f804 5940 15f6 6f40 69b2 4340
000000d0: 9b05 7440 8260 6440 720e 5340 0c78 7440
000000e0: 8b72 4b40 13bc 7240 bf28 5f40 0f59 5140
000000f0: 0822 6e40 b024 7640 69c2 2b40 5cff 5b40
00000100: e943 a03f 7d84 1d3e 25bb b33d 15ae 1240
00000110: eb9c 1540 c5c8 b53f 7082 3740 c034 7240
00000120: 95d6 0d40 0f36 3440 71a3 4440 b7ac 4440
00000130: 90fa 2c40 a240 3840 cd17 2c40 9f07 6540
00000140: 0a41 8540 e13d 8d40 3594 8b40 e2bf 5840
00000150: 6c41 8f40 3556 5b40 0aef 4940 4195 7440
00000160: 55a0 5b40 ceb7 8e40 8fbe 6a40 a74e 4040
00000170: 3cab 8740 bffb 7640 6ade 2e40 3269 6940
00000180: 5d9a c33f 25f4 363f bcb8 0a40 8211 1640
00000190: ed54 0f40 755c 1940 7bdf 2540 701e 4640
000001a0: 7d7f 1340 0cd8 3240 25e6 2140 7d16 1f40
000001b0: 899c 4940 dd2f 7740 19a6 5940 ba5d 3d40
000001c0: 4fe2 7b40 009e 1940 608e 2240 b805 4a40
000001d0: 2563 3a40 8ce0 6240 a2da 5a40 446d 7440
000001e0: 08f0 7940 d54d 3b40 4bfc 4b40 d858 7840
000001f0: 9f45 5a40 9da6 8340 716f 5d40 048e 6740
00000200: cc52 a83f 9593 833e cde8 763f 70d3 753f
00000210: a54b e43f 155b d93f e681 1a40 fb99 2e40
00000220: 31c3 0940 617d d53f d005 0640 32b7 cb3f
00000230: b400 0340 4093 e33f 0823 2240 5360 2740
00000240: e180 0e40 2e02 7c40 7b4a 6040 0f45 2340
00000250: a67d 7340 bb5b 1940 c634 3d40 63c5 1040
00000260: a7b9 3d40 f131 7140 7cc9 3940 2da6 5140
00000270: b39b 6c40 b944 3a40 5f2b 7c40 7bdb 5a40
00000280: 0c05 ff3f b1e0 1f3f a8e8 a23f 37a4 a13f
00000290: 911e 8b3f b635 b83f 02fd 2a40 11b6 8540
000002a0: 4337 c13f f670 4b40 b537 1440 3cee 5140
000002b0: 7bf2 0740 215d 8840 bd10 4640 3a52 4540
000002c0: 584b 8940 e0c8 5440 7d01 4140 4761 2640
000002d0: 49a2 5a40 8970 5540 164d 3d40 d465 8140
000002e0: 13b7 6040 a940 4740 77a9 7840 98a5 7140
000002f0: bf92 7340 2407 6a40 cb32 6a40 e421 4940
00000300: 9e3e 9c3f 23ca a93e c41d cb3f d111 c33f
00000310: 8bf9 833f 3b08 eb3f d115 1340 27b6 6d40
00000320: 5291 be3f fb0d 0f40 e5af 2b40 a976 2d40
00000330: 845e 0e40 448a 5340 d686 2c40 4ca5 4940
00000340: 21d3 7540 6b22 4b40 7099 6740 2370 2c40
00000350: fa34 8640 c612 4040 9034 5c40 e60f 3f40
00000360: 6b1d 3240 03d4 8f40 7079 7440 7c52 5640
00000370: 3d66 7a40 8e68 8240 790a 7740 6802 6d40
00000380: d438 ddbf e1fd b63e 2caf 2040 785c 2140
00000390: 9db6 1540 ff68 3940 44c4 4840 55c1 6840
000003a0: 4970 ac3f 09f5 5740 9697 6e40 4067 7640
000003b0: 2bd3 6a40 98ab 8940 6569 7d40 a7d2 7940
000003c0: 8fa8 7740 7c87 ac40 cc12 6640 83e5 8940
000003d0: 0dcb 9f40 c766 8640 b3e3 9540 9a8e 8f40
000003e0: 7301 8240 e04e ba40 0180 9340 dad1 8d40
000003f0: 647e 9740 7489 8440 3a78 8d40 8c5a 8b40

mamba.layers.0.mixer.D f4 [64]
1.168222 1.0511496 1.0943338 0.64129317 0.6728768 1.1860558 1.8732901 -0.4356043
1.1630363 1.1334414 0.71195143 1.3555956 1.647256 0.6709585 1.6346567 0.8781255
0.46145853 0.9164654 1.1796273 1.9991783 1.3937315 0.7670778 1.5188404 1.4847413
1.1510354 1.1351854 0.7606038 1.9605556 1.4613304 1.4132613 1.2224287 1.6432186
0.8753185 0.9727571 1.0618451 1.2974632 -1.9911317 1.1367394 -0.47248584 0.7392085
0.62254095 0.7959091 1.4731907 1.0364771 0.69425243 0.9417906 1.222435 1.4013256
1.7619475 1.3200004 1.0637416 0.6508501 1.5370827 0.37793064 1.4325775 2.5738163
0.59883124 1.4724301 1.1256634 0.8562941 0.83838075 2.0866158 1.7981868 1.185542
00000000: 4c88 953f 128c 863f 2113 8c3f ca2b 243f
00000010: a741 2c3f add0 973f f8c7 ef3f 8707 dfbe
00000020: 60de 943f 9c14 913f 7342 363f 2884 ad3f
00000030: 49d9 d23f f0c3 2b3f 6e3c d13f d5cc 603f
00000040: 4b44 ec3e 7a9d 6a3f 07fe 963f 13e5 ff3f
00000050: cb65 b23f 365f 443f 5d69 c23f 010c be3f
00000060: 2155 933f c14d 913f eeb6 423f 7cf3 fa3f
00000070: e00c bb3f bfe5 b43f 8b78 9c3f fd54 d23f
00000080: e014 603f 9c06 793f 8aea 873f 4613 a63f
00000090: 67dd febf ad80 913f aae9 f1be c53c 3d3f
000000a0: d85e 1f3f b3c0 4b3f 8391 bc3f 48ab 843f
000000b0: 87ba 313f 3019 713f c078 9c3f a35e b33f
000000c0: 7f87 e13f c6f5 a83f af28 883f 1d9e 263f
000000d0: 20bf c43f 2080 c13e b35e b73f 68b9 2440
000000e0: 014d 193f 9778 bc3f bd15 903f 1736 5b3f
000000f0: 1fa0 563f 1d8b 0540 fc2a e63f d7bf 973f

mamba.layers.0.mixer.D_SSM f4 [64]
1.168222 1.0511496 1.0943338 0.64129317 0.6728768 1.1860558 1.8732901 -0.4356043
1.1630363 1.1334414 0.71195143 1.3555956 1.647256 0.6709585 1.6346567 0.8781255
0.46145853 0.9164654 1.1796273 1.9991783 1.3937315 0.7670778 1.5188404 1.4847413
1.1510354 1.1351854 0.7606038 1.9605556 1.4613304 1.4132613 1.2224287 1.6432186
0.8753185 0.9727571 1.0618451 1.2974632 -1.9911317 1.1367394 -0.47248584 0.7392085
0.62254095 0.7959091 1.4731907 1.0364771 0.69425243 0.9417906 1.222435 1.4013256
1.7619475 1.3200004 1.0637416 0.6508501 1.5370827 0.37793064 1.4325775 2.5738163
0.59883124 1.4724301 1.1256634 0.8562941 0.83838075 2.0866158 1.7981868 1.185542
00000000: 4c88 953f 128c 863f 2113 8c3f ca2b 243f
00000010: a741 2c3f add0 973f f8c7 ef3f 8707 dfbe
00000020: 60de 943f 9c14 913f 7342 363f 2884 ad3f
00000030: 49d9 d23f f0c3 2b3f 6e3c d13f d5cc 603f
00000040: 4b44 ec3e 7a9d 6a3f 07fe 963f 13e5 ff3f
00000050: cb65 b23f 365f 443f 5d69 c23f 010c be3f
00000060: 2155 933f c14d 913f eeb6 423f 7cf3 fa3f
00000070: e00c bb3f bfe5 b43f 8b78 9c3f fd54 d23f
00000080: e014 603f 9c06 793f 8aea 873f 4613 a63f
00000090: 67dd febf ad80 913f aae9 f1be c53c 3d3f
000000a0: d85e 1f3f b3c0 4b3f 8391 bc3f 48ab 843f
000000b0: 87ba 313f 3019 713f c078 9c3f a35e b33f
000000c0: 7f87 e13f c6f5 a83f af28 883f 1d9e 263f
000000d0: 20bf c43f 2080 c13e b35e b73f 68b9 2440
000000e0: 014d 193f 9778 bc3f bd15 903f 1736 5b3f
000000f0: 1fa0 563f 1d8b 0540 fc2a e63f d7bf 973f

mamba.layers.0.mixer.in_proj.weight f4 [128, 2]
-1.776227e-05 0.00013398309 0.00055892894 -0.003937579 -0.00021627762 0.00040067412 -0.0015071927 0.001275662
-0.005724383 -0.028169196 -0.018593866 -0.037222493 0.014753909 -0.036458068 -1.8876451 -0.051408
-0.0037372983 -0.0022367137 -4.4928078e-05 0.00017298921 0.00092810695 0.0010702221 -0.010221617 0.0016671635
-0.0016718033 -0.0012990712 0.009505189 -0.0048232256 -0.009932544 -0.0543311 0.0008383555 -0.0051111947
0.0011396463 -0.0007935459 -0.03735676 -0.09620167 0.0013964402 -0.0047733434 -0.029157758 0.043054517
-0.0001527685 0.00039586914 0.00022715429 9.53111e-05 -0.0068043005 0.035927042 0.014543133 0.008120352
0.00016720811 -0.00038792618 0.037198484 -0.0720858 -0.00036839172 0.001034665 -0.0013357315 0.0012811415
-0.0003957829 -0.0012518306 0.0073127737 0.022743365 -0.0005859371 0.00090183277 8.679392e-08 -3.4088566e-07
0.00939226 -0.01819397 -0.00032463582 -0.001005521 -0.00043668135 0.0016367907 -8.015003e-05 0.001863329
-1.2138668 -0.6814613 0.0016119151 0.022277644 0.24605033 -1.3653059 0.0005670443 -0.0012824993
-0.017164197 0.012483209 0.016394705 0.0014470147 1.4396466e-07 6.29285e-06 -0.0042728917 -0.0063750637
-0.004517813 0.00865335 -0.0019443468 0.005376171 0.00062238163 -0.05474039 0.0013288624 -0.0062792725
0.0033630445 -0.040242895 0.30893502 -0.6595321 0.0008955799 -0.0022197824 -0.00042126322 -1.48086e-05
0.012367967 0.022861836 0.028283056 -0.018986255 -0.0075045885 0.025361337 0.5696201 -1.2209625
-1.8386689e-05 9.712545e-06 0.0044144564 -0.0025447966 0.0025200064 3.007895e-05 0.00055405166 -0.0008378498
0.0036851286 -0.0042804847 -0.005104016 0.0013435626 5.467021e-05 0.0096683595 -1.5417156e-05 -3.251579e-05
0.27936342 0.082357086 -2.5377485e-06 -1.0746619e-05 0.09758876 0.0056896824 -0.029694254 -0.30621523
-0.02538629 -0.106585324 5.608272e-06 8.1568425e-07 -0.042374033 0.042995073 0.22567566 -2.6403925
-0.107112385 0.080116294 -0.00062488246 -0.00025377734 0.018013868 -0.03407813 4.7319105e-08 1.4933218e-07
0.05309559 0.16566893 0.4816941 0.044353317 -0.009178516 0.012717483 -0.011938907 -0.034055777
0.077785395 -0.02247898 0.043183062 0.007651152 0.00030297347 0.0017797163 -1.2361417 -0.7672389
0.025956362 -0.0060154404 -0.059773244 -0.07957412 -0.11089081 -0.0835464 0.037081722 -2.312589
-0.0017619955 0.02735362 -4.877885e-05 -5.763711e-05 2.6401272e-05 -8.592184e-06 -0.004966058 -0.0016125496
0.014023114 0.0435057 5.6801664e-12 1.34469744e-11 -0.00032179576 -0.037698813 2.1135502e-06 -2.1084844e-07
0.052146815 0.56041557 0.22428356 0.14060552 0.026916668 0.037031595 -0.054601092 -0.098735005
2.152215 0.6569108 0.0015071699 0.012488762 -1.4906081 -1.3473393 0.014859787 -0.04168343
0.91732275 -0.4147188 0.38301682 0.25547758 -0.012007055 0.004519508 -0.017529374 -0.03457257
-2.1792452e-08 -8.912577e-08 -0.008456522 -0.0532376 0.001866422 -0.00052234787 0.21468934 -0.06638751
-3.871598e-06 -7.5045928e-06 -2.3602822 0.9619441 -0.00310294 -0.020589443 -5.678433e-05 6.4926964e-05
0.00010542015 -1.9397372e-05 -9.357206e-10 6.5940964e-09 -0.056602202 0.034309633 0.7117146 0.6156775
0.0042102183 0.012672198 0.032616887 0.028752986 3.4865932e-09 -1.4082753e-08 -1.1517942 0.60510236
0.007273097 -0.0087260315 -0.70131564 -0.22889353 0.17226604 0.16329794 0.0384139 -0.032649692
00000000: 2f00 95b7 d07d 0c39 1685 123a cf06 81bb
00000010: 95c8 62b9 9211 d239 ff8c c5ba 1d34 a73a
00000020: 9b93 bbbb 16c3 e6bc 2a52 98bc 9d76 18bd
00000030: 61ba 713c 0e55 15bd 5b9e f1bf 3291 52bd
00000040: 76ed 74bb d495 12bb 2871 3cb8 7064 3539
00000050: 344c 733a b246 8c3a 9278 27bc b984 da3a
00000060: 6920 dbba 9945 aaba a7bb 1b3c 260c 9ebb
00000070: 1cbc 22bc 4a8a 5ebd 16c5 5b3a cf7b a7bb
00000080: 2f60 953a f705 50ba 6703 19bd 6205 c5bd
00000090: c208 b73a b569 9cbb 40dc eebc ef59 303d
000000a0: 7b30 20b9 a88c cf39 4430 6e39 c2e1 c738
000000b0: 9cf6 debb 3c28 133d 5246 6e3c 3a0b 053c
000000c0: 9654 2f39 9262 cbb9 705d 183d b8a1 93bd
000000d0: b324 c1b9 999d 873a b613 afba faeb a73a
000000e0: 1581 cfb9 7714 a4ba fe9f ef3b 4b50 ba3c
000000f0: 9399 19ba f968 6c3a 7663 ba33 f802 b7b4
00000100: fee1 193c 850b 95bc e233 aab9 b0cb 83ba
00000110: 61f2 e4b9 9589 d63a 3816 a8b8 f23a f43a
00000120: fd5f 9bbf 3f74 2ebf e546 d33a 9b7f b63c
00000130: 9ef4 7b3e 58c2 aebf b3a5 143a 8919 a8ba
00000140: ee9b 8cbc 6086 4c3c 304e 863c c2a9 bd3a
00000150: b494 1a34 2b27 d336 9d03 8cbb e9e5 d0bb
00000160: 2a0a 94bb c8c6 0d3c 74d9 feba 972a b03b
00000170: 5327 233a 7637 60bd 392d ae3a 5bc2 cdbb
00000180: 8666 5c3b bcd5 24bd bb2c 9e3e 19d7 28bf
00000190: 5ac5 6a3a c579 11bb fedc dcb9 7472 78b7
000001a0: 03a3 4a3c bf48 bb3c deb1 e73c 1089 9bbc
000001b0: 0de9 f5bb 94c2 cf3c 9fd2 113f 8048 9cbf
000001c0: 1d3d 9ab7 10f3 2237 25a7 903b 9ac6 26bb
000001d0: b126 253b 0e52 fc37 c73d 113a 26a3 5bba
000001e0: 3382 713b 4f43 8cbb 973f a7bb 7b1a b03a
000001f0: b14d 6538 0a68 1e3c 1754 81b7 9061 08b8
00000200: b908 8f3e d5aa a83d 304e 2ab6 614c 34b7
00000210: 9edc c73d 8470 ba3b 5d41 f3bc 3ec8 9cbe
00000220: e9f6 cfbc 6849 dabd b12e bc36 65f5 5a35
00000230: 6590 2dbd 9a1b 303d 8517 673e 31fc 28c0
00000240: bd5d dbbd 0314 a43d 27cf 23ba 6b0d 85b9
00000250: d291 933c 8295 0bbd e83b 4b33 1e58 2034
00000260: c37a 593d 1ea5 293e 9ca0 f63e d3ab 353d
00000270: 7d61 16bc fd5c 503c 689b 43bc 127e 0bbd
00000280: f34d 9f3d d625 b8bc b9e0 303d 84b6 fa3b
00000290: 69d8 9e39 5f45 e93a e439 9ebf c569 44bf
000002a0: 70a2 d43c 2c1d c5bb cad4 74bd c2f7 a2bd
000002b0: b91a e3bd 601a abbd 01e3 173d 7501 14c0
000002c0: c2f2 e6ba b314 e03c e497 4cb8 60bf 71b8
000002d0: 4d78 dd37 2627 10b7 50ba a2bb 305c d3ba
000002e0: 34c1 653c 0833 323d 64da c72c ca8f 6c2d
000002f0: b2b6 a8b9 126a 1abd 84d6 0d36 9465 62b4
00000300: e697 553d 6577 0f3f 97aa 653e e5fa 0f3e
00000310: 5880 dc3c 71ae 173d 65a5 5fbd 9435 cabd
00000320: e4bd 0940 4e2b 283f 3b8c c53a aa9d 4c3c
00000330: 3fcc bebf 9d75 acbf 7776 733c 3fbc 2abd
00000340: aad5 6a3f 0656 d4be c81a c43e f5cd 823e
00000350: 3db9 44bc 6218 943b c399 8fbc f89b 0dbd
00000360: 1c32 bbb2 6965 bfb3 398d 0abc ab0f 5abd
00000370: bba2 f43a 2cee 08ba 86d7 5b3e 2df6 87bd
00000380: c6e8 81b6 f6cf fbb6 dd0e 17c0 f841 763f
00000390: b25a 4bbb 31ab a8bc b62b 6eb8 6629 8838
000003a0: 0315 dd38 8ab7 a2b7 be9a 80b0 4992 e231
000003b0: b6d7 67bd 4288 0c3d ee32 363f 0a9d 1d3f
000003c0: dff5 893b 0d9f 4f3c 4999 053d 628b eb3c
000003d0: cc98 6f31 9af0 71b2 fe6d 93bf fde7 1a3f
000003e0: 2953 ee3b a1f7 0ebc 6c89 33bf 1163 6abe
000003f0: 8266 303e 9337 273e e557 1d3d afbb 05bd

mamba.layers.0.mixer.conv1d.weight f4 [64, 1, 16]
0.17431512 -0.25696185 0.034959488 -0.020843484 -0.066729456 0.0073052784 0.01314822 0.033579256
0.23247187 0.23223503 -0.086433955 -0.1672691 -0.21799837 -0.11063614 0.06113155 0.13783395
0.24811864 0.21982092 0.09038617 -0.06379813 -0.21456157 0.13868402 -0.047516264 -0.030745197
0.058348574 0.21019548 0.05998214 -0.26359096 -0.082637876 0.17114162 -0.25137302 -0.24390224
-0.13105053 0.19826001 0.096503526 0.00875345 -0.15883052 -0.09857215 -0.14408529 -0.032216012
0.22176927 0.039481774 -0.069465466 -0.06104853 0.042623438 0.19412322 -0.25276855 0.14520714
0.062633574 -0.22087038 -0.0324617 0.02498454 -0.011097744 -0.13432024 0.08690655 -0.26802453
0.014371294 0.051813774 -0.15806752 0.12251389 0.019077083 0.18092586 0.20908037 0.03764465
-0.025525928 -0.2937368 -0.23101111 0.09294808 0.10103629 -0.039049953 -0.023678506 0.09763016
0.09134695 -0.02689449 -0.010711075 0.08227036 0.102689326 0.03956799 0.093711965 -0.048110753
0.22613095 -0.13253842 0.07430505 -0.11913325 0.18149251 -0.22441255 0.17021057 -0.00046929298
-0.14947636 0.027355164 -0.19196759 0.09914312 0.08221455 -0.062241156 0.036772683 0.13999444
-0.14855017 0.07513526 -0.070484184 0.16380017 -0.18198156 0.17729577 -0.15967755 -0.1084171
0.082612924 0.10652546 -0.1838712 0.17738391 0.11121792 -0.067361765 0.098278254 -0.11658314
-1.0048668 -0.6328878 -0.6291981 -0.80291814 -0.7151187 -0.2812584 -0.37938353 -0.05741931
-0.088323124 0.08796713 0.09825737 0.10855367 0.05699182 0.23993798 0.15276776 0.44384524
-0.19293974 -0.13882063 0.09025525 -0.14598061 -0.008915438 0.11794169 0.24843179 0.059382148
-0.09890586 0.0870812 -0.1103126 0.0058800974 0.22525239 0.094647735 -0.11125222 -0.1725706
-0.107657015 0.018672386 0.15018782 0.14045231 -0.08891912 0.064778075 -0.11677978 -0.19837011
-0.08583141 0.19540302 -0.073399626 -0.04064293 0.2234419 -0.023077074 -0.23994945 0.18023555
0.05512796 -0.22772509 -0.0852491 -0.0028059015 0.07846235 0.19124705 -0.007354793 -0.057478424
0.09071964 -0.037250467 0.009938784 0.061554328 0.023637714 0.011478597 -0.068114065 -0.024213694
0.05007599 -0.12155638 0.21166939 -0.042814698 0.16194959 -0.13358653 -0.038402285 -0.19053482
0.12288549 0.08171564 0.048099045 0.09699583 0.023094151 -0.09279193 -0.25836992 -0.042014003
0.10308778 -0.25113118 0.11349511 -0.05910687 0.040788867 0.0023259653 0.07547506 0.13860135
-0.17479096 -0.028747007 -0.0054059043 -0.23770985 0.0031833064 -0.09610856 0.23887557 0.03483826
-0.19208825 -0.17644545 -0.021767706 -0.22841136 -0.07835584 0.109444834 -0.20675932 -0.17973368
-0.07464977 0.22029254 0.1611366 -0.0031597402 0.22006086 0.004243726 0.25405303 0.22305901
0.1318689 0.13278538 -0.14932585 0.16334403 0.006586554 -0.2600984 -0.0056141657 0.16173586
0.12272603 -0.19645855 0.11429397 0.14273198 -0.26084006 -0.18272473 -0.0959479 0.12393699
-0.045046095 -0.021458587 0.062312223 0.13797493 0.13152988 -0.027844997 0.05314637 0.040410575
-0.18987581 -0.17337568 -0.12822549 0.2349819 0.23721722 -0.20463252 -0.1553817 0.04078118
00000000: aa7f 323e 8190 83be ae31 0f3d f4bf aabc
00000010: 74a9 88bd 1e61 ef3b a26b 573c 678a 093d
00000020: 1b0d 6e3e 05cf 6d3e 4904 b1bd 9748 2bbe
00000030: f73a 5fbe 3395 e2bd 1465 7a3d 5824 0d3e
00000040: d012 7e3e bc18 613e 621c b93d 98a8 82bd
00000050: 07b6 5bbe 2f03 0e3e 6aa0 42bd 5add fbbc
00000060: eafe 6e3d 7c3d 573e d5af 753d 65f5 86be
00000070: 0c3e a9bd c03f 2f3e f7b3 80be 82c1 79be
00000080: 1c32 06be ac04 4b3e a4a3 c53d a16a 0f3c
00000090: 78a4 22be 32e0 c9bd 188b 13be f0f4 03bd
000000a0: 7c17 633e a4b7 213d e943 8ebd 060e 7abd
000000b0: ea95 2e3d 3dc8 463e e16a 81be 2eb1 143e
000000c0: 0846 803d d82b 62be 8ff6 04bd 61ac cc3c
000000d0: 50d3 35bc 3f8b 09be 10fc b13d 833a 89be
000000e0: 9375 6b3c ae3a 543d 74dc 21be 90e8 fa3d
000000f0: 8b47 9c3c a144 393e 2a19 563e 4731 1a3d
00000100: c01b d1bc ab64 96be 2d8e 6cbe 905b be3d
00000110: 1dec ce3d d8f2 1fbd 6df9 c1bc 52f2 c73d
00000120: 1c14 bb3d d551 dcbc 817d 2fbc 5d7d a83d
00000130: c84e d23d 0b12 223d 0fec bf3d c80f 45bd
00000140: df8e 673e 27b8 07be 3f2d 983d 22fc f3bd
00000150: 2cd9 393e 67cc 65be ae4b 2e3e 700b f6b9
00000160: 5510 19be f017 e03c 2793 44be 8c0b cb3d
00000170: 1a60 a83d 95f0 7ebd f49e 163d b45a 0f3e
00000180: 891d 18be 84e0 993d 035a 90bd 3bbb 273e
00000190: 6059 3abe 068d 353e 8382 23be c909 debd
000001a0: f730 a93d 052a da3d bb48 3cbe 21a4 353e
000001b0: 39c6 e33d f7f4 89bd 1c46 c93d 24c3 eebd
000001c0: 7a9f 80bf ef04 22bf 2013 21bf 0b8c 4dbf
000001d0: 0512 37bf 1a01 90be 8f3e c2be 8330 6bbd
000001e0: c1e2 b4bd 1c28 b43d 293b c93d 6351 de3d
000001f0: 4170 693d 4db2 753e 276f 1c3e af3f e33e
00000200: ff91 45be ff26 0ebe bfd7 b83d f17b 15be
00000210: 0f12 12bc 6a8b f13d e764 7e3e b23a 733d
00000220: 288f cabd a157 b23d 93eb e1bd d5ad c03b
00000230: 90a8 663e acd6 c13d 34d8 e3bd 59b6 30be
00000240: 487b dcbd d5f6 983c d6ca 193e bbd2 0f3e
00000250: 3a1b b6bd 5eaa 843d 3d2a efbd 8921 4bbe
00000260: 61c8 afbd bb17 483e 8b52 96bd 3379 26bd
00000270: f4cd 643e 220c bdbc 4fb5 75be ab8f 383e
00000280: dbcd 613d c430 69be 1597 aebd 37e3 37bb
00000290: deb0 a03d 44d6 433e 7a00 f1bb 7f6e 6bbd
000002a0: 38cb b93d f293 18bd 48d6 223c 6420 7c3d
000002b0: e1a3 c13c ba10 3c3c 637f 8bbd cc5b c6bc
000002c0: 7b1c 4d3d 8df2 f8bd dcbf 583e 775e 2fbd
000002d0: 1dd6 253e e8ca 08be b74b 1dbd 8f1b 43be
000002e0: 63ab fb3d 885a a73d 8103 453d c0a5 c63d
000002f0: f22f bd3c b209 bebd 1049 84be e016 2cbd
00000300: b01f d33d 4494 80be 2070 e83d 0c1a 72bd
00000310: 3a12 273d 396f 183b ab92 9a3d 83ed 0d3e
00000320: 67fc 32be d87e ebbc 0324 b1bb 366a 73be
00000330: 059f 503b 91d4 c4bd cc9b 743e 90b2 0e3d
00000340: c8b2 44be 1eae 34be 3052 b2bc abe4 69be
00000350: 0779 a0bd 9d24 e03d b7b8 53be 1b0c 38be
00000360: fbe1 98bd 5e94 613e fe00 253e a513 4fbb
00000370: a257 613e f40e 8b3b 3d13 823e 9569 643e
00000380: a408 073e e4f8 073e e0e8 18be a843 273e
00000390: 05d4 d73b 9e2b 85be 09f7 b7bb 169e 253e
000003a0: c957 fb3d 6e2c 49be f512 ea3d 5528 123e
000003b0: d48c 85be 311c 3bbe 5580 c4bd add2 fd3d
000003c0: 4182 38bd ebc9 afbc 1a3b 7f3d 4d49 0d3e
000003d0: c5af 063e 311b e4bc 02b0 593d 8f85 253d
000003e0: ce6e 42be 6589 31be 8b4d 03be 189f 703e
000003f0: 12e9 723e 308b 51be 611c 1fbe 2b0a 273d

mamba.layers.0.mixer.conv1d.bias f4 [64]
0.00013422404 -0.0035322048 -0.007487675 -0.030116418 0.00064144266 -1.2915875 0.0037238689 0.030809712
-0.0002800391 -0.16512245 0.0035985215 -1.2772198 -0.0044047595 -0.0142582925 0.0056805145 0.0024014753
-0.0061642635 0.0031215171 -0.04926479 -1.2786291 -1.2787242 -1.1629374 -0.026739076 -1.2790493
-0.4863061 -1.281222 -0.002479902 -0.002161212 -0.016102757 -1.2787038 -0.0045644795 -1.2784643
-0.042074993 0.027582608 0.0056816125 -0.005353808 -0.04175885 0.0054476527 2.520675 -0.012820086
-1.279795 -0.091892004 -0.44405282 -0.004486392 -1.27861 0.0016571849 -0.013519724 -0.0037918594
-0.007917437 -0.8289876 -0.010484464 0.002047747 -1.2786336 -1.2785758 -0.00560089 0.8267463
0.0007779534 -0.011491302 -1.27886 0.52930796 -0.0029728883 -1.2775307 -0.008239248 0.0020494233
00000000: 7ebe 0c39 907c 67bb 2c5b f5bb b5b6 f6bc
00000010: 7d26 283a bd52 a5bf 270c 743b a664 fc3c
00000020: 36d2 92b9 dc15 29be 2cd5 6b3b f07b a3bf
00000030: cd55 90bb 9d9b 69bc 9c23 ba3b 1262 1d3b
00000040: 97fd c9bb 5e92 4c3b e0c9 49bd 1eaa a3bf
00000050: 3cad a3bf 22db 94bf e80b dbbc e3b7 a3bf
00000060: 1dfd f8be 15ff a3bf da85 22bb 1fa3 0dbb
00000070: eee9 83bc 91ac a3bf a191 95bb b8a4 a3bf
00000080: d456 2cbd ecf4 e13c d22c ba3b ff6e afbb
00000090: 540b 2bbd 3982 b23b bd52 2140 570b 52bc
000000a0: 53d0 a3bf e031 bcbd e45a e3be 9502 93bb
000000b0: 7ea9 a3bf e635 d93a d581 5dbc d880 78bb
000000c0: 23b8 01bc 8838 54bf 07c7 2bbc 7e33 063b
000000d0: 44aa a3bf 5fa8 a3bf ac87 b7bb a5a5 533f
000000e0: 92ef 4b3a 0446 3cbc afb1 a3bf ba80 073f
000000f0: cad4 42bb 2086 a3bf e9fd 06bc 9e4f 063b

mamba.layers.0.mixer.x_proj.weight f4 [65, 64]
0.008994765 -0.017757038 -0.013854094 0.004865781 0.0029628177 0.20482759 0.010523753 -1.406528
-0.0033208292 0.15164256 0.029192463 0.43465418 0.021057578 0.045880347 -0.0055983546 -0.004445522
0.004942828 0.0069007315 0.051108334 0.29770294 0.14186342 0.18809257 -0.012879842 0.1087419
0.07078865 0.34690765 -0.020546412 -0.0011602764 -0.012091842 0.1848412 -0.017445736 0.4491806
0.010017344 -0.009965193 -0.015810313 -0.00023825864 -0.65481853 0.022656886 -0.8489737 -0.00066312886
0.4441115 0.023004964 -0.0172721 0.039406683 0.19813496 0.019536426 -7.401415e-05 -0.011059509
0.012029759 -0.18251094 -0.022384072 -0.0022164711 0.15755108 0.1488489 0.00930217 -0.65236765
-0.013705875 -0.018063238 0.14045317 0.1601104 -0.0020037962 0.25920868 0.004291712 -0.0041156155
-0.014686745 -0.014163863 -0.0035289286 -0.066300094 0.005026535 -1.8488711 0.008431878 -1.2900146
-0.001950791 -0.76761717 -0.013499928 -2.0657973 -0.0022295846 -0.15639453 -0.0017087628 0.0029397148
0.0105274385 -0.014357386 -0.16686393 -1.9486849 -1.724223 -1.5600982 -0.00874494 -1.7060935
-0.50371253 -2.2363408 -0.00814371 -0.023512928 -0.01493407 -1.891618 0.01306182 -2.028377
-0.088357374 0.068786144 0.033612516 -0.023674477 0.22578932 -0.023133837 -1.4454842 -0.029273706
-2.0889256 -0.29255942 -0.18535459 -0.033894032 -1.5777473 -0.028927948 -0.026197542 0.0011985076
-0.018982818 0.13718446 -0.003044786 0.010655743 -1.8663578 -1.7187424 -0.0138968285 -0.23261072
0.014149714 0.008063857 -1.657217 1.042427 -0.009819071 -1.7593125 -0.001088591 -0.008477249
-0.06508473 -0.23866482 -0.1062996 0.25889993 -0.19307299 1.5464361 0.07322091 -0.29858714
0.15895064 1.3783743 0.29770982 0.8122 0.5432198 1.0266479 -0.18931866 0.054390784
-0.047303002 -0.060727235 0.38222662 0.9745984 1.1949149 1.02159 -0.2530153 0.7854767
2.1814156 1.0986885 -0.08487235 0.045129474 -0.09422587 1.299398 0.039678697 0.6518209
0.30042097 0.1343179 0.001998118 -0.1153135 1.2005672 0.17964983 -0.25595823 -0.034484982
1.108385 0.7570159 1.160792 0.22218959 1.6097538 0.027176492 -0.099661924 0.08147499
0.35752186 -0.4143857 -0.13764842 -0.12481285 1.2190839 0.8431513 0.037206024 -0.8527561
0.15892567 -0.11179947 0.95333725 -1.9111279 0.1216502 1.0695657 -0.026261482 -0.03493782
0.62952626 0.08753576 0.20901568 -0.0036666293 0.08444848 0.055689853 0.43170926 -0.02524903
0.3261513 -0.32141304 0.5727013 -0.14129926 -0.56704634 0.12862335 -0.02713928 -0.39939094
-0.029980076 0.22780576 0.393498 -0.10549172 0.021890342 0.12074434 -0.2267873 -0.048421174
0.14467697 0.006845633 -0.0143778 0.6592963 0.21969102 -0.078897625 0.5160189 -0.09588687
0.17116503 -0.11938111 -0.23140657 0.10288819 -0.18496731 -0.00034976206 0.026364338 0.5834005
-0.08866318 0.30492517 0.12530382 0.7090996 -0.021003747 0.08055569 0.049443685 0.34541005
-0.060631935 -0.012199975 -0.19270046 -1.0561079 -0.12202515 -0.14726573 -0.042033784 -0.13960195
-0.034769867 0.71277577 -0.1531808 -0.31603852 -0.52960277 0.062181078 0.22413076 0.16024527
00000000: c75e 133c 3577 91bc 48fc 62bc 2171 9f3b
00000010: d52b 423b 53be 513e d26b 2c3c 1c09 b4bf
00000020: 45a2 59bb 3048 1b3e 0825 ef3c fe8a de3e
00000030: f180 ac3c 08ed 3b3d 6772 b7bb beab 91bb
00000040: 72f7 a13b 881f e23b f956 513d 856c 983e
00000050: a544 113e 579b 403e f905 53bc 13b4 de3d
00000060: a4f9 903d e19d b13e f350 a8bc 6a14 98ba
00000070: dc1c 46bc 0347 3d3e 5cea 8ebc 00fb e53e
00000080: c91f 243c 0d45 23bc a184 81bc 11d5 79b9
00000090: 30a2 27bf ef9a b93c 5756 59bf d3d5 2dba
000000a0: 9562 e33e e874 bc3c 387e 8dbc e768 213d
000000b0: e4e3 4a3e db0a a03c 0b38 9bb8 f132 35bc
000000c0: 7718 453c 26e4 3abe cd5e b7bc 3742 11bb
000000d0: 1255 213e d96b 183e 2168 183c 9101 27bf
000000e0: 9b8e 60bc 5bf9 93bc f5d2 0f3e fbf3 233e
000000f0: 1f52 03bb 00b7 843e 7da1 8c3b 49dc 86bb
00000100: aca0 70bc 8c0f 68bc 9945 67bb 58c8 87bd
00000110: a2b5 a43b cfa7 ecbf dc25 0a3c 331f a5bf
00000120: afb1 ffba 8f82 44bf cd2e 5dbc 0636 04c0
00000130: 391e 12bb e325 20be 91f8 dfba 3ba8 403b
00000140: 477b 2c3c 3e3b 6bbc 61de 2abe 826e f9bf
00000150: 57b3 dcbf 4cb1 c7bf f046 0fbc 4661 dabf
00000160: 4ef3 00bf 3520 0fc0 326d 05bc 2f9e c0bc
00000170: 08ae 74bc 8a20 f2bf 3e01 563c eed0 01c0
00000180: b6f4 b4bd c0df 8c3d 47ad 093d faf0 c1bc
00000190: 5135 673e 2c83 bdbc a005 b9bf 69cf efbc
000001a0: f5b0 05c0 59ca 95be 98cd 3dbe 78d4 0abd
000001b0: a0f3 c9bf 4efa ecbc 3a9c d6bc 3e17 9d3a
000001c0: db81 9bbc 157a 0c3e 088b 47bb 6d95 2e3c
000001d0: d0e4 eebf c0ff dbbf 86af 63bc 8131 6ebe
000001e0: 34d4 673c 451e 043c b01f d4bf 3f6e 853f
000001f0: 2be0 20bc 2731 e1bf 0daf 8eba 29e4 0abc
00000200: 254b 85bd 8d64 74be 9bb3 d9bd 888e 843e
00000210: edb4 45be 9ef1 c53f d8f4 953d 6ae0 98be
00000220: f5c3 223e 926e b03f 6c6d 983e 57ec 4f3f
00000230: 7410 0b3f 3369 833f c0dc 41be dfc8 5e3d
00000240: cbc0 41bd 1fbd 78bd 35b3 c33e 487f 793f
00000250: f9f2 983f 76c3 823f 398b 81be 0015 493f
00000260: 509c 0b40 d3a1 8c3f 8ed1 adbd afd9 383d
00000270: 7ef9 c0bd ac52 a63f 2186 223d bcdd 263f
00000280: c7d0 993e a28a 093e dbf2 023b 7c29 ecbd
00000290: 30ac 993f 20f6 373e f50c 83be 2040 0dbd
000002a0: 8fdf 8d3f cbcb 413f d594 943f ab85 633e
000002b0: 6a0c ce3f 3ca1 de3c 8d1b ccbd 5cdc a63d
000002c0: 1b0d b73e 5d2a d4be b5f3 0cbe e19d ffbd
000002d0: f10a 9c3f c3d8 573f 5865 183d 394e 5abf
000002e0: 69bd 223e 1ff7 e4bd e90d 743f d79f f4bf
000002f0: bd23 f93d 87e7 883f 5222 d7bc f61a 0fbd
00000300: a228 213f f345 b33d 3508 563e d54b 70bb
00000310: 53f3 ac3d 0b1b 643d ff08 dd3e 0ed7 cebc
00000320: 4efd a63e 4090 a4be 8d9c 123f c1b0 10be
00000330: f329 11bf d7b5 033e 3253 debc f87c ccbe
00000340: c798 f5bc ea45 693e 9278 c93e 0b0c d8bd
00000350: 6053 b33c cf48 f73d ee3a 68be 4855 46bd
00000360: 3326 143e 5551 e03b dd90 6bbc a4c7 283f
00000370: aff6 603e 1495 a1bd d119 043f 5660 c4bd
00000380: e345 2f3e 157e f4bd d8f5 6cbe 0bb7 d23d
00000390: 1268 3dbe 4560 b7b9 06fa d73c bc59 153f
000003a0: 0b95 b5bd 271f 9c3e a54f 003e 8d87 353f
000003b0: 0d10 acbc 62fa a43d 7685 4a3d 96d9 b03e
000003c0: 3159 78bd 67e2 47bc 4553 45be 8b2e 87bf
000003d0: 52e8 f9bd d4cc 16be 9e2b 2cbd d0f3 0ebe
000003e0: d96a 0ebd 7978 363f 6ddb 1cbe cdcf a1be
000003f0: 0c94 07bf 96b1 7e3d 8982 653e 5617 243e

mamba.layers.0.mixer.dt_proj.weight f4 [64, 1]
-0.2709831 -0.053805146 -0.3128859 0.13465136 0.17568761 0.51237303 -0.056011397 0.64013237
0.21713072 0.15435769 -0.11453555 3.9687505 2.2372208 0.03491499 0.31527188 1.5982581
0.42934328 0.25675282 0.33994827 -0.2136086 2.7400336 3.0341022 0.13192828 3.5027144
0.3196776 0.34141928 -0.19386414 2.260265 0.2741597 -0.25319844 0.33249062 0.2354258
2.479981 0.14460763 0.18028161 0.17743228 0.9448477 -0.11442201 0.4290481 -0.0073907888
-0.13380636 -0.1000808 0.22308415 -0.05127783 0.2700331 0.23862419 1.7284935 -0.21252015
0.40965918 -0.09081704 0.032910414 0.17951638 0.32602835 -0.32917985 0.26819494 -0.013180458
-0.14951083 0.39224318 2.0440552 -0.09943623 0.0032146333 1.2196846 0.096549466 0.3318122
00000000: 4cbe 8abe c962 5cbd 9532 a0be 0ce2 093e
00000010: 74e7 333e e12a 033f 356c 65bd b7df 233f
00000020: 8457 5e3e f10f 1e3e 9d91 eabd 0200 7e40
00000030: a02e 0f40 0503 0f3d 516b a13e b993 cc3f
00000040: e2d2 db3e 1b75 833e b30d ae3e 36bc 5abe
00000050: b65c 2f40 bb2e 4240 3518 073e 792c 6040
00000060: c8ac a33e 82ce ae3e 5284 46be 2fa8 1040
00000070: a95e 8c3e 3aa3 81be 363c aa3e 7613 713e
00000080: 02b8 1e40 0614 143e be9b 383e cfb0 353e
00000090: 8ae1 713f 1656 eabd 31ac db3e 6e2e f2bb
000000a0: 8904 09be 2af7 ccbd 2c70 643e b408 52bd
000000b0: c741 8a3e e659 743e 463f dd3f e29e 59be
000000c0: d9be d13e 49fe b9bd 12cd 063d 24d3 373e
000000d0: 30ed a63e 438a a8be d950 893e d9f2 57bc
000000e0: 5e19 19be 19d4 c83e cdd1 0240 39a5 cbbd
000000f0: 99ac 523b a01e 9c3f babb c53d 4ae3 a93e

mamba.layers.0.mixer.dt_proj.bias f4 [64]
-4.1616406 -3.5674596 -5.4735765 -4.6772695 -5.2359433 -3.0474846 -4.0984797 -5.5850053
-2.7954378 -4.645025 -5.433024 -8.340777 -8.723178 -6.965931 -4.0690875 -8.513879
-2.8431523 -3.9431922 -3.6014497 -5.180618 -9.149395 -9.15194 -5.6093063 -6.313485
-3.7158968 -2.443041 -5.655934 -8.49561 -3.9237895 -6.342494 -3.7797868 -5.1071887
-7.9960504 -4.4983215 -5.2892137 -4.147262 -5.9866967 -4.7772145 -5.9081764 -3.7218223
-5.6624293 -3.9638057 -4.189764 -3.977999 -4.2806716 -4.1258936 -6.5629187 -4.2663474
-3.9706092 -7.5593853 -4.8470654 -4.709609 -3.2163918 -6.0307713 -3.8956397 -4.598069
-4.5592446 -3.6895702 -9.326287 -4.981522 -3.856737 -3.615472 -3.7748635 -3.220668
00000000: 292c 85c0 4251 64c0 8a27 afc0 31ac 95c0
00000010: d98c a7c0 fd09 43c0 bf26 83c0 5db8 b2c0
00000020: 74e8 32c0 0ba4 94c0 55db adc0 d373 05c1
00000030: 2392 0bc1 e8e8 dec0 f735 82c0 d938 08c1
00000040: 35f6 35c0 435d 7cc0 277e 66c0 9fc7 a5c0
00000050: ec63 12c1 596e 12c1 707f b3c0 1208 cac0
00000060: 41d1 6dc0 c95a 1cc0 69fd b4c0 05ee 07c1
00000070: 5e1f 7bc0 b6f5 cac0 07e8 71c0 176e a3c0
00000080: a5df ffc0 40f2 8fc0 3d41 a9c0 5fb6 84c0
00000090: 0593 bfc0 f1de 98c0 c80f bdc0 5632 6ec0
000000a0: 9f32 b5c0 feae 7dc0 8c12 86c0 8997 7ec0
000000b0: 43fb 88c0 5207 84c0 6e03 d2c0 eb85 88c0
000000c0: 761e 7ec0 7ce6 f1c0 291b 9bc0 1eb5 96c0
000000d0: 5dd9 4dc0 14fc c0c0 2952 79c0 6223 93c0
000000e0: 55e5 91c0 eb21 6cc0 7938 15c1 a168 9fc0
000000f0: c7d4 76c0 e563 67c0 5d97 71c0 6d1f 4ec0

mamba.layers.0.mixer.out_proj.weight f4 [2, 64]
-0.020101443 0.103015676 0.07061842 0.09461382 0.011710271 0.06378947 0.110961795 -0.01517646
-0.011444062 -0.042408988 -0.11202602 -0.033976734 -0.09126438 0.1107679 -0.02365388 0.022131786
0.08471441 -0.11734326 0.09849857 0.097186685 0.11145985 0.06773876 0.014313012 0.008783624
0.076099664 -0.0420489 -0.009627268 0.013072357 -0.124485955 -0.054576978 0.057729214 0.0061973035
-0.08062714 -0.0748934 -0.08278327 -0.009262428 0.11153424 0.014508948 0.08176418 -0.0835644
-0.11981885 0.056680277 -0.08949891 -0.036655307 -0.045834035 -0.11006807 -0.061640963 0.03195232
-0.09385848 -0.007841796 0.061006904 0.062777564 -0.10228217 -0.038585395 -0.060973838 0.025092095
-0.06035748 0.067968026 -0.09906161 -0.106997624 -0.094127834 0.0813656 0.022191241 0.022482067
0.026505172 -0.027262464 0.05430223 -0.048802197 0.008562416 0.019182533 0.124607846 0.047327936
0.06370211 -0.1201977 -0.05215779 0.060037643 -0.04867798 0.078821495 0.07176772 -0.036381036
-0.042233586 -0.08789456 -0.018557832 -0.121984825 0.054726407 0.10678196 0.122486845 0.0691687
-0.0853056 -0.035909176 0.10827762 -0.038992003 -0.10430643 0.024337396 0.113055095 -0.019211262
-0.1226224 0.009142697 0.047852695 -0.09021154 0.012191966 -0.038675517 0.0401486 0.09046297
-0.049516246 0.03761813 -0.10627973 -0.07866144 -0.1061897 0.12015319 0.0074133724 0.0028268099
0.06431241 0.09257658 0.08746286 -0.0917476 -0.010092065 -0.104904145 0.116608754 0.028090775
0.06453289 -0.058281347 -0.08012551 -0.029748574 0.05659361 0.008808136 -0.009635717 -0.103690624
00000000: c8ab a4bc e2f9 d23d 64a0 903d e4c4 c13d
00000010: 70dc 3f3c 0ea4 823d f03f e33d b0a6 78bc
00000020: e07f 3bbc 0cb5 2dbd e66d e5bd 302b 0bbd
00000030: d2e8 babd 48da e23d c8c5 c1bc b84d b53c
00000040: c07e ad3d aa51 f0bd 9eb9 c93d d009 c73d
00000050: 1045 e43d 9eba 8a3d 2081 6a3c 30e9 0f3c
00000060: 24da 9b3d 783b 2cbd b0bb 1dbc 702d 563c
00000070: 7ef2 febd 1c8c 5fbd 7875 6c3d c012 cb3b
00000080: d81f a5bd b661 99bd 468a a9bd 70c1 17bc
00000090: 106c e43d f0b6 6d3c fa73 a73d d023 abbd
000000a0: 9663 f5bd 9429 683d 344b b7bd e023 16bd
000000b0: 78bc 3bbd 5e6b e1bd 3c7b 7cbd 70e0 023d
000000c0: e038 c0bd e07a 00bc 60e2 793d 8691 803d
000000d0: 5079 d1bd b80b 1ebd b4bf 79bd f08d cd3c
000000e0: 6839 77bd d232 8b3d d0e0 cabd 9221 dbbd
000000f0: 18c6 c0bd 02a3 a63d 68ca b53c 502c b83c
00000100: 6021 d93c 8855 dfbc 046c 5e3d d0e4 47bd
00000110: 6049 0c3c b024 9d3c 6632 ff3d f0da 413d
00000120: 4076 823d 362a f6bd 68a3 55bd 08ea 753d
00000130: 9062 47bd 2a6d a13d f4fa 923d 4804 15bd
00000140: 20fd 2cbd 1002 b4bd 9806 98bc 2ed3 f9bd
00000150: cc28 603d 80b0 da3d 62da fa3d 52a8 8d3d
00000160: b4b4 aebd 8015 13bd a8c0 dd3d 14b6 1fbd
00000170: 9c9e d5bd 385f c73c 6e89 e73d f060 9dbc
00000180: 7421 fbbd 40cb 153c 3001 443d d4c0 b8bd
00000190: d0c0 473c 386a 1ebd dc72 243d a644 b93d
000001a0: 8cd1 4abd 7815 1a3d 30a9 d9bd 4019 a1bd
000001b0: fc79 d9bd e012 f63d e0eb f23b 0042 393b
000001c0: 3ab6 833d ca98 bd3d ba1f b33d 2ae6 bbbd
000001d0: 3059 25bc fcd7 d6bd 92d0 ee3d a01e e63c
000001e0: d229 843d 6cb8 6ebd d818 a4bd 48b3 f3bc
000001f0: b4ce 673d 0050 103c 20df 1dbc c05b d4bd

mamba.layers.0.norm.weight f4 [2]
0.2788334 0.30957964
00000000: 40c3 8e3e 3981 9e3e

fc.weight f4 [1, 64]
-0.0017085456 1.1710008e-05 -0.024185833 -0.15144022 0.03816804 -3.525408e-06 -0.019407304 -1.5306296
0.062052097 0.001328904 0.019835979 3.6434753e-07 0.0030374678 -0.13909954 0.026419185 0.0010428191
0.00023378538 -0.040218297 0.00027103056 -0.8847687 0.0018606774 -0.088403076 -2.8436225e-06 1.4913883
0.010332256 6.382594e-05 -2.029285e-05 0.0006479769 -0.01619707 -1.5159117e-11 -0.022305688 -6.1389505e-06
0.29994598 -0.11152909 -0.00032443384 0.07011464 1.2395954 -0.0049534733 -1.5167334 -0.013548077
-0.7304467 0.26190606 -0.0007772644 0.014836382 7.421857e-08 0.029598683 0.0007752035 -0.10992331
1.6006566e-06 -1.5404727 -0.01167389 -4.902966e-05 -5.1021274e-05 -3.1165048e-09 -0.008087875 -0.423746
0.0031151848 0.0020285451 -1.24993935e-08 -0.5921474 8.7238244e-05 -0.5152993 0.06645658 0.03303468
00000000: 47f1 dfba 1a76 4437 5e21 c6bc 2513 1bbe
00000010: 1756 1c3d 0c96 6cb6 11fc 9ebc aceb c3bf
00000020: 572a 7e3d 9e2e ae3a 107f a23c 8b9b c334
00000030: 4110 473b 1c70 0ebe 0c6d d83c 34af 883a
00000040: 4924 7539 f1bb 24bd 1b19 8e39 3480 62bf
00000050: f9e1 f33a ac0c b5bd 10d5 3eb6 d0e5 be3f
00000060: 9f48 293c 4ada 8538 903a aab7 fedc 293a
00000070: b8af 84bc 4c57 85ad 6bba b6bc 2ffd cdb6
00000080: 8592 993e 5d69 e4bd c618 aab9 4498 8f3d
00000090: 10ab 9e3f bf50 a2bb 5224 c2bf c1f8 5dbc
000000a0: 8efe 3abf 8d18 863e 55c1 4bba 4c14 733c
000000b0: 1762 9f33 f078 f23c 0737 4b3a 791f e1bd
000000c0: 24d6 d635 362e c5bf d843 3fbc 32a5 4db8
000000d0: adff 55b8 222a 56b1 0283 04bc 3cf5 d8be
000000e0: 2128 4c3b 57f1 043b eabc 56b2 f996 17bf
000000f0: adf3 b638 a8ea 03bf 631a 883d 5f4f 073d
