models/classification/mamba_delV_1.0_trainDim_2_pN_0.0_vN_0.0_nonDim_False.pth (torch, 36919 bytes, 12 tensors)

mamba.layers.0.mixer.A_log f4 [64, 32]
0	0x3fca68e3	1.5813259
1	0x3fd4b07c	1.6616359
2	0x3f3b817a	0.7324444
3	0x402ba0f7	2.6816995
4	0x3fd0eb7a	1.6321862
5	0x40614c31	3.5202754
6	0x4008aa3a	2.1353898
7	0x400bb346	2.182817
8	0x40609dc3	3.509629
9	0x40780991	3.875584
10	0x40613c80	3.5193176
11	0x4081b444	4.053255
12	0x40d34306	6.6019316
13	0x40add475	5.4321847
14	0x409bee17	4.8728137
15	0x40947f23	4.6405196
16	0x408b994c	4.362463
17	0x40c2cb66	6.087329
18	0x40b54b8d	5.6654725
19	0x4084344c	4.131384
20	0x40b8d5c9	5.776097
21	0x40b5f87a	5.6865816
22	0x40b90397	5.781688
23	0x404ef571	3.2337306
24	0x40a81c5e	5.253463
25	0x4097318a	4.7247972
26	0x40c3d256	6.119426
27	0x40d13c28	6.5385933
28	0x40b7d855	5.7451577
29	0x409b1433	4.8462157
30	0x40b4e969	5.6534925
31	0x40bb2abe	5.8489676
32	0x40752a17	3.830694
33	0x4022880c	2.5395536
34	0x4036e8dc	2.8579626
35	0x4076b38e	3.8547091
36	0x407755c1	3.864609
37	0x40812459	4.035687
38	0x401ed14b	2.4815242
39	0x40a0817c	5.015806
40	0x40a4ecda	5.1539125
41	0x40910b5d	4.532637
42	0x4096fd91	4.718453
43	0x40aa2e3e	5.318145
44	0x406c83ce	3.6955447
45	0x40583449	3.3781912
46	0x40744fce	3.817371
47	0x403dacb8	2.963667
48	0x408a22b4	4.316736
49	0x40a29da5	5.0817437
50	0x407e7cca	3.9763665
51	0x409ea9aa	4.958211
52	0x409d9783	4.924745
53	0x4073c94f	3.809162
54	0x4069bef2	3.6522794
55	0x408fa12b	4.488424
56	0x40b2d56f	5.588554
57	0x40ce2e03	6.4431167
58	0x408613b1	4.1899037
59	0x40c78f7c	6.236265
60	0x40b8e663	5.7781234
61	0x40bd14a2	5.9087687
62	0x40c1b776	6.053645
63	0x40972a58	4.723919
64	0x3e0c40f9	0.1369666
65	0x3fb041bf	1.3770064
66	0x3e4c08f2	0.19925287
67	0x403b23bb	2.9240558
68	0x40275e45	2.6151288
69	0x4035e481	2.8420718
70	0x401b36a2	2.4252095
71	0x403d4814	2.9575243
72	0x3fdaeb76	1.7103107
73	0x40556fd9	3.3349516
74	0x408dce4f	4.431434
75	0x402f30e8	2.73736
76	0x407c63b1	3.9435847
77	0x40981882	4.7529917
78	0x407d961f	3.9622877
79	0x40830900	4.0948486
80	0x401bb972	2.4331937
81	0x40891bfa	4.284665
82	0x4087bfe8	4.242176
83	0x404aefdd	3.17089
84	0x40824e77	4.072078
85	0x40962450	4.6919327
86	0x4089839f	4.297317
87	0x409651e1	4.697495
88	0x408a9660	4.3308563
89	0x4084da79	4.151669
90	0x407c073b	3.9379413
91	0x409ba6fb	4.8641334
92	0x408ec287	4.461246
93	0x40550b78	3.328825
94	0x406809bd	3.6255944
95	0x4081ab70	4.0521774
96	0x3fde5517	1.7369717
97	0x40213c0c	2.51929
98	0x3fb47794	1.4098992
99	0x4030d8f3	2.7632415
100	0x4003a2f2	2.0568204
101	0x405ae0e4	3.4199762
102	0x3ff32d5e	1.899822
103	0x402bde97	2.6854608
104	0x404c2495	3.1897328
105	0x40121c8b	2.2829921
106	0x401b7eff	2.4296262
107	0x3ffabb20	1.9588356
108	0x406006cc	3.5004148
109	0x4084fb1d	4.1556535
110	0x40842215	4.1291604
111	0x405401c4	3.3126078
112	0x402a5231	2.6612666
113	0x405a6d57	3.4129236
114	0x406320cb	3.5488765
115	0x403287e4	2.789544
116	0x40750498	3.8284054
117	0x408d7293	4.420236
118	0x4085a728	4.176655
119	0x40a3d3e0	5.1196136
120	0x4049201b	3.1425846
121	0x403f81b4	2.9922915
122	0x4057ec2e	3.3737903
123	0x404d17b6	3.2045722
124	0x40867d30	4.2027817
125	0x4047dc9a	3.1228395
126	0x40813b86	4.038516
127	0x40815895	4.042063
128	0x3f442fc8	0.7663541
129	0x401b1b9b	2.42356
130	0x3fbac1d8	1.4590406
131	0x40461203	3.0948493
132	0x40339814	2.806157
133	0x4042bd4e	3.0428042
134	0x3feb8c7b	1.8402246
135	0x405fd70b	3.4975002
136	0x401cda77	2.450834
137	0x402fb271	2.7452662
138	0x405df154	3.4678545
139	0x3ffa606c	1.9560676
140	0x402b140e	2.673099
141	0x4087358c	4.2252865
142	0x4077104e	3.8603702
143	0x403b2132	2.923901
144	0x406d4164	3.7071161
145	0x4071eaa4	3.7799463
146	0x409231e4	4.56859
147	0x40685a4f	3.630512
148	0x406fdda5	3.747903
149	0x409c9db1	4.8942494
150	0x409727b8	4.7235985
151	0x40919a07	4.550052
152	0x40513121	3.2686236
153	0x407ecb00	3.9811401
154	0x4069a298	3.650549
155	0x4082a5c5	4.0827355
156	0x4096e712	4.715707
157	0x40800b63	4.00139
158	0x40813a37	4.0383563
159	0x40a57e61	5.171677
160	0x3ff7679e	1.9328496
161	0x4051218d	3.2676728
162	0x3ff299fe	1.8953245
163	0x40207722	2.5072713
164	0x40012224	2.0177088
165	0x4072acf1	3.7918055
166	0x401a749b	2.413367
167	0x4096abca	4.7084703
168	0x403e0e33	2.9696167
169	0x406df339	3.7179701
170	0x40809da5	4.0192437
171	0x407e7543	3.975907
172	0x40854a46	4.1653166
173	0x408c1e1f	4.378677
174	0x409b1542	4.846345
175	0x407d0ef3	3.9540374
176	0x403d4bc5	2.9577496
177	0x40847f1b	4.140516
178	0x4095a6eb	4.6766257
179	0x4082fa59	4.09306
180	0x40869a7f	4.2063594
181	0x408ce4ed	4.402945
182	0x40861315	4.1898293
183	0x40b38060	5.609421
184	0x408247cb	4.071264
185	0x408837f0	4.2568283
186	0x406cc839	3.6997206
187	0x40680193	3.625096
188	0x40978054	4.734415
189	0x408ac64c	4.336706
190	0x408cfa24	4.4055347
191	0x4086cafa	4.2122774
192	0x404b3ac5	3.175462
193	0x3fc3cc8a	1.5296795
194	0x3faa7bba	1.3319008
195	0x3f9f3555	1.2438151
196	0x407707e9	3.8598578
197	0x3ff8e580	1.9445038
198	0xb933cf64	-0.0001714803
199	0x40860ce7	4.189075
200	0x407ffb02	3.9996953
201	0x4025a62a	2.5882668
202	0x401b3fdb	2.4257724
203	0x408937f4	4.28808
204	0x400224e3	2.0335014
205	0x4059ab8c	3.4010954
206	0x4097a160	4.738449
207	0x403a31a1	2.909279
208	0x40830169	4.093922
209	0x4094b2ed	4.6468415
210	0x4087fe57	4.2497973
211	0x408b8b83	4.3607802
212	0x40900d68	4.5016365
213	0x4083ca00	4.118408
214	0x40867585	4.2018456
215	0x40a94fe4	5.2910023
216	0x409bb0bc	4.865324
217	0x409ed28b	4.963201
218	0x408f746a	4.4829607
219	0x409e68d2	4.9502954
220	0x40a305d4	5.0944614
221	0x409ea4fd	4.95764
222	0x40a2e5c1	5.090546
223	0x40a49ddd	5.1442704
224	0x3f22a99b	0.6354005
225	0x4056889a	3.3520875
226	0x401d603a	2.4589982
227	0x40564273	3.3478057
228	0x40378c24	2.8679285
229	0x40808e38	4.0173607
230	0x403205b3	2.7815979
231	0x405f1505	3.485658
232	0x40727c51	3.7888377
233	0x40586e4b	3.3817317
234	0x406f48d3	3.7388198
235	0x404b3a60	3.175438
236	0x407ff70d	3.9994538
237	0x407fff76	3.999967
238	0x40998b37	4.798244
239	0x4082e3e1	4.0903172
240	0x4069eded	3.6551468
241	0x408b322b	4.349874
242	0x40a77abd	5.2337327
243	0x40613f41	3.5194857
244	0x4077dd20	3.8728714
245	0x409ae2c5	4.840182
246	0x409ce625	4.903094
247	0x409147d9	4.5400205
248	0x408404e4	4.125597
249	0x407adaa1	3.919594
250	0x405ac435	3.4182255
251	0x4088c6ea	4.2742815
252	0x40838fc4	4.1112995
253	0x40975044	4.728548
254	0x4097ec29	4.747578
255	0x408d2c72	4.4116755

mamba.layers.0.mixer.D f4 [64]
0	0x3f6dbc18	0.92865133
1	0x400b4352	2.175984
2	0x3f798a9d	0.9747713
3	0x3fe65c0e	1.7996843
4	0x3f81069c	1.0080142
5	0x3fc95ad9	1.573085
6	0x40914c0d	4.5405335
7	0x3fc624ad	1.5479943
8	0x3f6096bc	0.8773
9	0x3ff9b197	1.9507321
10	0x40047b86	2.0700393
11	0x3f7aed14	0.98018
12	0x3faa0fe7	1.3286103
13	0x3ff55720	1.9167213
14	0x3f23d986	0.6400379
15	0x3ed5b259	0.4173763
16	0x3f85f69b	1.0465883
17	0x3f7d1f5e	0.9887599
18	0x3f29d1e5	0.663359
19	0x400b2284	2.1739817
20	0x400117ad	2.01707
21	0x3fb1f965	1.3904234
22	0x3fc96733	1.5734619
23	0x4011efa5	2.2802517
24	0x3fd0d745	1.6315695
25	0x3fbdffc0	1.4843674
26	0xbff503e9	-1.9141818
27	0x3fb3e043	1.4052814
28	0x3fcd7679	1.605178
29	0x3fb47716	1.4098842
30	0x3f944b5d	1.1585499
31	0x3f6cedba	0.9255024
32	0x3fcbaf39	1.5912849
33	0x3f925de6	1.1434906
34	0x40373c94	2.8630724
35	0x3f7cc50a	0.9873816
36	0x3f5f70e2	0.8728162
37	0xbf09c87b	-0.53821534
38	0x4001b6ba	2.0267777
39	0x3faad3e2	1.3345912
40	0x3fbc6f54	1.4721475
41	0x3f7ab029	0.9792505
42	0x3f49dc09	0.7885137
43	0x3f857170	1.0425243
44	0x3fcffca6	1.6248977
45	0x405bc14e	3.4336734
46	0x3f88c8aa	1.0686238
47	0x401216a4	2.2826319
48	0x3f92cbf5	1.1468493
49	0x3fa8acfb	1.317779
50	0x3f9b7afc	1.2146907
51	0x3ff9b1e7	1.9507416
52	0x3f83cbf0	1.0296612
53	0x3fa0388f	1.251726
54	0x3f805feb	1.0029272
55	0x3feb3f60	1.8378716
56	0x406719f7	3.6109598
57	0x3f9f91c0	1.2466354
58	0x3fe41ae0	1.7820702
59	0x3f303ad9	0.68839794
60	0x3fcfa739	1.6222907
61	0x3fa43609	1.282899
62	0x3fada603	1.3566288
63	0x405a9ab3	3.415692

mamba.layers.0.mixer.D_SSM f4 [64]
0	0x3f6dbc18	0.92865133
1	0x400b4352	2.175984
2	0x3f798a9d	0.9747713
3	0x3fe65c0e	1.7996843
4	0x3f81069c	1.0080142
5	0x3fc95ad9	1.573085
6	0x40914c0d	4.5405335
7	0x3fc624ad	1.5479943
8	0x3f6096bc	0.8773
9	0x3ff9b197	1.9507321
10	0x40047b86	2.0700393
11	0x3f7aed14	0.98018
12	0x3faa0fe7	1.3286103
13	0x3ff55720	1.9167213
14	0x3f23d986	0.6400379
15	0x3ed5b259	0.4173763
16	0x3f85f69b	1.0465883
17	0x3f7d1f5e	0.9887599
18	0x3f29d1e5	0.663359
19	0x400b2284	2.1739817
20	0x400117ad	2.01707
21	0x3fb1f965	1.3904234
22	0x3fc96733	1.5734619
23	0x4011efa5	2.2802517
24	0x3fd0d745	1.6315695
25	0x3fbdffc0	1.4843674
26	0xbff503e9	-1.9141818
27	0x3fb3e043	1.4052814
28	0x3fcd7679	1.605178
29	0x3fb47716	1.4098842
30	0x3f944b5d	1.1585499
31	0x3f6cedba	0.9255024
32	0x3fcbaf39	1.5912849
33	0x3f925de6	1.1434906
34	0x40373c94	2.8630724
35	0x3f7cc50a	0.9873816
36	0x3f5f70e2	0.8728162
37	0xbf09c87b	-0.53821534
38	0x4001b6ba	2.0267777
39	0x3faad3e2	1.3345912
40	0x3fbc6f54	1.4721475
41	0x3f7ab029	0.9792505
42	0x3f49dc09	0.7885137
43	0x3f857170	1.0425243
44	0x3fcffca6	1.6248977
45	0x405bc14e	3.4336734
46	0x3f88c8aa	1.0686238
47	0x401216a4	2.2826319
48	0x3f92cbf5	1.1468493
49	0x3fa8acfb	1.317779
50	0x3f9b7afc	1.2146907
51	0x3ff9b1e7	1.9507416
52	0x3f83cbf0	1.0296612
53	0x3fa0388f	1.251726
54	0x3f805feb	1.0029272
55	0x3feb3f60	1.8378716
56	0x406719f7	3.6109598
57	0x3f9f91c0	1.2466354
58	0x3fe41ae0	1.7820702
59	0x3f303ad9	0.68839794
60	0x3fcfa739	1.6222907
61	0x3fa43609	1.282899
62	0x3fada603	1.3566288
63	0x405a9ab3	3.415692

mamba.layers.0.mixer.in_proj.weight f4 [128, 2]
0	0xbfeced58	-1.8509932
1	0x3edee1ba	0.4353159
2	0x3f9fe3f6	1.2491443
3	0x3e879f36	0.26488656
4	0xbb8051a3	-0.003915982
5	0x3aebf5d4	0.001800234
6	0xb9863c1b	-0.00025603254
7	0xb7aa06cb	-2.0268742e-05
8	0x3b6b3ea9	0.0035895503
9	0x3c2d6c5b	0.010584916
10	0xbb0abf8f	-0.0021171307
11	0x3b2b6278	0.0026151221
12	0xbb3015ee	-0.002686854
13	0xbab42523	-0.0013743978
14	0x3a40117a	0.0007326823
15	0xb99e2567	-0.00030163975
16	0x3bfe4e7e	0.007760822
17	0xbc7a143c	-0.015263613
18	0x3db2ad22	0.08724429
19	0xbc089759	-0.008336865
20	0xbb1fb7a0	-0.0024370924
21	0x3b9506ed	0.0045479448
22	0x3f12acdd	0.5729502
23	0xbf193345	-0.59843856
24	0x3a288d80	0.00064297765
25	0xbaa2aa0f	-0.00124103
26	0xbb209037	-0.0024500021
27	0x3c26907c	0.010166284
28	0x37abcafe	2.0479314e-05
29	0xb7a941f0	-2.0177074e-05
30	0x3f2686e6	0.6504959
31	0xbfa0146f	-1.2506236
32	0xbf54633b	-0.82963914
33	0xbfdae247	-1.7100304
34	0x3899cb62	7.3334915e-05
35	0x37ff519d	3.0436373e-05
36	0xbf84909a	-1.0356629
37	0xbf335820	-0.70056343
38	0x3a1f03c5	0.00060659304
39	0x399577c0	0.00028508715
40	0x388fdf58	6.8603724e-05
41	0x3911d703	0.00013908376
42	0xbc639286	-0.013889914
43	0x3b205f45	0.0024470848
44	0xb6ce9ddb	-6.157655e-06
45	0xb8d44a17	-0.00010122748
46	0x3b95f0fc	0.0045758467
47	0xbb786ea0	-0.0037907735
48	0x3a2da91b	0.0006624625
49	0x390f2ed3	0.00013654986
50	0x387692f4	5.878783e-05
51	0xb845cc2f	-4.715862e-05
52	0xb991a7ab	-0.00027781478
53	0x3a9f0a50	0.0012133811
54	0x3c179332	0.009251403
55	0x3cf85b6c	0.03031703
56	0x3d58bcf5	0.05291458
57	0x3ba41e9c	0.0050085317
58	0xb8c327e9	-9.3057584e-05
59	0x37e62d8a	2.7439342e-05
60	0x3bcd1958	0.0062591247
61	0x3cb5c2b5	0.02218757
62	0xb9b8e982	-0.00035269192
63	0x3be3dee9	0.006954063
64	0xbb8965ae	-0.0041930294
65	0x3c8f21a2	0.017472092
66	0x399fc1aa	0.00030471134
67	0x37be39cc	2.2676679e-05
68	0xbc9032e5	-0.017602393
69	0x3cfa6943	0.03056777
70	0x394300f9	0.00018597012
71	0xb940712f	-0.00018352711
72	0xbbfaf7f6	-0.007658954
73	0x3b6cd429	0.00361372
74	0x3f865740	1.0495377
75	0xbf31751d	-0.69319326
76	0x3a42e8fa	0.0007435229
77	0x3c13c57d	0.009019253
78	0xbb90373d	-0.004401116
79	0x3cd03486	0.02541567
80	0x3952fd65	0.00020121557
81	0xb8c0a0ce	-9.185226e-05
82	0xb6e920a0	-6.947739e-06
83	0x381bace2	3.711589e-05
84	0x3cd94fa9	0.026527243
85	0x3bd1d737	0.0064038294
86	0xb7e3dafa	-2.7162478e-05
87	0x381acc8b	3.6906957e-05
88	0x3741e609	1.1557256e-05
89	0x378e8bfc	1.6992904e-05
90	0x3b54b381	0.0032455625
91	0xbb449512	-0.002999608
92	0x3a2bce0e	0.0006553837
93	0xb991d144	-0.0002781247
94	0x382fb5c4	4.1892534e-05
95	0x3960803b	0.00021410074
96	0xbb2049c8	-0.002445804
97	0xb9febe9c	-0.0004858867
98	0x36c552f5	5.880715e-06
99	0xb7e8c580	-2.7748523e-05
100	0xb898112f	-7.2511255e-05
101	0x3b16171a	0.0022901953
102	0xbb853b2d	-0.004065892
103	0x39f793fd	0.0004722177
104	0xbf831590	-1.0240955
105	0x3fcdd8bb	1.6081766
106	0xb78d8684	-1.6871149e-05
107	0xb7aaa779	-2.0343565e-05
108	0xb95c40f2	-0.00021005029
109	0x39c1091a	0.0003681861
110	0xb9263657	-0.00015851237
111	0xb824b165	-3.926586e-05
112	0x3bbeb72d	0.005820176
113	0x3b33d635	0.002744091
114	0x3c027cdb	0.007964338
115	0x3b9a5d3b	0.004710821
116	0x3917f37c	0.00014491187
117	0x3902b0c8	0.00012463622
118	0x38937826	7.0318856e-05
119	0xb908b4a3	-0.00013037263
120	0xb927b825	-0.0001599496
121	0x394b965f	0.00019415606
122	0xb753f738	-1.263414e-05
123	0x3aa14785	0.001230464
124	0xb8770bef	-5.8900503e-05
125	0x38ad6639	8.268323e-05
126	0xb7ba7c7a	-2.2230892e-05
127	0xb8ca08f8	-9.633781e-05
128	0x369b42a2	4.627117e-06
129	0x3736f534	1.0905136e-05
130	0xbc82ee80	-0.015982866
131	0xbc017c8e	-0.007903231
132	0xbe186434	-0.14881974
133	0xbc9cc049	-0.019134657
134	0xbbd4bfac	-0.0064925756
135	0x3bd8624c	0.006603515
136	0xbd5a0e45	-0.053236265
137	0x3d09d4b1	0.033650104
138	0xb621ca11	-2.4108488e-06
139	0xb6311db7	-2.6392352e-06
140	0x3f80bf7a	1.0058434
141	0x3f4f6936	0.81019914
142	0x36c25dcc	5.79257e-06
143	0xb6ef2e1d	-7.1281233e-06
144	0xb97f0307	-0.00024319823
145	0x3c1a2848	0.009409018
146	0xbd0242b7	-0.031801905
147	0x3d901785	0.07035736
148	0xbb8f6ec5	-0.0043772184
149	0xbc0496fe	-0.00809264
150	0x3c9247ec	0.01785656
151	0xbba33ae1	-0.004981384
152	0xbc221db2	-0.009894775
153	0x3d847561	0.06467701
154	0xbc2b270b	-0.01044632
155	0x3b4ce5a3	0.0031264804
156	0x3e08ac63	0.1334701
157	0x3c41e7e9	0.011835077
158	0x3c80cd40	0.01572287
159	0x3d055255	0.03254922
160	0xb6b2e897	-5.3318904e-06
161	0x346491ca	2.1287192e-07
162	0xbc8cd47d	-0.017191166
163	0xbd84381a	-0.06456013
164	0xbd2464ee	-0.040135317
165	0x3caa8b5e	0.020818409
166	0x383ca398	4.497505e-05
167	0xb98ecf33	-0.00027238726
168	0x3d359169	0.044328127
169	0xba705485	-0.0009167868
170	0xbd9bb9d0	-0.076038
171	0x3c9d71dd	0.019219333
172	0xbe18d7c1	-0.14926054
173	0x3cc2e9e5	0.02379317
174	0x3d080625	0.033208985
175	0x3b978d15	0.0046249726
176	0xbe31ce49	-0.17363848
177	0x3ae8bb02	0.0017755928
178	0xbc53accf	-0.012919619
179	0xbcae630f	-0.02128747
180	0x3faefde6	1.3671234
181	0xbeaf5772	-0.34246403
182	0xbc087ca4	-0.008330498
183	0x3c6cc7f6	0.014451971
184	0xbb6e9583	-0.0036405034
185	0xbb0c9d1c	-0.002145595
186	0x3d2ea48c	0.042637393
187	0xbcaad006	-0.020851146
188	0x3d5c91e8	0.053850085
189	0x3d4a1104	0.049332634
190	0x38b7942e	8.7537206e-05
191	0xb7088167	-8.1363605e-06
192	0xbd2d0932	-0.042245097
193	0x3cc70be7	0.024297668
194	0x3c5cb689	0.013471254
195	0x3c145074	0.009052385
196	0xbd9ea304	-0.077459365
197	0xbc0a487b	-0.008440132
198	0xb9ec34cc	-0.00045052764
199	0xbb111f8d	-0.002214405
200	0xbc865903	-0.016399866
201	0x3d1e0b79	0.03858516
202	0x3a6e6584	0.00090941065
203	0xba8681ac	-0.0010262034
204	0xbd937dd8	-0.07201737
205	0x3d05ee32	0.032697864
206	0xbd081c84	-0.03323032
207	0xbbf546f8	-0.007485267
208	0xbb4cce10	-0.0031250753
209	0xbc85fa56	-0.016354721
210	0x3d1d0f58	0.03834471
211	0xbc7fb6dc	-0.015607562
212	0xbd017675	-0.03160711
213	0xbc70b33a	-0.014691168
214	0xbd7deac3	-0.061991464
215	0xbcd60f0b	-0.02613022
216	0xba0261b9	-0.0004973668
217	0xba39c862	-0.00070870493
218	0x3edea369	0.43484047
219	0x40150de1	2.328972
220	0xbcbbfa03	-0.022946363
221	0x3cbb59e2	0.022870008
222	0xbb03b3c1	-0.0020096155
223	0x3b269fdd	0.0025424876
224	0x3cb4fe1f	0.02209383
225	0x3b2c7251	0.0026313255
226	0xbc8a5552	-0.016886387
227	0x3d15707f	0.036484238
228	0x3c862feb	0.016380271
229	0x3b9e299d	0.004826738
230	0x3d31916c	0.043351576
231	0xb75c8b06	-1.3145391e-05
232	0xbae5466e	-0.0017492303
233	0x3b6d707d	0.0036230378
234	0xbc82a63e	-0.015948411
235	0xb8a97526	-8.0803686e-05
236	0xbc9149ed	-0.017735446
237	0xbc780516	-0.015137931
238	0xbd357111	-0.04429728
239	0xbb5d4bb0	-0.0033767037
240	0x3fef0083	1.8672031
241	0xbfb449e0	-1.4085045
242	0x3dad9bc0	0.084769726
243	0xbdbe7b1b	-0.09300824
244	0x3b5d946c	0.003381039
245	0xbb861420	-0.0040917546
246	0xbb40cd28	-0.0029419158
247	0xbc310d67	-0.010806418
248	0x3d1e34b1	0.03862447
249	0xbcc16a7a	-0.023610342
250	0xbd3ba29c	-0.045809373
251	0xbb4115a2	-0.0029462357
252	0x398fc8e0	0.0002742475
253	0xbb047a6f	-0.0020214578
254	0x3c8101be	0.015747901
255	0x3be94087	0.007118288

mamba.layers.0.mixer.conv1d.weight f4 [64, 1, 16]
0	0x3fa08e30	1.2543392
1	0x3facd638	1.3502874
2	0x3f90c9f4	1.1311631
3	0x3f90d993	1.1316398
4	0x3f99f231	1.2027036
5	0x3f8f97d8	1.1218214
6	0x3f9cf25d	1.2261463
7	0x3f89d5e9	1.0768405
8	0x3f9f0876	1.2424457
9	0x3f754721	0.9581166
10	0x3fa43b57	1.2830609
11	0x3f58b8fe	0.84657276
12	0x3f9ecde7	1.2406586
13	0x3f91747f	1.1363677
14	0x3f768df1	0.96310335
15	0x3f4bd661	0.7962399
16	0x3f5bf555	0.8592122
17	0x3f36aa76	0.7135385
18	0x3f5e39ee	0.86807144
19	0x3ef421a8	0.47681928
20	0x3f377800	0.7166748
21	0x3eea0f3d	0.4571475
22	0x3f11c526	0.5694145
23	0x3ee63e64	0.44969475
24	0x3ee99732	0.45623165
25	0x3f02e3c7	0.5112881
26	0x3eed6999	0.46369627
27	0x3f5759bf	0.84121317
28	0x3f21a1ef	0.63137716
29	0x3ef0a36a	0.46999675
30	0x3f28648e	0.65778434
31	0x3f20558a	0.6263052
32	0xbe3bd193	-0.18341665
33	0x3d8a8a42	0.06764652
34	0x3d89a059	0.06720037
35	0x3df8c82e	0.12147556
36	0x3e28405d	0.16430803
37	0x3e5050e7	0.20343362
38	0x3d06aac1	0.032877687
39	0xbe2954a7	-0.16536199
40	0xbe30a929	-0.1725203
41	0xbda8eaf6	-0.0824794
42	0x3e26fd79	0.1630763
43	0x3d4f07cd	0.05054455
44	0x3e0a46ef	0.13503622
45	0xbe53a5de	-0.20668742
46	0xbe8bd251	-0.27308896
47	0x3db5d6ad	0.08878837
48	0x3c811123	0.015755242
49	0x3b636abf	0.0034701077
50	0xbd937cd7	-0.07201546
51	0x3e25dbac	0.1619708
52	0xbe1c2170	-0.1524713
53	0x3d01b61b	0.03166781
54	0xbd9336e6	-0.071882054
55	0x3c97ff19	0.018554257
56	0xbe5c9ba5	-0.21543749
57	0x3e21b231	0.15790631
58	0x3c6816f7	0.0141656315
59	0xbe0da4f6	-0.13832459
60	0x3a22a0ee	0.000620379
61	0x3d6b8303	0.05749799
62	0x3dd47bbc	0.10375163
63	0x3dac2737	0.08405917
64	0x3d3dad7e	0.046308033
65	0xbd67a6df	-0.056555625
66	0x3dbe7d8d	0.09301291
67	0xbda2a740	-0.07942057
68	0x3e21f5f8	0.15816486
69	0xbe407e81	-0.18798257
70	0x3d181cb3	0.037136745
71	0x3d326f55	0.043563206
72	0xbde5f14b	-0.112276636
73	0xbe011725	-0.12606485
74	0x3e172b43	0.14762597
75	0x3d91428c	0.07092771
76	0x3d812f3c	0.06307837
77	0xbd892731	-0.06696928
78	0xbe4df1d0	-0.20111775
79	0x3de7e841	0.11323596
80	0xbdf023ae	-0.11725555
81	0x3cf80f2a	0.030280668
82	0x3e02f8af	0.12790178
83	0xbd9dcee7	-0.07705479
84	0xbe126bcc	-0.14298934
85	0x3dafe052	0.085877076
86	0x3d767b11	0.06017596
87	0xbdc7d696	-0.09757726
88	0xbe3c427e	-0.1838474
89	0xbe145982	-0.1448727
90	0x3e732077	0.23742853
91	0x3e80f047	0.25183317
92	0xb9b27add	-0.00034042346
93	0xbd105dcc	-0.0352457
94	0xbe1bad4a	-0.15202823
95	0x3e1760aa	0.14782968
96	0xbd1d7924	-0.038445607
97	0x3c136bd9	0.008997881
98	0x3e14e454	0.14540225
99	0xbe6e2f19	-0.23260154
100	0x3e575dda	0.21031895
101	0xbd4e526a	-0.050371565
102	0x3d414f6b	0.04719488
103	0x3e7c5c1d	0.24644513
104	0xbde5f9cf	-0.11229288
105	0xbda7e3d9	-0.08197755
106	0x3d987c80	0.074456215
107	0xbdadfdbb	-0.08495661
108	0x3df9e73b	0.12202307
109	0xbe4f3c61	-0.20237876
110	0xbdadcfba	-0.08486886
111	0x3c93171f	0.017955361
112	0x3dcf178c	0.10111913
113	0xbe4046aa	-0.18776956
114	0x3e4a76b4	0.19771844
115	0x3e7e61da	0.24842015
116	0xbe332874	-0.174959
117	0x3bf0be2a	0.007346888
118	0xbdebbf83	-0.11511137
119	0x3db3c9b2	0.08778705
120	0xbdf8e97b	-0.12153908
121	0xbdabe78b	-0.08393773
122	0xbe02e0f2	-0.12781122
123	0x3dda5504	0.10660747
124	0xbd220e20	-0.039564252
125	0xbc3baf84	-0.01145542
126	0xbcec073b	-0.028812042
127	0x3e0b336f	0.13593839
128	0xbdfe75a7	-0.12424784
129	0xbda5817c	-0.08081338
130	0xbe40ae14	-0.18816406
131	0xbd32787f	-0.043571945
132	0x3d9404fa	0.07227512
133	0x3e2d3560	0.16914892
134	0x3e40c284	0.18824202
135	0x3de5ac75	0.11214534
136	0x3de0e1bb	0.10980555
137	0xbe1ebfb4	-0.15502816
138	0x3e6b9405	0.23005684
139	0x3dc2e245	0.09515814
140	0xbd56ab27	-0.052409317
141	0x3d055bca	0.03255824
142	0xbde617e8	-0.112350285
143	0xbe61f772	-0.22067049
144	0xbe512de3	-0.2042766
145	0x3d12ea4c	0.035867974
146	0x3e841067	0.25793764
147	0x3e1dc70f	0.15407966
148	0x3ddc0223	0.10742595
149	0xbe247e93	-0.16063909
150	0xbe587bb9	-0.21140946
151	0xbd2aecaa	-0.041729607
152	0x3d9f547a	0.077797845
153	0x3d826590	0.06367028
154	0xbd18fd5d	-0.037351
155	0xbd55f4a2	-0.052235253
156	0x3cffbe1d	0.031218583
157	0xbdf64bfc	-0.120262116
158	0xbbaf8235	-0.005356098
159	0x3e3a3fdc	0.18188423
160	0x3e682936	0.2267197
161	0xbdd96841	-0.10615588
162	0xbd53c581	-0.051702026
163	0xbd91cc81	-0.07119084
164	0x3dc64ee8	0.09683019
165	0xbe0942a4	-0.13404328
166	0x3d81a3e6	0.06330089
167	0x3e40371a	0.1877102
168	0xbe03f77b	-0.12887375
169	0xbe706f38	-0.23479927
170	0xbe227b8c	-0.15867442
171	0xbccda81f	-0.02510458
172	0x3da6d98e	0.08146964
173	0xbdc76760	-0.09736514
174	0x3e32af21	0.17449619
175	0x3e37f261	0.17963554
176	0xbe9e32f1	-0.3089824
177	0xbe651fdd	-0.22375436
178	0xbeecb68f	-0.4623303
179	0xbf241e47	-0.641087
180	0xbec03e73	-0.37547645
181	0xbebdd042	-0.3707295
182	0xbf10b6e6	-0.5652908
183	0xbec69b4e	-0.38790363
184	0xbf0943f7	-0.5361933
185	0xbe6d5cd7	-0.23179947
186	0xbe793135	-0.24335177
187	0xbeb7a127	-0.35865137
188	0xbf0b9580	-0.54524994
189	0xbeee2db9	-0.4651926
190	0xbf200721	-0.6251088
191	0xbef480c0	-0.47754478
192	0x3e617194	0.22015983
193	0x3d3b4ae8	0.045725733
194	0xbd3c946c	-0.046039984
195	0x3ddfb014	0.10922256
196	0xbda660ed	-0.08123956
197	0x3cf52e48	0.029929295
198	0x3ddbb913	0.107286595
199	0xbe52cba1	-0.20585491
200	0xbe14271c	-0.14468044
201	0x3e048422	0.1294103
202	0x3d751ff0	0.05984491
203	0xbe75efaf	-0.24017213
204	0xbd52bb95	-0.051448423
205	0x3e7ab357	0.24482475
206	0xbdc12b92	-0.094321385
207	0xbdaaefbf	-0.08346509
208	0xbdf02124	-0.11725071
209	0xbcb2d12a	-0.021828253
210	0xbdf9a54a	-0.121897295
211	0x3dbe53df	0.09293341
212	0xbddd916b	-0.10818752
213	0xbe3668f5	-0.17813475
214	0x3e80984f	0.25116202
215	0x3def1251	0.116734155
216	0xbe305268	-0.17218935
217	0xbdacd3f7	-0.084388666
218	0xbdb65704	-0.08903316
219	0x3e7ab866	0.24484405
220	0x3e8305a3	0.25590238
221	0x3e640037	0.22265707
222	0xbdf32de3	-0.118739866
223	0xbe2f2a8d	-0.17106076
224	0x3e8cd8ac	0.27509058
225	0xbe2566cb	-0.16152494
226	0xbd491738	-0.04909441
227	0x3d88bfa1	0.06677175
228	0xbe56dfc6	-0.209838
229	0x3d9f722e	0.0778545
230	0x3e7259e6	0.23667106
231	0xbe52f1f6	-0.20600113
232	0x3d994a81	0.074849136
233	0x3e651736	0.22372136
234	0x3e36684e	0.17813227
235	0xbdc158f4	-0.094407946
236	0xbe4009ba	-0.1875371
237	0xbe6587a5	-0.22415026
238	0xbe6840ed	-0.22681017
239	0x3e686c85	0.22697647
240	0xbf4688fd	-0.7755278
241	0xbf7171da	-0.9431435
242	0xbf8a31f6	-1.0796497
243	0xbf72ae16	-0.94796884
244	0xbf7e819e	-0.9941653
245	0xbf74e1f1	-0.9565726
246	0xbf73c6f7	-0.9522547
247	0xbf324235	-0.69632274
248	0xbf698d79	-0.91231495
249	0xbf88679d	-1.065662
250	0xbf8bfb9b	-1.0936159
251	0xbf88aa07	-1.0676888
252	0xbf805c2a	-1.0028126
253	0xbf55c538	-0.83504057
254	0xbf85d190	-1.0454578
255	0xbf166edc	-0.5876291

mamba.layers.0.mixer.conv1d.bias f4 [64]
0	0xbfbe790a	-1.4880688
1	0x3e30efd7	0.17278992
2	0xbac02370	-0.0014658999
3	0x3b6fd976	0.0036598123
4	0x3aa61ef4	0.001267402
5	0xbf3d453a	-0.73933756
6	0xbfa3a56a	-1.2784855
7	0xbae04234	-0.0017109574
8	0xbb03c702	-0.0020107632
9	0x3c1048eb	0.0088064475
10	0xbaeff57d	-0.0018307414
11	0xc01f20fb	-2.486388
12	0x3af75537	0.001887
13	0xbb1fae8a	-0.0024365508
14	0xbb1c2880	-0.002382785
15	0xbf2c453c	-0.67293143
16	0x3fbae0e7	1.4599885
17	0xbb2a9224	-0.0026027048
18	0xbea4f751	-0.32219937
19	0xbb88949c	-0.0041681062
20	0x3b4a77ca	0.0030894154
21	0x3b57ec71	0.0032947327
22	0x38efbda5	0.00011431732
23	0x3b9750d0	0.004617788
24	0x3c3c3e3d	0.011489448
25	0x3b669964	0.0035186643
26	0xbfa3a3aa	-1.2784321
27	0xbb9b9833	-0.004748368
28	0xbfa37122	-1.27689
29	0xbb5b5d6b	-0.003347243
30	0x3ab39c3e	0.001370318
31	0xba1f0665	-0.00060663215
32	0x3b99873d	0.004685311
33	0x3a029120	0.0004980732
34	0xb9201d23	-0.00015269643
35	0xb989f1af	-0.00026310745
36	0xbab2d60a	-0.0013644111
37	0xc04f0d2b	-3.2351787
38	0x3b54aad7	0.0032450461
39	0x3bb89a9f	0.0056336666
40	0x3b70ba39	0.003673209
41	0xbab92cb2	-0.00141277
42	0xba970c69	-0.0011524084
43	0x3a82f0ab	0.0009989938
44	0x3bae7db9	0.005325046
45	0xbfa4d571	-1.2877637
46	0x3ac410bd	0.0014958602
47	0x3bda8de5	0.006669747
48	0x3aac2c33	0.0013135731
49	0xbb28cdda	-0.0025757463
50	0x3b8e926d	0.0043509514
51	0x3a583f5a	0.0008249186
52	0x3fe7af00	1.8100281
53	0x3c1f65a7	0.009728826
54	0x3a48e14f	0.0007662968
55	0x3ba47f4d	0.0050200582
56	0xbfa39ce6	-1.2782257
57	0xba702024	-0.0009160063
58	0x3b3fdb39	0.0029274954
59	0xba3a7a0e	-0.00071135245
60	0x3b31171b	0.0027021829
61	0x3b9ca357	0.004780214
62	0xbbc77df5	-0.0060880133
63	0x3b28c6d2	0.0025753272

mamba.layers.0.mixer.x_proj.weight f4 [65, 64]
0	0xbd8b7c01	-0.06810761
1	0xbe28a6f1	-0.16469933
2	0x3da6bae7	0.081411175
3	0xbc46837f	-0.012116312
4	0x3d896c01	0.06710053
5	0xbf96c2da	-1.1778214
6	0xbfac9f4c	-1.3486114
7	0xbe048e7e	-0.12944981
8	0x3d1f17c5	0.038841028
9	0xbcff6362	-0.03117532
10	0xbc2d33fc	-0.010571476
11	0xbd29ac45	-0.041424055
12	0x3debf210	0.11520779
13	0xbdd11dc1	-0.10210753
14	0x3d03faea	0.032221712
15	0xbdb2dd6a	-0.08733638
16	0xbd84a4bc	-0.06476733
17	0x3d868610	0.06568539
18	0xbdafd97d	-0.085864045
19	0x3cb11317	0.021615548
20	0xbc214abc	-0.009844478
21	0xbd40e434	-0.04709263
22	0x3dba1c15	0.090873875
23	0x3b93c370	0.004509382
24	0xbdab8a6a	-0.0837601
25	0x3d328a47	0.043588903
26	0xbf94240c	-1.1573501
27	0xbce76841	-0.028247954
28	0xbf29acca	-0.6627928
29	0x3da51d4c	0.080622286
30	0x3d528be4	0.05140294
31	0xbd127a49	-0.03576115
32	0xbd8f725a	-0.07004233
33	0xbc1c2c71	-0.00953208
34	0xbcd81482	-0.026376966
35	0xbbd325d4	-0.0064437184
36	0x3d0c905c	0.03431736
37	0xbd35f0db	-0.04441915
38	0xbd805f11	-0.062681325
39	0xba53b505	-0.0008075985
40	0x3d35bd2c	0.04436986
41	0x3d4699a2	0.04848636
42	0x3d8e84ec	0.069589466
43	0xbd89af20	-0.067228556
44	0xbdb6c0dc	-0.08923504
45	0xbfa5fd0a	-1.2967846
46	0x3ab0701a	0.0013461143
47	0x3d413662	0.047171004
48	0xbe13d44f	-0.14436458
49	0x3db4d575	0.08829776
50	0xbd1e0aee	-0.038584642
51	0x3dd97424	0.10617855
52	0xbd234419	-0.039859865
53	0xbd1381ff	-0.036012646
54	0xbc5f3878	-0.013624303
55	0xbd21ba6e	-0.039484434
56	0xbf9ee102	-1.2412417
57	0x3e4958f3	0.19662838
58	0xbd9f9ad3	-0.07793202
59	0xbd5d9491	-0.054096762
60	0xbd483159	-0.048875187
61	0xbcdc1927	-0.026867462
62	0xbd42173f	-0.04738545
63	0x3d10769d	0.03526937
64	0x3d635aed	0.055506635
65	0xbe5f4330	-0.21802974
66	0xbf27faf7	-0.65617317
67	0x3f74a855	0.95569354
68	0xbd9c9336	-0.07645266
69	0xbaa9bfea	-0.0012950872
70	0xbca87f7e	-0.020568606
71	0xbd95ce5b	-0.0731475
72	0x3f4cafac	0.79955554
73	0x3e3aad60	0.182302
74	0x3d45b3fb	0.048267346
75	0x3ec1dd2a	0.37864047
76	0x3dce809f	0.10083126
77	0x3e043c2e	0.12913582
78	0x3e7c929b	0.246653
79	0xbda2010f	-0.07910358
80	0xbd378548	-0.04480484
81	0x3f2b6732	0.6695434
82	0x3e2028d7	0.15640579
83	0xbe8e02c3	-0.27736482
84	0xbf8ace3f	-1.0844191
85	0x3f0f57cf	0.5599336
86	0xbee9b5fa	-0.4564665
87	0xbfb9c62f	-1.4513606
88	0x3bdf1156	0.0068074865
89	0xbf05ae77	-0.5221934
90	0x3d2ac8a6	0.04169526
91	0xbedb6e13	-0.42857417
92	0xbf0480da	-0.5175911
93	0x3effee53	0.49986514
94	0x3e3f0613	0.18654661
95	0x3ea0bf88	0.31396127
96	0xbed4aa02	-0.41535956
97	0x3edd2b84	0.43197262
98	0xbf49c342	-0.78813565
99	0x3ee2c2e8	0.44289327
100	0x3f47058c	0.7774284
101	0xbe14dab9	-0.14536561
102	0xbfa921ea	-1.3213475
103	0xbf664124	-0.89943147
104	0x3ee4ff9b	0.44726261
105	0x3e077228	0.13227141
106	0x3ccb8a7a	0.024846304
107	0xbf2bba59	-0.6708122
108	0x3f19c2b7	0.60062736
109	0xbdeaf2af	-0.114720695
110	0xbef183f2	-0.4717098
111	0xbed7d8fb	-0.4215773
112	0x3db8f4ff	0.09031104
113	0x3dd5626c	0.10419163
114	0x3d767504	0.06017019
115	0x3e330d3d	0.17485519
116	0x3d49d4c8	0.04927519
117	0xbde9b192	-0.11410822
118	0x3ce02e92	0.027365956
119	0xbf985c8d	-1.1903244
120	0x3d88d29b	0.06680795
121	0xbf4c3572	-0.7976905
122	0x3df7db03	0.1210232
123	0x3ea1c3d3	0.31594715
124	0xbf8abd4e	-1.0839021
125	0xbefc8d80	-0.49326706
126	0xbf297e80	-0.6620865
127	0x3fa1a640	1.262886
128	0x401fdd16	2.497869
129	0x3eac0863	0.3360015
130	0x3b92ddf8	0.004482027
131	0x3cc9eb81	0.02464843
132	0xbc9e0856	-0.019291084
133	0x3f180cb7	0.593944
134	0x3f5b9d6f	0.857871
135	0x3da6ca24	0.08144024
136	0xbc7c17e8	-0.015386559
137	0xbbcedb18	-0.006312739
138	0xbba6669c	-0.00507815
139	0x3f9293a7	1.145131
140	0xbc82f7ba	-0.015987266
141	0x3d68127c	0.056658253
142	0xbc7e4368	-0.015519001
143	0xbf9819e8	-1.1882906
144	0xbff4ff40	-1.9140396
145	0xbbd203fd	-0.006409167
146	0xbeb45b31	-0.35225824
147	0xba08e67d	-0.0005222334
148	0x3cf6bd38	0.030119523
149	0xbc5b6091	-0.013389722
150	0xbc9c9dca	-0.019118208
151	0x3c804483	0.015657669
152	0xbc08a155	-0.008339246
153	0x3bdb1bfb	0.006686685
154	0x3f5417bc	0.82848716
155	0x3cda3ac1	0.026639344
156	0x400ef71e	2.2338328
157	0xbc67963c	-0.01413494
158	0x3c881340	0.016610742
159	0x3df6dc7c	0.12053773
160	0x3c93a586	0.018023264
161	0xbcb40082	-0.021972898
162	0x3ca43003	0.020042425
163	0xbc4a3579	-0.01234185
164	0x3d0498f6	0.032372437
165	0x4035ef68	2.8427372
166	0x3c3a3ffa	0.011367792
167	0xbc88eba7	-0.01671393
168	0xbc9c5ec5	-0.019088158
169	0x3cc6788b	0.024227401
170	0xbcdcd447	-0.02695669
171	0xbce6a9fb	-0.028157225
172	0xba285952	-0.0006422001
173	0x3f87fe20	1.0624428
174	0xbca8d06b	-0.020607194
175	0x3c83143e	0.016000863
176	0x3b7fa377	0.0039007345
177	0x3cb4eec0	0.022086501
178	0x3cb3f208	0.021965995
179	0xbb784f41	-0.0037889036
180	0x40739eb2	3.806561
181	0xbc9c2d58	-0.01906459
182	0xbc1c6309	-0.009545096
183	0x3cf355a2	0.029703919
184	0x3f446310	0.7671366
185	0xbd4af6cb	-0.049551766
186	0xba25994b	-0.0006317093
187	0xbbe8409f	-0.0070877816
188	0x3c96988a	0.018383283
189	0x3ca8eac3	0.020619756
190	0xbcceb99a	-0.025234986
191	0xbba2dd7c	-0.0049702507
192	0xbe1a1373	-0.15046482
193	0x3f845a2a	1.0340016
194	0xba7b4564	-0.000958523
195	0x3c8cfdc1	0.017210843
196	0xbb966306	-0.004589441
197	0xbcbfea3a	-0.023427118
198	0xbecdcda5	-0.40195957
199	0x3e8c2fb0	0.27380133
200	0x3b0a198e	0.002107236
201	0x3bafd254	0.0053656492
202	0xbcfb5323	-0.030679291
203	0xbf5dc173	-0.86623305
204	0xbc3772e0	-0.011196822
205	0x3cd6cc56	0.026220482
206	0xbca130f5	-0.019676665
207	0xbfd5a322	-1.6690409
208	0x403c0552	2.9378247
209	0x3c0bb060	0.008525938
210	0x3f2476b3	0.6424362
211	0xbaf5e190	-0.001875924
212	0x3d1c22a4	0.038118973
213	0x3bcb454e	0.00620333
214	0x3c7fb9eb	0.015608291
215	0x3c810c55	0.01575295
216	0x3b940e53	0.004518309
217	0xb9dcddad	-0.0004212683
218	0xbe59aef7	-0.2125815
219	0x3c530d8d	0.012881649
220	0xbf387ee7	-0.7206864
221	0xbc1291f7	-0.008945934
222	0x3c906d7c	0.017630331
223	0x3e66fef0	0.22558188
224	0x3cea3471	0.02858946
225	0xbd0bc5cb	-0.034124177
226	0x3bd8c2e4	0.0066150296
227	0xbd18ff32	-0.03735275
228	0x3d15e97e	0.03659963
229	0xbf2f17ca	-0.68395674
230	0x3c069364	0.008213852
231	0xbcc20413	-0.023683583
232	0xbcd55aa6	-0.026044201
233	0x3d0e10bc	0.034683928
234	0xbac4e436	-0.0015021625
235	0xbcaf47aa	-0.021396477
236	0x3c7248c5	0.014787857
237	0xbe5d4759	-0.21609248
238	0xbd000f6f	-0.03126472
239	0x3b76859a	0.0037616254
240	0x3bab20c7	0.005222413
241	0x3d811e6a	0.06304629
242	0x3d04e1bc	0.03244184
243	0x3d22e2df	0.039767142
244	0xc0167786	-2.3510451
245	0xbd45eb4d	-0.048320103
246	0x3cbc97a7	0.023021532
247	0x3cfbc40e	0.030733135
248	0xbee74e41	-0.4517689
249	0x3cdd7edc	0.02703803
250	0xbcbfbe1d	-0.023406083
251	0x3c12237a	0.008919591
252	0x3c936155	0.017990747
253	0xbbeb2a5d	-0.007176681
254	0xbc6f5dca	-0.014609763
255	0xbc4e453f	-0.012589752

mamba.layers.0.mixer.dt_proj.weight f4 [64, 1]
0	0x3e8c0e3e	0.27354616
1	0xbf4365bb	-0.76327103
2	0xbec16e8a	-0.37779647
3	0x3fdcfb0e	1.7264116
4	0x3e620289	0.2207128
5	0x3e9e8af0	0.30965376
6	0xbb75051c	-0.0037387079
7	0xbe11abfd	-0.14225765
8	0x3e66b936	0.2253159
9	0xbf165761	-0.5872708
10	0xbe23a5b3	-0.15981178
11	0x3f083173	0.53200454
12	0xbeea6f7b	-0.45788178
13	0x3f11e614	0.56991696
14	0x3daef488	0.085427344
15	0x3eb9e081	0.36304095
16	0x3eeaf4cb	0.45889887
17	0x3f25e5ce	0.6480378
18	0x3f63d76a	0.8900057
19	0x3e3831d1	0.17987753
20	0xbe4d854a	-0.20070377
21	0x3d6dd1a2	0.05806125
22	0x3ec06516	0.37577122
23	0x3eb5db8b	0.3551906
24	0xbd8feef0	-0.070279956
25	0xbf4a68b6	-0.79066026
26	0xba63ca09	-0.00086894684
27	0x3ea1d903	0.3161088
28	0xbd9b3a1d	-0.075794436
29	0x3e7abb7e	0.24485585
30	0x3fd68965	1.676068
31	0xbed42f6c	-0.4144243
32	0xbd628606	-0.055303596
33	0xbe8575bc	-0.26066387
34	0xbea5fbfd	-0.32418814
35	0x3f916bc3	1.1361011
36	0x3e837bc1	0.25680354
37	0xbef8af0d	-0.48571053
38	0x3e243ee3	0.16039614
39	0xbed8bcca	-0.42331535
40	0xbf3adfdb	-0.72997826
41	0xbe51ae1a	-0.2047657
42	0x3fa3058a	1.2736065
43	0x3e5dfbc6	0.21678075
44	0x4044f9ad	3.077739
45	0x3bdeccf0	0.006799333
46	0x3e8b31aa	0.27186328
47	0x3fcb6b88	1.5892191
48	0x3fb079d4	1.3787179
49	0x3da73214	0.081638485
50	0xbf1bd64d	-0.6087387
51	0x3f8017b1	1.000723
52	0xbe14bd0c	-0.1452524
53	0xbf93f665	-1.1559569
54	0xbee0e0fc	-0.4392165
55	0x3da4acbe	0.080407605
56	0x3b997970	0.004683666
57	0x3e4fd2f6	0.20295319
58	0x3f593e48	0.8486066
59	0x3f554673	0.8331062
60	0x3f8cbe6b	1.0995611
61	0x3dbf8e92	0.09353365
62	0x3df73c39	0.120720334
63	0xbd168652	-0.03674919

mamba.layers.0.mixer.dt_proj.bias f4 [64]
0	0xc128d782	-10.552614
1	0xc0bc612a	-5.886861
2	0xc11a8a87	-9.65882
3	0xc0a114c8	-5.033787
4	0xc0a6e551	-5.2154927
5	0xc104a11b	-8.289332
6	0xc0f1ba1d	-7.553969
7	0xc0df900d	-6.9863343
8	0xc09f73ec	-4.9829006
9	0xc0dea674	-6.957819
10	0xc098111f	-4.75209
11	0xc0b09aea	-5.5189104
12	0xc0aefe3c	-5.4685345
13	0xc0a43d5e	-5.132491
14	0xc10a17db	-8.630824
15	0xc0adf65c	-5.436323
16	0xc0cf20f8	-6.4727745
17	0xc0ca925d	-6.3303666
18	0xc0e53cb7	-7.1636615
19	0xc0a0055c	-5.000654
20	0xc06546b0	-3.5824394
21	0xc09203f1	-4.562981
22	0xc0a6709e	-5.201247
23	0xc10f6a98	-8.963524
24	0xc124cfdb	-10.300746
25	0xc0aa8cf1	-5.3297048
26	0xc0f306e8	-7.594593
27	0xc0f80185	-7.7501855
28	0xc100b107	-8.04322
29	0xc09eb5eb	-4.959707
30	0xc0f15a7e	-7.5422964
31	0xc0b56b5b	-5.669355
32	0xc0965f89	-4.699162
33	0xc0a949be	-5.2902517
34	0xc0b444e2	-5.6334085
35	0xc09310fb	-4.595823
36	0xc0f60516	-7.688121
37	0xc066f4ad	-3.6086838
38	0xc0b3db54	-5.6205235
39	0xc0ace80c	-5.403326
40	0xc0a53df6	-5.1638136
41	0xc0c11907	-6.034305
42	0xc0ba2eb9	-5.8182034
43	0xc0a85ce6	-5.26134
44	0xc0ec00f6	-7.3751173
45	0xc0f35a03	-7.6047378
46	0xc0b38983	-5.610536
47	0xc0b9f366	-5.8109617
48	0xc0a24eec	-5.072134
49	0xc0bbf441	-5.873566
50	0xc09a7fbe	-4.8280935
51	0xc09ebf5a	-4.9608583
52	0xc104069a	-8.251612
53	0xc0c3c1bb	-6.1173987
54	0xc0bba639	-5.864041
55	0xc092d0ed	-4.5880036
56	0xc0f71eae	-7.722495
57	0xc0977962	-4.733567
58	0xc0a14c6a	-5.040578
59	0xc09b40ea	-4.851674
60	0xc0e94acf	-7.290382
61	0xc0b6e644	-5.7156086
62	0xc0a552a1	-5.1663365
63	0xc0fced41	-7.9039617

mamba.layers.0.mixer.out_proj.weight f4 [2, 64]
0	0x3dd3d420	0.10343194
1	0xbdffe418	-0.12494677
2	0xbdbf0fa6	-0.093291566
3	0xbd852fc8	-0.06503254
4	0xbd125c78	-0.035732716
5	0xbda57274	-0.08078471
6	0xbdd4bb50	-0.103872895
7	0xbd8ab64e	-0.06773053
8	0xbde8d736	-0.11369173
9	0x3d157ff0	0.036498964
10	0xbdee2394	-0.1162788
11	0xbb5861c0	-0.0033017248
12	0xbd802222	-0.0625651
13	0x3be31e60	0.006931111
14	0xbccdd090	-0.025123864
15	0x3d33b70c	0.04387574
16	0x3dc7e94e	0.09761296
17	0xbdccccdc	-0.10000011
18	0x3cb60590	0.02221945
19	0x3da3d52a	0.07999642
20	0xbd83defc	-0.06439015
21	0xbd026338	-0.031832904
22	0xbdd49e74	-0.10381785
23	0xbca447b0	-0.020053715
24	0x3dbe783e	0.09300278
25	0x3de20e06	0.11037831
26	0x3d51d554	0.051228836
27	0xbdb9564c	-0.09049663
28	0x3d7ae2b8	0.061251372
29	0xbd87574a	-0.06608446
30	0x3d778580	0.06043005
31	0xbdf94f96	-0.12173383
32	0xbc8d9948	-0.017285004
33	0xbad0fa00	-0.0015943646
34	0xbd8abd9c	-0.06774446
35	0xbd749250	-0.059709847
36	0x3dad610a	0.08465774
37	0xbda6d5ba	-0.08146234
38	0xbd9a48a8	-0.07533389
39	0xbd286190	-0.041108668
40	0x3cc4e4b8	0.024034843
41	0xbd479a18	-0.04873094
42	0xbdd7f858	-0.10545415
43	0xbd0145d4	-0.031560734
44	0x3d5de6c0	0.05417514
45	0x3cb6daa8	0.02232106
46	0x3db57524	0.088602334
47	0x3dfaceb2	0.12246455
48	0x3da13aa6	0.078725144
49	0xbcfa8b20	-0.030583918
50	0xbd9c0b00	-0.076192856
51	0x3d868b86	0.06569581
52	0xbbde2ee0	-0.0067804903
53	0x3a8c5980	0.0010707825
54	0x3df00700	0.11720085
55	0x3d9b3aa8	0.07579547
56	0x3ceffc88	0.029295221
57	0x3cfb5e90	0.03068474
58	0xbb3faf40	-0.0029248744
59	0x3da667f8	0.08125299
60	0xbd29e750	-0.041480362
61	0xbd7a4924	-0.06110491
62	0xbca5fa18	-0.020260856
63	0xbd010744	-0.03150107
64	0xbdfd7cf2	-0.12377347
65	0xbda35a12	-0.07976164
66	0xbd63d354	-0.05562146
67	0x3da369f0	0.0797919
68	0xbdbf3148	-0.093355715
69	0xbd2ba784	-0.041907802
70	0xbc5b1220	-0.013371021
71	0x3d121874	0.03566785
72	0xbd9dd872	-0.07707299
73	0x3dc104c6	0.094247386
74	0x3da47a7c	0.080311745
75	0xbd4f9f9c	-0.050689325
76	0xbcd042f0	-0.025422543
77	0x3d0f6e4c	0.035017297
78	0xbdf7a750	-0.12092459
79	0xbd674ba8	-0.056468636
80	0xbdc14f82	-0.09438993
81	0xbcdaf268	-0.026726916
82	0x3dcc9804	0.09989932
83	0xbd4761a4	-0.0486771
84	0xbd9c33f4	-0.07627097
85	0x3daa10be	0.083039746
86	0xbc918828	-0.01776512
87	0xbdddef48	-0.10836655
88	0x3d98f3d6	0.07468383
89	0xbcf89860	-0.030346096
90	0x3d970fba	0.073760465
91	0xbd9f1422	-0.07767512
92	0xbd4ddcac	-0.050259277
93	0xbd3706bc	-0.044684157
94	0x3d980e9c	0.074246615
95	0x3d19c6b4	0.037543014
96	0xbde99924	-0.114061624
97	0xbd367378	-0.044543713
98	0xbd4d134c	-0.05006723
99	0x3ddc6b6a	0.10762675
100	0x3d1ac7a4	0.03778805
101	0x3dd11d8a	0.10210712
102	0xbd5c7a5c	-0.05382763
103	0xbd500754	-0.05078824
104	0xbc8804f0	-0.016603917
105	0xbdb0639a	-0.086127475
106	0x3d698ed0	0.057020962
107	0x3dc8dcd4	0.098077446
108	0x3d15d070	0.036575735
109	0xbd7f3b48	-0.062312394
110	0x3cc6f660	0.024287403
111	0xbdd1ed3c	-0.10250327
112	0xbce11008	-0.027473465
113	0xbdedbba2	-0.11608054
114	0x3db6daf4	0.08928481
115	0x3dc3e194	0.0956451
116	0xbdfed22c	-0.12442431
117	0x3db49ecc	0.088193506
118	0x3cc6c6d8	0.024264738
119	0x3a2cd200	0.0006592572
120	0xbd85f2b4	-0.065404326
121	0x3debb986	0.11509995
122	0xbc1dd350	-0.0096329
123	0x3dccac68	0.099938214
124	0x3b84c0c0	0.004051298
125	0xbdf36f88	-0.11886507
126	0xbc925038	-0.017860517
127	0x3dfca314	0.12335792

mamba.layers.0.norm.weight f4 [2]
0	0x3eb45db3	0.35227737
1	0x3edc150b	0.42984805

fc.weight f4 [1, 64]
0	0xb6b0bd43	-5.2672417e-06
1	0xbc0ed769	-0.00871835
2	0x3b8c54dd	0.0042825774
3	0x3b9715ad	0.0046107383
4	0x3d65e4ef	0.05612653
5	0xb661fd63	-3.3675103e-06
6	0x3ff01de5	1.8759123
7	0x368b6be4	4.155083e-06
8	0xbab0509a	-0.0013451756
9	0x3cba6335	0.022752384
10	0x3b934443	0.0044942214
11	0x3c29bbd2	0.010359721
12	0xbd0b1020	-0.033950925
13	0xbbd77fb7	-0.006576504
14	0x3d50670c	0.050879523
15	0xbc2a5b18	-0.010397695
16	0xb5bcd7f3	-1.4069941e-06
17	0x3c04a439	0.008095794
18	0x3c242ba9	0.010020175
19	0x381430b3	3.5331304e-05
20	0x3cc4535f	0.023965536
21	0x3b63e8b1	0.0034776146
22	0x3c95817d	0.018250221
23	0x3c8d37f6	0.017238598
24	0xbdab237c	-0.083563775
25	0x3c032411	0.008004204
26	0xbf90d7f4	-1.1315904
27	0xbb0f8be9	-0.0021903461
28	0xbb1398d7	-0.002252152
29	0xbd002299	-0.031282995
30	0x3c5e9a72	0.013586627
31	0x37ccd444	2.4417539e-05
32	0xbd506e9a	-0.050886728
33	0xbba20e76	-0.0049455715
34	0xbd25f1e7	-0.0405139
35	0xb92bb3dc	-0.00016374834
36	0x3cf3f644	0.029780515
37	0x3a861b8a	0.0010231596
38	0xbd43d0ba	-0.04780648
39	0xbc9a3654	-0.018824734
40	0x3b61d1a5	0.0034457233
41	0xbb3d8299	-0.0028916954
42	0xbc29cd2e	-0.01036386
43	0x3cb90aba	0.022588123
44	0x3a046765	0.00050508074
45	0xbfb42b47	-1.4075707
46	0x3cbff10d	0.023430372
47	0xb8dc91e5	-0.000105175925
48	0x3c274f27	0.0102117425
49	0x3b8956b9	0.0041912463
50	0x3c053f2e	0.008132739
51	0x3cdf239d	0.027238661
52	0x3aa3eaed	0.0012505926
53	0x3b5b0d88	0.0033424813
54	0xbc2138d2	-0.009840207
55	0xbcefcde7	-0.029272987
56	0x3f5d3bd8	0.8641944
57	0x3dc31d08	0.09527022
58	0xb8d07322	-9.939658e-05
59	0xbbe817ae	-0.007082901
60	0x3cdf5205	0.02726079
61	0xbce828d9	-0.02833979
62	0xba6597b6	-0.00087582634
63	0xbc16606b	-0.009178261
