models/classification/mamba_delV_1.0_trainDim_4_pN_100.0_vN_1.0_nonDim_False.pth (torch, 38483 bytes, 12 tensors)

mamba.layers.0.mixer.A_log f4 [64, 32]
00000000: 9f8f 4540 3a53 0840 6c3e 3f40 1d9b 6340
00000010: 8d3a 0740 c6b1 1f40 4c9c 3240 f304 5e40
00000020: ad35 2040 352e dd3f a86f 2a40 c5e3 4540
00000030: 6671 7f40 bec8 5d40 0957 8040 584a 0940
00000040: d757 0240 4770 3d40 eda0 c73f 6246 7340
00000050: 0a19 2740 ee0b ae3f 8e62 3f40 8c86 3440
00000060: eec7 6e40 288a 4f40 8ce5 3940 7e86 0b40
00000070: 984e 4740 1305 0140 20f9 4f40 93d3 8340
00000080: 2e2f f83f d868 0e40 ba79 1640 e838 9140
00000090: a64b 5440 2921 4d40 1077 1040 ad81 2740
000000a0: 1687 4a40 1a2a 4340 3f2a 2740 0cbc 4840
000000b0: cb06 0840 434f 4c40 9b4e 6f40 dc52 2c40
000000c0: 09e5 4640 2906 4e40 0569 1b40 063e 4440
000000d0: 41ea 1740 a7a6 3140 9ac2 4a40 1e91 6640
000000e0: da97 5840 9ced 5540 5d2c 7140 3780 2740
000000f0: 5e28 4140 e414 4940 e2bd 5040 4b67 8640
00000100: f854 0040 e09d 3b40 1cc2 3d40 eeeb 5e40
00000110: 897d 1040 6c92 c53f 8390 df3f 0ce0 2f40
00000120: 3f84 1240 bcfb 3240 d04b 5640 1847 4740
00000130: f493 2240 1add 2c3f f876 3740 3909 7940
00000140: 2747 6a40 52a0 2240 17c8 4640 42ab 4a40
00000150: 1d7e 1840 4267 2540 0ceb 6740 63c9 6940
00000160: aa9e 3d40 5060 3b40 9510 2940 8b25 5940
00000170: 4704 6e40 8cb8 8140 d88a 5c40 ef55 8540
00000180: 6f1c d4bf 9873 c83e 0c78 9240 b0ed 4240
00000190: 853e 0840 7aad 2640 bb49 773f 5998 a140
000001a0: 91ba 6a40 ce52 9d40 977a 2540 e8bf 6240
000001b0: ebd6 e93f cca4 eb3f 5c7e d03f d5b6 5940
000001c0: b9e9 a040 71d2 6140 9dad ff3f 86f9 7040
000001d0: eb60 7640 ec7b 3c40 50bd 8640 a7ee 9940
000001e0: e418 7340 6b4c 6640 04f2 a240 b982 9240
000001f0: f096 c740 77c0 3440 2fa3 9140 5dd9 6640
00000200: 9309 0640 4960 c13f 13a5 1b40 d76b a840
00000210: 445d 6940 5b26 513f 3067 1640 44a8 1b40
00000220: 0415 1a40 e568 2740 e7a2 933f f8a8 0240
00000230: 6311 2d40 b9db 2440 c740 4940 11a6 c23f
00000240: 40fa 3a40 8495 2240 7bc8 0d40 65d2 4040
00000250: 9be5 3740 2710 a53f f9c0 3a40 fa3f 9440
00000260: a4ba 3d40 70e2 4640 fafb 2d40 6fab 3840
00000270: c21a 8d40 0b26 ff3f 562c 7640 8c25 6540
00000280: c14a 0140 3e60 6140 c1e3 6840 c7aa aa40
00000290: 90c5 4240 8b76 2e40 0390 8040 a6c6 3f40
000002a0: e80f 2740 adbc 5540 292b 3c40 6047 3740
000002b0: 0fd4 2140 0d8f 6840 dfa6 8b40 8167 2940
000002c0: 8af3 4840 7b96 5840 ba78 2d40 612f 6a40
000002d0: 8c60 3e40 c810 3140 e206 4440 9fd6 8640
000002e0: 1e7c 7840 161f 8840 1be4 9740 ea72 3740
000002f0: 7cd5 8440 4469 5740 5fc6 7440 6192 2340
00000300: 67cd 1340 7c5e d33f 6d24 0440 37ce b040
00000310: 2bac 6340 3f89 1c40 2f7c 3040 7b5b 2940
00000320: d6e1 0b40 5aef f43f d397 4540 29de 0140
00000330: 7572 0840 c5a4 3540 46c8 3a40 3ecd 1540
00000340: 9fc7 2b40 6576 2a40 353d 1840 7661 5c40
00000350: a64b 3f40 93be 3940 c297 2240 36e2 4d40
00000360: 1946 3f40 192a 4c40 dc54 4b40 bef6 3d40
00000370: 901f 4240 8412 4540 206f 6540 1887 5840
00000380: 585e 1c40 9e3c 1740 61f3 5c40 3889 a640
00000390: 85d4 6440 4cef 8a3f bd5f 7740 4bdf 3a40
000003a0: 5dfd 3440 fe3c 2940 ba9a 4840 34f3 2840
000003b0: 3278 3740 26c1 9840 bdd5 7b40 90ad 5940
000003c0: d1d8 5140 9b17 6540 fb9b 2040 f271 6f40
000003d0: a03a 7440 8829 8c3f da42 3b40 f03b 6d40
000003e0: f012 3340 5e16 9640 71d0 8b40 81dc 6340
000003f0: ef9d 6840 2816 4140 e2f5 7640 3ee4 9340
3.086891 2.1300797 2.988185 3.5563424 2.1129487 2.4952254 2.7907896 3.469052
2.503276 1.7279726 2.663065 3.092027 3.9912963 3.4653773 4.0106244 2.1451626
2.0366113 2.9599779 1.5595986 3.8011708 2.6109033 1.3597391 2.9903903 2.820712
3.7309527 3.2428074 2.9046354 2.1800838 3.114172 2.0159347 3.2495804 4.119577
1.9389398 2.2251492 2.3511796 4.5381966 3.3171172 3.205149 2.257267 2.6172898
3.164495 3.0494447 2.6119535 3.1364775 2.1254146 3.1923378 3.7391727 2.6925573
3.1077292 3.219126 2.428285 3.0662856 2.3736727 2.7757967 3.1681275 3.6026073
3.3842683 3.3426275 3.7683327 2.6172006 3.0180888 3.1419 3.2615895 4.200109
2.005186 2.931511 2.9649725 3.48315 2.257662 1.543531 1.7465976 2.7480497
2.2893217 2.7966146 3.3483772 3.1137142 2.5402803 0.67524874 2.8666363 3.891188
3.6605928 2.5410352 3.1059625 3.1667027 2.3826973 2.5844274 3.6237211 3.6529167
2.962809 2.9277534 2.641637 3.3929164 3.719011 4.0537777 3.4459743 4.16674
-1.6571177 0.3915069 4.577154 3.0457573 2.128816 2.6043382 0.9659688 5.049847
3.667637 4.916358 2.5856073 3.542963 1.8268713 1.8409667 1.6288562 3.4017842
5.0285306 3.5284693 1.9974858 3.7652297 3.8496654 2.9450636 4.2106094 4.8103824
3.7983942 3.5984142 5.092043 4.5784574 6.237175 2.8242471 4.55117 3.6070168
2.0943344 1.5107509 2.4319503 5.263164 3.6463175 0.8169915 2.350048 2.432145
2.4075327 2.6157773 1.1534089 2.041563 2.7041862 2.5759108 3.1445787 1.520693
2.921524 2.5403757 2.2153614 3.0128415 2.873389 1.2895554 2.918028 4.6328096
2.9645166 3.1075706 2.7185044 2.8854635 4.4095163 1.9933485 3.846456 3.5804167
2.0201876 3.5214992 3.638901 5.333347 3.0433083 2.7259853 4.0175796 2.9964995
2.6103458 3.3396409 2.9401343 2.8637314 2.528568 3.6337311 4.36412 2.6469424
3.1398644 3.3841846 2.7104936 3.6591418 2.9746428 2.7666492 3.06292 4.213699
3.8825755 4.2537947 4.746595 2.8663888 4.15106 3.3658 3.8246076 2.5558093
2.3094118 1.6513209 2.0647233 5.5251727 3.5573833 2.4458768 2.7575796 2.6462085
2.185659 1.9135544 3.0873916 2.0291846 2.131986 2.8381817 2.9184737 2.340652
2.684059 2.6634762 2.3787358 3.4434485 2.9889922 2.9022567 2.5405126 3.2169318
2.9886534 3.1900694 3.1770544 2.968185 3.0331764 3.079255 3.5849075 3.3832455
2.4432583 2.3630748 3.4523547 5.2042503 3.5754712 1.0854278 3.8652184 2.9198787
2.827964 2.6443477 3.1344438 2.639844 2.8667111 4.7735777 3.9349205 3.4012184
3.2788584 3.5795658 2.5095203 3.7413297 3.8160782 1.0950174 2.9259553 3.7067833
2.7980309 4.6902304 4.3691945 3.5603335 3.6346395 3.0169773 3.8587575 4.6216116

mamba.layers.0.mixer.D f4 [64]
00000000: 5514 d83f 3c3c 8a3f 0dba ec3f bbbf 3340
00000010: 9fa8 c43f aa9b 91be 84d8 fd3f 0f70 a93f
00000020: f9d8 a63f a83f 0440 7912 603e 1155 1140
00000030: e609 8c3d 9124 d83f 04c7 b03f 59df 0e40
00000040: 49b6 9b3f 745f 1540 66b7 923f b242 0540
00000050: bb82 cd3f 78c0 4d3f 8148 b13f 65f5 333f
00000060: 3c84 3b3f dd42 8340 3afa ad3f 8f27 e83f
00000070: a0d5 0f40 bc9e 5f3f 757a 03bf 8fa5 0240
00000080: 484a 1540 78b9 983f 3c27 f43f c4e1 c53f
00000090: 152e 983f d6df 1fbf 885d 9a3f 2a24 d03f
000000a0: 9eba 4c3f a8c2 1140 6d82 a33e 2fe8 a13f
000000b0: 77cd 863f 97ee eb3f 116e 533f e4ea 7a3f
000000c0: 3a5b 8bbf ccd1 2b3d 46b0 0840 41ac d63f
000000d0: 1545 fc3f 72f5 ddba 5c2c a03f 31b6 0640
000000e0: adf1 5f3f fee3 f43f afdb f93f ee79 6d3f
000000f0: 69bf c23f 68e9 2540 1caf b13f bbb4 803f
1.6881205 1.0799632 1.8494278 2.8085773 1.5363959 -0.28439075 1.98317 1.3237323
1.3034965 2.0663853 0.21882047 2.270817 0.068378255 1.6886159 1.3810735 2.232382
1.2165004 2.333951 1.1462219 2.0821958 1.6055521 0.8037181 1.3850251 0.7029632
0.7324865 4.101912 1.3591988 1.8137072 2.2474136 0.87351584 -0.5135873 2.041355
2.3326588 1.19316 1.9074473 1.5459523 1.1889063 -0.6245092 1.2059793 1.6261036
0.79972255 2.2775059 0.31935444 1.2648982 1.0531453 1.8432187 0.82589823 0.98014665
-1.0887215 0.041948125 2.1357589 1.6771318 1.9708582 -0.001693411 1.2513537 2.10487
0.8747814 1.9132078 1.9520167 0.92764175 1.5214664 2.592371 1.3881564 1.0055155

mamba.layers.0.mixer.D_SSM f4 [64]
00000000: 5514 d83f 3c3c 8a3f 0dba ec3f bbbf 3340
00000010: 9fa8 c43f aa9b 91be 84d8 fd3f 0f70 a93f
00000020: f9d8 a63f a83f 0440 7912 603e 1155 1140
00000030: e609 8c3d 9124 d83f 04c7 b03f 59df 0e40
00000040: 49b6 9b3f 745f 1540 66b7 923f b242 0540
00000050: bb82 cd3f 78c0 4d3f 8148 b13f 65f5 333f
00000060: 3c84 3b3f dd42 8340 3afa ad3f 8f27 e83f
00000070: a0d5 0f40 bc9e 5f3f 757a 03bf 8fa5 0240
00000080: 484a 1540 78b9 983f 3c27 f43f c4e1 c53f
00000090: 152e 983f d6df 1fbf 885d 9a3f 2a24 d03f
000000a0: 9eba 4c3f a8c2 1140 6d82 a33e 2fe8 a13f
000000b0: 77cd 863f 97ee eb3f 116e 533f e4ea 7a3f
000000c0: 3a5b 8bbf ccd1 2b3d 46b0 0840 41ac d63f
000000d0: 1545 fc3f 72f5 ddba 5c2c a03f 31b6 0640
000000e0: adf1 5f3f fee3 f43f afdb f93f ee79 6d3f
000000f0: 69bf c23f 68e9 2540 1caf b13f bbb4 803f
1.6881205 1.0799632 1.8494278 2.8085773 1.5363959 -0.28439075 1.98317 1.3237323
1.3034965 2.0663853 0.21882047 2.270817 0.068378255 1.6886159 1.3810735 2.232382
1.2165004 2.333951 1.1462219 2.0821958 1.6055521 0.8037181 1.3850251 0.7029632
0.7324865 4.101912 1.3591988 1.8137072 2.2474136 0.87351584 -0.5135873 2.041355
2.3326588 1.19316 1.9074473 1.5459523 1.1889063 -0.6245092 1.2059793 1.6261036
0.79972255 2.2775059 0.31935444 1.2648982 1.0531453 1.8432187 0.82589823 0.98014665
-1.0887215 0.041948125 2.1357589 1.6771318 1.9708582 -0.001693411 1.2513537 2.10487
0.8747814 1.9132078 1.9520167 0.92764175 1.5214664 2.592371 1.3881564 1.0055155

mamba.layers.0.mixer.in_proj.weight f4 [128, 4]
00000000: b853 35bc 1ed3 813b 8585 943e 30a0 073f
00000010: 9fe6 833b 125e 8b3b 4b7e cb3e b58b 93be
00000020: cfa0 c8ba 4d89 feba 6fce 4fbe 664e a1bc
00000030: 8578 27bc 7a74 153c f43e 543f 67a1 423f
00000040: 0f08 18bb 32eb b93b 7920 0b3f 68dd 5f3e
00000050: d641 7abf 14bf bf3f 27dd 8bc0 590d 48c0
00000060: 7b16 e63b 1c49 99ba 091a 58be 4c13 24bf
00000070: 9943 6b3b 55c7 083b 8a08 8c3e bbfa 8ebd
00000080: 424e a53b 7ff8 563b bce2 8e3e d806 b2be
00000090: a71f bdbc 763b 963a c8f2 adbe 4d2d 66bd
000000a0: c466 afba 69ea 853b 8c58 d13e 1a43 da3d
000000b0: ea88 913b 77eb 97ba 1141 6a3c d470 42be
000000c0: 4c63 853c e588 07bc 2503 483e e75e c73e
000000d0: 80ba 73bb ea14 483b 377c 803e 077f a23e
000000e0: 899f 0a3b b827 8a3b ff38 d63e 3380 8bbd
000000f0: 3909 08bb c147 aabb 3c9a 02bf f0f0 923d
00000100: d986 3dbb 03b0 b8ba 1bad bebd bfd0 683e
00000110: acfe 943e 2c38 40bf bbee 383f 16fa f3be
00000120: 5c2b 843f be7f 4abf a464 f13f 0ae6 2440
00000130: 9209 db3b a5fe 283c 9f10 843f 5071 e1be
00000140: 783d 9b3b 1bc2 92bb bbc2 8c3d 738e c9be
00000150: d9e9 923a 07df 00ba 650a 57bd e1a2 c0bd
00000160: 8a01 7c3d 6b74 003c 027c 9cbd d6f2 8a3f
00000170: 881d 9e3a ea3d eb39 010a c03c 211b a8bd
00000180: 0f12 563c 5b78 5039 a7bf 10bc 84cf 78bf
00000190: 2f06 563c 7f91 68bb 842e d1be 6de4 d3be
000001a0: 0334 0cbc c8ea 903b fc67 db3e 7500 263f
000001b0: 8b59 843e 55ff 0e3f 3f86 48c0 30f3 573e
000001c0: 1d39 dabb 82c4 eebb 199e 25bf 84ab dd3e
000001d0: db97 a43b 7002 d1bb 77b6 5a3e b9e3 783e
000001e0: 370f 84bf 26dc 8ebe d3a6 7c3f 358d 68c0
000001f0: 77d5 773d e7eb 29bd 6360 94be 1e5f f63e
00000200: c3c4 e9bb a255 9db9 b86d d2bd 1e8c f43e
00000210: ba13 d3bb 333f 5dbc 5ffb a9bf 5a95 b53e
00000220: fe12 66bc e5e7 4d3c 5cf8 88bd 417a e53d
00000230: b928 6dba 31b3 de3a bb1b 883e b798 393e
00000240: a084 e5bb 0f1d 39ba e5f5 05be b6fa d63e
00000250: 055f a7be d804 b6bf 75ef 8d40 ddc8 213f
00000260: b61f 02bc f132 56bc 5ab4 5cbf a2cc ad3e
00000270: 97fb f3bc b53c f33c dded 463f d62b a33e
00000280: 465a 743c d875 a3bb de86 b8be 9360 8a3e
00000290: 1d69 473c 1a99 d33b 28d4 1c3f 6c77 52bf
000002a0: 873f e9bb 4f43 a03a d862 823d f803 093f
000002b0: 9cfc 2bbd 487e 183b 5c47 89bb 462b ac3f
000002c0: 4139 30bb ccd4 1e3c 734a 723f d2f1 05be
000002d0: f57d 553c 94a8 3eba 751d 7e3b 18e4 c9be
000002e0: 43fc 76bc 18bc 23bc 13e1 61bf 09f4 593f
000002f0: 11c0 003c bbc5 0b3a 8d11 cd3d c537 0dbf
00000300: f959 c33f 5c9c b93c ac1a 00bf 9e6c 5c40
00000310: ec0d 393b 2c85 c53b 1e6f 0e3f 398f 5fbe
00000320: 5de8 783b 0a2c 113a 7e53 873d fe9f 87be
00000330: 9fcc 01bc 8868 e5ba ede9 14be e1ed 1b3f
00000340: be42 913c b9a9 90bc 0e6c 09bf 9f76 59be
00000350: a7cd 7dbc b31d a5bb 5eaf 8f3c 1272 5d3f
00000360: 96db 0bb9 c8ab 2fb9 0baf f7bc 9e73 dc3a
00000370: 8b79 30bc 7775 ae3a 29e3 b53d 20fa 3e3f
00000380: f09d 9fbb 7958 6e3b 08fc ac3e b226 c73e
00000390: 9659 623c d4f5 15bc 09f6 59bf 1560 4cbf
000003a0: d687 61bb f6bb 86ba c32e 65be 04bb b03d
000003b0: 35a0 fc3e 67f5 8c3e 3d71 fdbe f63b c93f
000003c0: 3f41 00bc ceba d03a d0f3 aabe c63d 80be
000003d0: 3600 183c 6f0e f639 ba2f 3dbe f935 b8bd
000003e0: e1fa e7bc 5194 2abc e604 c9be d4d6 d83e
000003f0: 7d0b 47bc 5701 b43b df12 983e 5842 473f
-0.011067323 0.0039619347 0.29008117 0.529788 0.004025295 0.0042531574 0.3974479 -0.28817526
-0.0015306714 -0.0019419581 -0.20293592 -0.019690704 -0.010221605 0.009122008 0.8290856 0.7602753
-0.0023198163 0.0056737894 0.54346424 0.21861804 -0.9775671 1.4980187 -4.370746 -3.1258147
0.007021723 -0.0011694762 -0.21103682 -0.64091945 0.0035898446 0.0020870764 0.27350265 -0.06981417
0.0050447294 0.0032801924 0.2790736 -0.34770846 -0.023086382 0.0011461813 -0.3397429 -0.056195546
-0.0013382067 0.0040867818 0.40887868 0.1065733 0.0044413703 -0.001159056 0.01429774 -0.18988353
0.0162827 -0.008272384 0.1953245 0.38939592 -0.003719002 0.0030530044 0.25094768 0.3173754
0.002115222 0.0042161606 0.4184036 -0.068115614 -0.002075745 -0.005196542 -0.5101659 0.071748614
-0.0028919487 -0.0014090542 -0.09310361 0.2273588 0.2910055 -0.7508571 0.72239274 -0.47651738
1.0325732 -0.7910117 1.8858838 2.5765405 0.0066844905 0.010314618 1.0317572 -0.44031763
0.0047375523 -0.0044787056 0.068730794 -0.39366493 0.0011208608 -0.0004916046 -0.052500147 -0.09406067
0.061524905 0.007840256 -0.0764084 1.0855358 0.0012063244 0.00044868822 0.02344227 -0.082082994
0.013065829 0.00019881262 -0.008834756 -0.97191644 0.013062998 -0.0035487113 -0.408558 -0.41385213
-0.008557322 0.0044225194 0.4285277 0.6484445 0.25849566 0.55858356 -3.1331937 0.21088862
-0.0066596405 -0.007286609 -0.6469436 0.4329492 0.0050229854 -0.0063784644 0.21358667 0.2430562
-1.0317143 -0.27902335 0.98692054 -3.6336186 0.06050631 -0.04148474 -0.28979787 0.48119444
-0.0071340515 -0.00030009175 -0.102748334 0.4776315 -0.0064415606 -0.013503837 -1.3279837 0.3546551
-0.014042614 0.012567495 -0.06687996 0.11204959 -0.00090469007 0.0016990659 0.26583657 0.18124662
-0.0070043355 -0.000706152 -0.13082083 0.41988152 -0.32689682 -1.4220228 4.4354806 0.6319712
-0.007942131 -0.013073669 -0.86212695 0.33945185 -0.029783053 0.029692033 0.777067 0.31869382
0.014914101 -0.0049884133 -0.36040395 0.27026805 0.012171057 0.00645746 0.61261225 -0.82213473
-0.0071181688 0.0012227091 0.06366509 0.5352168 -0.041988954 0.002326863 -0.004189415 1.3450706
-0.0026889595 0.009694289 0.9464485 -0.13080528 0.013030519 -0.0007273045 0.0038774882 -0.39431834
-0.015074792 -0.0099935755 -0.8823406 0.85137993 0.007858292 0.00053318933 0.10013113 -0.5516322
1.5261832 0.022657566 -0.500407 3.4441295 0.0028237058 0.006027838 0.556383 -0.21831979
0.0037980296 0.00055378734 0.06607722 -0.26489252 -0.007922321 -0.0017502466 -0.1454236 0.6090985
0.01773202 -0.017659055 -0.53680503 -0.21236657 -0.015490926 -0.005038941 0.017539676 0.8650218
-0.00013337875 -0.00016753294 -0.030234834 0.0016819125 -0.010771166 0.0013310154 0.08881218 0.7460041
-0.0048711225 0.0036368652 0.33786035 0.3889671 0.013815304 -0.009152848 -0.85141045 -0.7983411
-0.003441324 -0.0010279405 -0.2238112 0.086294204 0.49340978 0.27530977 -0.49500456 1.5721424
-0.007828056 0.0015924813 -0.3338914 -0.2504713 0.009277394 0.0004693153 -0.18475237 -0.089946695
-0.02831787 -0.010411338 -0.3926155 0.423514 -0.012148735 0.005493324 0.29701898 0.7783561

mamba.layers.0.mixer.conv1d.weight f4 [64, 1, 16]
00000000: c67b d33d 876e 503d 9c38 a43d a24c 0abe
00000010: 5e1b 2abe 7bbd ed3d f235 c63d 0512 303b
00000020: 32b9 103e 586b 1f3e de02 8cbe 3a68 afbc
00000030: a42e 3c3e 9577 79bd 448d 9abc 3d83 82be
00000040: ef90 943d cd90 e83d fd2a 7a3c 55d1 f23d
00000050: 62ea 91be a6f0 51bd cd90 eebd 886e dc3d
00000060: 9082 a33d e793 c83c e543 63bd 3f5f adbd
00000070: b5a9 f5bc 0513 c83d bf25 83bd 0cdf 6b3d
00000080: 7efd 7dbe 246b d33d 4bef 143e d497 4ebe
00000090: bb38 1dbd d692 3d3e 4f4e 143e a8c9 0c3e
000000a0: 679c 063e 0674 68bd d5ae d03d 2e2c 07be
000000b0: e5c8 863d c497 793d 4a58 25be 47cd 63be
000000c0: 3aea a9bc a35f 39bd 6e16 44be 9ffe febd
000000d0: 9524 153e f0f2 0b3e a6c8 a13d f969 4b3e
000000e0: 02c2 6abe 08fb 5b3d a4cc 5b3d 3014 31be
000000f0: 7261 62be 92d6 123e ee9d 413d a14e 163e
00000100: 41ee 613e 6fe3 be3c a105 2bbe 2e53 773e
00000110: f90f fdbd 6a1a ebbd 9842 a73d a566 8ebd
00000120: 5267 c6bc 918b 0a3e 3015 58be 36dd 443e
00000130: e681 08be 2689 15bb 10a6 dc3d 379c 29be
00000140: 642d 49bf fc6d 50bf 4eba d2be b450 45bf
00000150: f347 14bf 9efb 09bf ba4c 26bf 2949 9dbe
00000160: f86c 05bf 3fc6 28bf 14c3 ffbe 6976 cfbe
00000170: 1cfc 01be f363 08bd 8eed 59be 6552 89be
00000180: 92c4 b4bd 3e1e 41bd 52c6 3b3e 21e1 eb3c
00000190: 7cf8 8b3e 41c8 3abe 4cfa ed3d 1e5c 743e
000001a0: 5475 2abe 723e 32be 9eaa f2bd 3193 7bbd
000001b0: 17bc a53d 6fc8 0c3d 1e04 54be 38ee c63d
000001c0: 479b 1ebe ba74 06be c764 793e d48d 44be
000001d0: 90f8 2dbd 91cf d53d 3445 133e bb98 9fbc
000001e0: 4e35 813e 63f7 babd 1988 2a3e 2c4c 483c
000001f0: 8af8 62bd 1b11 253e 80ce 40be 8718 2bbe
00000200: 497b 993d 018a 69bd b1e7 043d 31da 603e
00000210: bb35 d0bd e693 82bd b77c 7b3d da30 46be
00000220: 7169 8a3c e0bd 0ebe 606f 973d 929d 4b3e
00000230: f07f 0d3d 5521 f2bd 0741 033b 74f0 35bd
00000240: 4977 a5bd c286 7dbd 48e0 54bd c797 b8bd
00000250: 229b 733e 4104 c8bd 34bf f9bd 057f 273e
00000260: 38c8 2bbe 9650 9f3c dcea 5e3e 2edd 103e
00000270: 23e6 c33d 1a49 00be 7a31 3fbe 6b23 45be
00000280: 75f5 c3bd 9c52 90bd c134 87bd 974e 963d
00000290: b82a 08be 87e3 293e 5240 cabc a324 69bd
000002a0: 2866 ba3b e5b3 223e 1136 863d cf03 b83b
000002b0: 7bcc 5cbe c405 b43d 2358 bf3d 07ee 873b
000002c0: 8bd1 3ebe 8ef5 963e 314e 98bd 121e 02be
000002d0: c066 d23a ae0c 863e a832 d9bc eb1b 50be
000002e0: d499 ddbd 0c19 0e3e 5a02 3abe b5f0 a43d
000002f0: fb15 43be bc63 993d 8ca4 583e c143 a93b
00000300: acac 2d3d a913 b2bd 31d8 42be 134e c73c
00000310: 62a2 873e 429a 04be 8699 423e 4e19 a73d
00000320: 39dd 563e 5ae7 d53d 43b0 17be 012d 60be
00000330: 5af3 fa3d b5d2 8abd 7d4e 21be 970f 20bd
00000340: fff6 8c3e 4ab3 cb3b 3a80 f63d de77 a8bc
00000350: 366f 903c 8188 45be f441 27be 5a7b 4fbe
00000360: 0297 febd f343 64bc b1b5 6abd 0bfb 5bbe
00000370: 270e 8c3d 233f 4e3e 6e97 473e d898 db3d
00000380: ceb2 5c3e d9c1 36be 3a2b 9a3d cb1d 1dbe
00000390: d5e2 aa3d d769 de3d f446 873e 9bd6 5abe
000003a0: 7ebe 34be 89ed eebb 98bb f13d 909e 17be
000003b0: da5f 3dbe 7c8c fe3d 1fe4 f73d a258 18bd
000003c0: a934 20bd 349f 30be 6290 173e a78c abbd
000003d0: db53 9bbd 6297 cd3d de0d 833e 23ee 61bc
000003e0: 7ebf 38be 5f02 4e3e 9bee 59be 74e9 613e
000003f0: b936 9f3d 1cbc 4fbd 1a5c 5abc a1e7 2cbe
0.10326342 0.050886657 0.0801861 -0.13505796 -0.16612002 0.11608406 0.09678258 0.002686621
0.14133146 0.15568292 -0.27345937 -0.021412004 0.18377167 -0.060905058 -0.018866189 -0.25490752
0.072542064 0.113557436 0.015269038 0.11856333 -0.28499132 -0.05125489 -0.11648712 0.1076327
0.07983887 0.024484588 -0.05548467 -0.084654324 -0.02998815 0.09769253 -0.06403684 0.05758576
-0.24803731 0.1032317 0.14544408 -0.20175105 -0.03838418 0.18513045 0.14482997 0.13748801
0.131456 -0.056751274 0.101895966 -0.13200447 0.06581286 0.06093575 -0.16146961 -0.22246276
-0.02074157 -0.045257222 -0.19149181 -0.12450909 0.14564736 0.13666892 0.07899599 0.19864644
-0.2292557 0.0537062 0.053661957 -0.17292857 -0.22107485 0.14339665 0.047269754 0.14678432
0.22063543 0.023301808 -0.16701366 0.24152824 -0.12356562 -0.114796475 0.081669986 -0.06953172
-0.024219189 0.13529803 -0.21101832 0.1922501 -0.13330802 -0.0022817343 0.107738614 -0.16563497
-0.78584886 -0.8141782 -0.41157764 -0.7707627 -0.57922286 -0.5389956 -0.64960825 -0.3071988
-0.521194 -0.659275 -0.4995352 -0.40520027 -0.12693828 -0.033298444 -0.21282026 -0.26820675
-0.08826555 -0.04714798 0.18337372 0.028793873 0.27338016 -0.18240453 0.11620006 0.23863265
-0.1664632 -0.17406633 -0.11848949 -0.06141967 0.08092516 0.034370836 -0.20704696 0.09713405
-0.15488921 -0.13130465 0.2435485 -0.19194728 -0.042473376 0.10439981 0.14381868 -0.019482007
0.2523598 -0.091292165 0.1665348 0.012225192 -0.055412807 0.16119806 -0.18828773 -0.16708575
0.07494218 -0.057016376 0.03244752 0.21958233 -0.10166498 -0.06375866 0.061398234 -0.19354573
0.016895982 -0.13939619 0.0739429 0.19884327 0.03454584 -0.11822764 0.0020027773 -0.044418767
-0.080793925 -0.061896093 -0.051971704 -0.09013324 0.23789647 -0.09766436 -0.12194672 0.16357048
-0.16775596 0.019447606 0.21769279 0.14146873 0.095653795 -0.12527886 -0.18671218 -0.19251792
-0.095683016 -0.070470065 -0.06601859 0.073392086 -0.13297546 0.16590701 -0.024688873 -0.056919705
0.0056884475 0.15888937 0.06553281 0.0056156884 -0.21562378 0.08790162 0.093429826 0.004148248
-0.18634622 0.29484218 -0.07436789 -0.12706783 0.001605235 0.2618155 -0.026513413 -0.2032315
-0.10820356 0.13876742 -0.1816496 0.08053724 -0.19051354 0.07489726 0.2115652 0.0051655476
0.042401 -0.08695156 -0.19027783 0.02432922 0.26491076 -0.1294947 0.19003877 0.08159123
0.20982827 0.104445174 -0.14813332 -0.21892168 0.12253447 -0.067784704 -0.15752597 -0.039077368
0.27532193 0.0062164413 0.12036176 -0.02056497 0.017631155 -0.19290353 -0.16333753 -0.20261899
-0.12431146 -0.013932216 -0.05730218 -0.21482484 0.06838637 0.20141272 0.1949136 0.10722512
0.21552584 -0.17847385 0.07527776 -0.15343396 0.08344046 0.10860031 0.2642132 -0.21370928
-0.17650792 -0.0072915 0.11803359 -0.1480658 -0.18493596 0.12429139 0.121040575 -0.0371939
-0.03911272 -0.17248231 0.14801171 -0.08376437 -0.075843535 0.100386396 0.25596517 -0.013789686
-0.18041798 0.20118092 -0.21282427 0.22061712 0.077741094 -0.050716504 -0.013327623 -0.16885234

mamba.layers.0.mixer.conv1d.bias f4 [64]
00000000: b9a4 a3bf 65da 5f3a c31d 193d a9f3 06bd
00000010: 64b2 6f3b 3116 0840 5fd4 753b fc10 26bd
00000020: 94e3 213c e6e9 fcbc 5191 c73c 7388 a93d
00000030: 76a4 a3bf 328d 3ebd 3db7 ecbc b369 c2bc
00000040: b01d 8cbc 5001 0dc0 d70e e9bf a1a3 a3bf
00000050: 8560 24bb 8219 90bd 5730 35bd 9e8c 83bc
00000060: 86ef 873c bca4 a3bf ec3a b63a 0bfe 14bf
00000070: 63a3 a3bf f1a2 a3bf e416 d53e e7a4 a3bf
00000080: f01e e7bb 65a5 a3bf bba2 a3bf e3ae a0bc
00000090: b42b 253d 67d9 a43e 2d74 87bb 47a8 a3bf
000000a0: 8fca 763d 4d48 0bbd cdc5 bc3a 3f1f 0dbd
000000b0: 2f2b e93b f6df 6abd 95b6 e83a 27ed 03bd
000000c0: 3719 553f f93d b43b 5f07 febc 5639 b339
000000d0: 71a6 a3bf ea53 603b b9f1 3ebb 06a5 a3bf
000000e0: 1a12 35ba b23c 683a 0fa4 a3bf 628c eebe
000000f0: 84a6 a3bf 84a4 a3bf 842b 613c 9417 e2ba
-1.2784644 0.0008539318 0.0373819 -0.032947216 0.0036574835 2.1263545 0.0037510616 -0.04054354
0.009880919 -0.03087325 0.024361284 0.08277979 -1.2784564 -0.046521373 -0.028895969 -0.023732042
-0.017104 -2.203205 -1.8207654 -1.278431 -0.0025081944 -0.07036115 -0.044235554 -0.016058262
0.016593706 -1.2784648 0.0013903058 -0.5820014 -1.2784237 -1.2784101 0.41619027 -1.2784699
-0.0070532486 -1.278485 -1.2784036 -0.019614642 0.04032488 0.32197115 -0.0041337223 -1.2785729
0.06025177 -0.0340045 0.0014402211 -0.034453627 0.0071157436 -0.057342492 0.0017754609 -0.032208588
0.832416 0.005500552 -0.031009374 0.0003418426 -1.2785169 0.0034229704 -0.0029135777 -1.2784736
-0.00069072994 0.0008859142 -1.2784442 -0.4659148 -1.2785192 -1.2784581 0.013743285 -0.0017249458

mamba.layers.0.mixer.x_proj.weight f4 [65, 64]
00000000: fc07 ff3b e405 9fbb 62b5 3ebc 5931 a5bc
00000010: e82d c8ba 2101 463f 7f27 bcbb ce03 54bc
00000020: 378b bcbb 2091 753b 54f8 48bc 2f41 433c
00000030: cdb6 093e 8ebb 053c 6341 3e3b 299e 513c
00000040: 6e3f f53b d5a5 7c3e b442 693e 23e6 e63e
00000050: ee23 3d3b 6e16 87bb a11d 603a a56d 123c
00000060: 27c0 81bb e69f 49be 1319 12bc 4db8 f7bc
00000070: 1776 a33e 4ee2 84be c12a b93f 897a 8a3e
00000080: 11ff a6bb 810c 1cbe 222d 57be 3cc3 29bb
00000090: eee4 31bc ae1c 8a3f 35ff 46b8 2984 85be
000000a0: d525 acb9 b461 eb3b b3f3 7abb 0c07 03bc
000000b0: 7228 febb 5a4c e03b 045d b3bb 059c 44bb
000000c0: 9ab8 2c3e d020 90bb d5b3 4b3b 2fff a33b
000000d0: 098b 80be 9488 2abb 8d15 433b e5a4 a03e
000000e0: e4ff ea3b 9166 94ba 7302 f83e 5e2f d3bd
000000f0: 0b3c b6bb 5d76 6abb fa43 5d3b 7842 523a
00000100: 3d8f 01c0 b640 0f3e 398b 53bd 2db0 ffbe
00000110: 533f 6b3d 97c8 8ec0 5ead 10bd 3fbe a1be
00000120: 441a 06bc 9ea2 37be cb40 aabd c73c ea3e
00000130: fc31 eabf 6c9b 46bc 4165 35bd c178 4dbd
00000140: b1df 363c 0741 c5bd 3c6a c5bf 2672 f0bf
00000150: c0ad 07bd cf4d 8dbe 48d4 92bc 026b b63d
00000160: 2e36 c5bc 12a3 d5bf 03b8 79bd 586a 56bf
00000170: 50c8 f6bf f927 dfbf 5985 36bf 18fa 0fc0
00000180: 8b72 09be 9937 b6bf 1ef9 d3bf be3f 75be
00000190: 40c4 ee3d 269b f2bf 4bbc 23bd 3223 eabf
000001a0: 2ead 393d 89cf 503d 857d 243d 1640 31be
000001b0: d0c2 76bd afc8 343d 7930 183d d4c3 83bd
000001c0: a1e2 adbe abd4 90bd da67 1bbd 0881 2ebc
000001d0: 78f1 dabf fee0 90bd 7aae a33d 3b2f e1bf
000001e0: b21f df3b bb9b afbd 996b dfbf 49e6 debe
000001f0: 01c8 e4bf e781 ecbf 79cd 96bd 4fb2 3cbd
00000200: 88ec a13f 2e6c 3a3d 0b41 ee3c e2bb 023e
00000210: 8053 233d 6586 a040 0bae f9bd a38b f13d
00000220: a8ae 053d 2bc4 d0bd 80ff 88bd 95ac c03b
00000230: 209c 4e3f b013 bebd 1c2d 16bd c708 99bd
00000240: a002 a13d 4de0 0a3f df46 bc3e 969d 4b3f
00000250: 6758 083e 5841 823d 1e17 c23d f515 99bd
00000260: ed33 cf3d 7fb7 3a3f 272d 753d 5cb1 8c3d
00000270: 5813 8c3f 8911 3a3f 6a89 f2be 9fff b53f
00000280: 9dac 38bd 83f3 1e3f 6b31 283f c6ab 53bd
00000290: e98e 31bd 5c6f aa3d 065e 39bc e9b1 293f
000002a0: 005c cb3c 0f7f 33bd 5494 d2bc 1ffe 003e
000002b0: 3cd6 cdbd 1153 893d 5773 f93d a3a0 c73c
000002c0: 2507 efbd e8e9 8d3d 6590 f4bc 7acf 35be
000002d0: 64b9 2a3f 1f84 b83d e790 85ba 6279 5c3f
000002e0: cbc3 8ebd 5c48 c8bd 555c 883f 530e 683d
000002f0: 8168 913f 1afc 773f 3141 34be e8cb cd3d
00000300: acb0 b6bf e6b3 26bd c67f 153e 8fe0 da3e
00000310: 2d62 d43d 2e9c b8c0 b1b1 b73c dd03 5e3e
00000320: 6bb6 7f3d 12f4 83bc c729 cb3d 765b cdbd
00000330: e81b 16bf 0052 11be 4f79 88bc 538e dabd
00000340: 654c 733c da27 b1bf 62d8 f9bf 85fa 9cbf
00000350: ba59 6d3d 1bca 8c3d 839a 4d3b 62fe a7bd
00000360: 0c81 fa3d b01e 82bf 5a89 853d 368e da3d
00000370: 1143 96bf 9d6d 6fbf 55a0 1e3f 7332 bbbf
00000380: d729 de3c 911c 36bf 3dea 8abf b1eb 853d
00000390: 3f55 8cbc bf6f 7dbe c7fb 28bc 90e2 7dbf
000003a0: 598b f63d 0ae1 e1bd bcc8 58bd bb3a 563e
000003b0: 65c1 723d a782 92bd e8c2 5f3d 497a 313d
000003c0: a3c8 623d 96fc e63d c0b3 b8bc b7ef 07be
000003d0: 8088 52bf bc3a 8b3d 2e99 36bd 7aa8 96bf
000003e0: 7024 abbd 30da 4bbd 450a a4bf daf6 d7bd
000003f0: ac4b 87bf 0ffa 94bf 42e6 44bc 9ae5 df3c
0.0077829342 -0.004852997 -0.011639925 -0.020165132 -0.001527247 0.7734547 -0.005742013 -0.01294036
-0.0057539004 0.0037470534 -0.012266237 0.011917396 0.13448639 0.008162392 0.0029030673 0.012794056
0.007484368 0.24672635 0.22779351 0.45097455 0.0028860527 -0.004122547 0.0008549337 0.008937274
-0.003959674 -0.19689903 -0.008917111 -0.030239249 0.31926033 -0.25953907 1.4466172 0.27046612
-0.0050963243 -0.15239145 -0.2101331 -0.0025903722 -0.010857804 1.0790002 -4.744456e-05 -0.26077393
-0.00032834584 0.007183278 -0.0038292229 -0.007997286 -0.0077562863 0.0068450393 -0.005473735 -0.0030000221
0.16867295 -0.004398443 0.003108253 0.0050047855 -0.25106075 -0.0026021348 0.0029767484 0.31375805
0.007171618 -0.0011322071 0.4843937 -0.10311769 -0.005561357 -0.0035776116 0.003376244 0.0008020769
-2.0243676 0.13989529 -0.051646445 -0.499391 0.057433438 -4.461986 -0.035321586 -0.3159046
-0.008184973 -0.17933127 -0.083131395 0.45749494 -1.8296504 -0.012122016 -0.044286016 -0.050163988
0.011161731 -0.096315436 -1.5423045 -1.8784835 -0.033124685 -0.27598426 -0.01792349 0.08907129
-0.024073686 -1.669039 -0.060966503 -0.8375602 -1.927988 -1.7434074 -0.7129722 -2.2496395
-0.13422601 -1.4235717 -1.65604 -0.23950097 0.116585255 -1.8953598 -0.039974492 -1.8291991
0.045331173 0.05097917 0.040158767 -0.17309603 -0.06024438 0.0441367 0.037155602 -0.064338356
-0.33961967 -0.07071813 -0.037940837 -0.010650881 -1.710494 -0.07074164 0.07992263 -1.7592539
0.0068091983 -0.08574625 -1.7454711 -0.4353507 -1.7873536 -1.8477143 -0.073634095 -0.046068486
1.2650309 0.045513324 0.02908375 0.12766984 0.039874554 5.0164056 -0.12191399 0.11794212
0.03263727 -0.10193666 -0.06689358 0.0058799484 0.8070698 -0.09281099 -0.036664113 -0.07472377
0.07861829 0.54248506 0.3677282 0.7953733 0.13314973 0.063601196 0.094770655 -0.07474891
0.10117326 0.7293624 0.059857514 0.06869766 1.0943403 0.72683007 -0.47370464 1.4218634
-0.04508649 0.6209032 0.65700406 -0.051677488 -0.04334918 0.08322021 -0.011313921 0.66287094
0.024824142 -0.043822344 -0.025705494 0.1259694 -0.100506276 0.06705297 0.121802025 0.02436859
-0.116712846 0.0692938 -0.029854009 -0.17754927 0.66689134 0.09009575 -0.0010190279 0.86122715
-0.06970938 -0.097794265 1.0653177 0.056654286 1.1360017 0.9686905 -0.17602994 0.10048658
-1.4272666 -0.04069891 0.14599523 0.4274945 0.10370288 -5.769065 0.022423597 0.21681161
0.062429827 -0.016107593 0.09920078 -0.100272104 -0.5863633 -0.14191437 -0.016659407 -0.106716774
0.014849757 -1.3840287 -1.951916 -1.2263952 0.057946898 0.06874486 0.0031372614 -0.082028165
0.12231645 -1.0165615 0.06520338 0.10671656 -1.1739217 -0.9352663 0.619634 -1.4624771
0.02711956 -0.7113734 -1.0852734 0.06539095 -0.017130492 -0.24749659 -0.010313935 -0.9917383
0.12038297 -0.11029251 -0.05292581 0.20920841 0.059266467 -0.07153826 0.054629236 0.04332951
0.055367123 0.11278646 -0.022546649 -0.13275038 -0.8223953 0.06798312 -0.044579677 -1.1770165
-0.08356559 -0.049768627 -1.2815634 -0.1054513 -1.0569968 -1.1638812 -0.012017788 0.027331162

mamba.layers.0.mixer.dt_proj.weight f4 [64, 1]
00000000: fd44 8ebe 398c 29bf 5de1 96be 895b 19bd
00000010: f7f1 45bf 6958 68bf 30bf 42bf 2fcd 75bf
00000020: 001f 38bf b8e9 b7be a82d b7bd 48b8 03bf
00000030: 8cb1 52bf b82b 4dbf 2dd5 4dbf 742c 81bf
00000040: c7f6 1fbe b45f 37c0 179f 203e 1298 4cbf
00000050: ea83 0dbf d4b3 b1be 879d eabe 98fb 2ebe
00000060: 8e29 2cbf cef2 51be bad7 3ebf b7e0 a5be
00000070: d56a 5dbf f2f9 2fbf e4e9 e2be 5ccb 17bf
00000080: a18a 43bf a31b 84be 608b 23bf 6fc4 40be
00000090: c07a a4bd f5d0 5cbf 5cea d9be 88f1 73bf
000000a0: 5bbc 2abf dcf5 f6be 0ef8 0dbf 6e66 c9be
000000b0: bb45 51bf 88d7 09bf 9f42 e6be 3bec 29bf
000000c0: 24fa 36be b88a 61bf ad16 16bf f4ed f0be
000000d0: da22 99bf eea3 0cbe bd78 0dbe 53c5 55bf
000000e0: aaee 56bd 9b73 19bf dc74 46bf 7d57 30bd
000000f0: f4c0 cdbd a6ef 21bf c317 1bbe 8b84 39bf
-0.2778701 -0.6622959 -0.29468814 -0.03744081 -0.77322334 -0.90759903 -0.7607298 -0.9601621
-0.719223 -0.359205 -0.08944255 -0.51453066 -0.82302165 -0.80144835 -0.80403405 -1.0091691
-0.15621482 -2.8652163 0.15685688 -0.7991954 -0.5527941 -0.3470751 -0.4582331 -0.17088163
-0.6725091 -0.20502779 -0.7454792 -0.32398006 -0.8649114 -0.6874076 -0.4431907 -0.59294677
-0.76383406 -0.25802335 -0.63884544 -0.18824933 -0.08031225 -0.86256343 -0.42561615 -0.9529042
-0.6669366 -0.4823445 -0.55456626 -0.3933596 -0.81747025 -0.538445 -0.44972703 -0.66376084
-0.17868859 -0.88102293 -0.5862835 -0.47056544 -1.1963761 -0.13734409 -0.13815589 -0.8350422
-0.0524737 -0.59942025 -0.77522063 -0.043052185 -0.100465685 -0.632563 -0.15145783 -0.7246787

mamba.layers.0.mixer.dt_proj.bias f4 [64]
00000000: 0782 96c0 0010 98c0 a6b9 9bc0 1e4b f4c0
00000010: c3a5 95c0 4370 e0c0 bc6b 89c0 26d5 eac0
00000020: 3fca 95c0 6a23 a5c0 bb31 bdc0 fe85 acc0
00000030: 319d 5ac1 e996 71c0 d5b3 81c0 ec20 85c0
00000040: 788f adc0 7e4a dcc0 9b92 02c1 85e5 99c0
00000050: a80f 93c0 ca3b cac0 5904 9dc0 475a c0c0
00000060: 7ab6 82c0 1dea dcc0 ec7c 85c0 f7b1 0ec1
00000070: f546 9ac0 9b76 34c1 e387 e3c0 e276 b0c0
00000080: 7b7e 5dc0 ec5f dac0 06b6 bbc0 faa9 53c0
00000090: 3584 b3c0 c6bc bbc0 0aaf 94c0 f831 81c0
000000a0: b36e 8dc0 3865 bcc0 cef6 5dc0 93a7 84c0
000000b0: be7b 87c0 7cab adc0 6808 dac0 468e 2ec1
000000c0: 08bd dec0 4a43 3fc1 d6ec 65c0 28aa 23c0
000000d0: 04fa 73c0 503d e9c0 0f20 87c0 d8a7 9bc0
000000e0: 0938 8dc0 269e a8c0 b820 a7c0 76eb 8ec0
000000f0: 445b 0ec1 a7c9 b8c0 8708 60c0 b6e1 2dc1
-4.7033725 -4.751953 -4.866412 -7.6341696 -4.6764846 -7.013704 -4.294401 -7.338519
-4.6809382 -5.160573 -5.9123206 -5.3913565 -13.663377 -3.7748358 -4.053202 -4.160269
-5.4237633 -6.8840933 -8.160792 -4.8092675 -4.595661 -6.3197985 -4.9067807 -6.01102
-4.084775 -6.9035783 -4.1714993 -8.918448 -4.8211617 -11.278956 -7.1103377 -5.514512
-3.4608448 -6.824209 -5.8659697 -3.3072495 -5.6098886 -5.8667936 -4.646367 -4.0373497
-4.419763 -5.887356 -3.4681888 -4.145456 -4.2338552 -5.427183 -6.813526 -10.909735
-6.960575 -11.953928 -3.5925803 -2.5572605 -3.8121347 -7.2887344 -4.2226634 -4.8642387
-4.41309 -5.269305 -5.222744 -4.466243 -8.897282 -5.774616 -3.5005205 -10.867605

mamba.layers.0.mixer.out_proj.weight f4 [4, 64]
00000000: 020e ad3d 6809 3c3d 7a08 debd 1cd5 223d
00000010: 3cc9 a4bd a8cb b9bc 008e 46bb 34c4 f7bd
00000020: 26ed f43d 68ac 893c 005c 40bb f6df ac3d
00000030: 8cf8 fdbd 94ae 93bd dc57 553d c611 8bbd
00000040: 921a d53d 9ca7 453d 9478 ccbd acbc 0d3d
00000050: 94df 85bd 70c6 7d3c 8c24 233d fcde 123d
00000060: 540d 183d 5aaa d6bd b0d7 c93c 74c8 443d
00000070: f622 cabd 80f6 853b c0d1 f03c 681f c8bd
00000080: 08c1 363d 0839 c3bd 9ac2 c93d f43e d2bd
00000090: ead7 bd3d 12c6 913d dc96 563d 6072 1e3d
000000a0: ee5c b73d d8b8 04bd c0bd 92bd 186a cebc
000000b0: 9e62 bc3d 0e42 973d a6a4 cd3d 82ec c6bd
000000c0: 5616 953d 6068 97bd e0f7 76bd bcef e73d
000000d0: 4077 3f3c 7a58 f6bd 2ce9 633d b048 16bd
000000e0: c0f6 9f3b e024 3ebc dc1f fc3d 242c 053d
000000f0: 3009 853d eac4 a83d 5aea 87bd dc14 c03d
00000100: 3899 7c3d 0e6a db3d 787b f7bc 0c30 563d
00000110: 04ff 8c3d b8b7 ef3d ec1c 1d3d 803a 353c
00000120: fcc9 ed3d 9099 05bd d40d 16bd ec7d 39bd
00000130: c04c 2b3c e070 ff3d 04b7 f9bd c0c7 283c
00000140: 203e 0dbd c072 403c 88c9 9dbc a8b3 c4bd
00000150: b87e 2b3d 2298 e93d 80f5 db3c cef1 cd3d
00000160: 08ff 2b3d 9431 62bd 6073 a13c 5079 ce3c
00000170: 349d fabd 8080 f1bb 26d9 bebd e2e2 e53d
00000180: 00d1 69bc aee9 c6bd 861c 8d3d 905e c2bd
00000190: bcf5 ea3d d057 b6bd 401a fbbb 9236 aabd
000001a0: 1a5c 983d 20f1 9bbd d82c b33c f044 2fbd
000001b0: 3478 1bbd 80cd 9a3d 80d6 e4bc e8a5 ff3c
000001c0: 764f c33d b40b a1bd 1419 4dbd f847 693d
000001d0: d4d9 1d3d 1c8e 76bd e8a8 eabc 2aeb ff3d
000001e0: d02e 24bc b87b 9cbc 1ac9 b5bd 4872 ddbd
000001f0: 2817 15bd e85c cdbc 646c 4abd d020 58bd
00000200: 8881 25bd 7087 b3bd 8056 183c 50e3 69bc
00000210: 8e8c f43d ba77 9ebd 125f aebd dcb8 053d
00000220: 481b 2f3d 8cf6 a53d c03f 75bc 605c 52bc
00000230: 2e23 803d 28b8 bf3c 8e7d ad3d 74bb 36bd
00000240: a04c 90bd d4f6 ae3d 404b 4e3d f02c 93bc
00000250: d46a aa3d e0b4 9f3c 7253 8fbd 8065 1fbc
00000260: 288f fabc 1841 bbbd aa9e b03d f6af 823d
00000270: 4c88 d93d 68a7 0ebd 80c3 4abd 40e5 13bc
00000280: 2448 d93d 72b1 eebd 9846 5e3d f00a e73d
00000290: 96ce 8b3d b621 b0bd 60a0 84bd a0c4 233c
000002a0: 60d7 423c 5cf9 f1bd 20cc 7bbc d492 92bd
000002b0: d62a eabd 20a0 e4bb b8c7 69bd 7e18 e63d
000002c0: 68e5 18bd 587e acbc a47a 1abd 4cca df3d
000002d0: 62e2 febd 24b2 0e3d fe1c 83bd 0854 5b3d
000002e0: 84b6 3e3d 3cf1 1d3d 807c 22bd 1472 e73d
000002f0: b0b8 f0bc c8d3 cfbc 84b3 68bd 4408 b63d
00000300: aaad d1bd 8826 09bd c0b3 cd3c 9491 5cbd
00000310: 7ef2 8dbd c8af ffbd 5009 083d 44f6 6b3d
00000320: d4a3 e8bd b85d d8bd c476 993d f0ac 993d
00000330: 7611 f6bd 6e96 80bd 2a50 8b3d 20b4 723c
00000340: 42bc bd3d f2d9 b9bd 6c21 413d e03b 1c3d
00000350: ce20 b7bd 361e f33d 80ca b6bd 28a1 f4bd
00000360: 18e7 5abd aca1 87bd c4b2 a0bd 88e4 453d
00000370: 9623 e43d dc61 d43d 465a f83d e4ba 7bbd
00000380: c004 913b 006f 03ba 42cc 8c3d 0022 ae3b
00000390: f0ba f4bd 905b 893c 4a15 f0bd b0b6 d8bc
000003a0: 5ccc 7e3d 188b c13c f48b 563d 9038 213c
000003b0: 486c c53d 304a 823c 46b5 e53d 480e a73c
000003c0: caf8 bb3d 9805 993d 22fe ba3d 9836 d33d
000003d0: e810 583d c6b3 ee3d 2058 78bd 1c0a 65bd
000003e0: 4829 9abd 7471 bf3d 9a7d 8f3d e82e 15bd
000003f0: b035 793d 1687 e53d 9cfe 753d 30f8 81bd
0.084499374 0.045907408 -0.108414605 0.03975402 -0.08046195 -0.022680119 -0.003029704 -0.1209797
0.11959295 0.016805843 -0.0029351711 0.08441155 -0.12400922 -0.072110325 0.052085742 -0.067904994
0.104054585 0.048255548 -0.09983936 0.03460376 -0.06536785 0.015489206 0.039829776 0.035857186
0.037122086 -0.10481711 0.02463898 0.04804273 -0.098699495 0.004088223 0.029396892 -0.09771615
0.044617683 -0.09532362 0.098515704 -0.102659136 0.09269698 0.07117857 0.052389964 0.038683295
0.08953272 -0.032402843 -0.07165098 -0.025197074 0.09198497 0.07385646 0.1004117 -0.09713079
0.07279651 -0.07392955 -0.060294986 0.113250226 0.011686146 -0.12028594 0.055642292 -0.036690414
0.00488171 -0.011605471 0.12310764 0.0325128 0.06495893 0.082406834 -0.06636496 0.093789786
0.06166956 0.10713588 -0.030210242 0.052291915 0.06884578 0.117049634 0.03835766 0.011061311
0.11610791 -0.03261715 -0.03663428 -0.045286104 0.01045531 0.12472701 -0.121931106 0.01030153
-0.034483075 0.0117461085 -0.019261137 -0.09604579 0.041868895 0.1140597 0.026850462 0.10055886
0.041991264 -0.055223063 0.019708335 0.02520433 -0.12237015 -0.0073700547 -0.093187615 0.11224915
-0.014271021 -0.097125396 0.06890206 -0.094906926 0.11472651 -0.08903468 -0.0076630414 -0.0831119
0.07439442 -0.0761435 0.02187197 -0.042790353 -0.03795643 0.07558727 -0.027934313 0.03120704
0.0953664 -0.0786356 -0.050072744 0.0569534 0.038537815 -0.06019412 -0.028644994 0.12496026
-0.010020927 -0.019101962 -0.08876248 -0.10812813 -0.036399037 -0.025068715 -0.049419776 -0.052765667
-0.040406734 -0.08766067 0.009297967 -0.014275387 0.11940871 -0.0773768 -0.08514227 0.032647
0.042750627 0.08103666 -0.0149688125 -0.012839407 0.0625671 0.023403242 0.08471213 -0.044612363
-0.07045865 0.085431725 0.050364733 -0.017965764 0.08321157 0.019495428 -0.06998338 -0.009728789
-0.03058584 -0.09143275 0.08624013 0.06381218 0.106217 -0.03482762 -0.04950285 -0.009026825
0.10609463 -0.11654939 0.054266542 0.11281383 0.068265125 -0.0860018 -0.064759016 0.0099956095
0.01189217 -0.1181514 -0.015368491 -0.071569115 -0.114339516 -0.006977096 -0.057075232 0.1123514
-0.037328154 -0.02105634 -0.037714615 0.10927257 -0.12445523 0.034837857 -0.06402014 0.053546935
0.04656078 0.038560137 -0.039669514 0.113010556 -0.02938494 -0.02536954 -0.056811824 0.08888295
-0.10238202 -0.033484012 0.025110126 -0.05384977 -0.06931017 -0.124846995 0.033212006 0.057607904
-0.11359373 -0.105647504 0.07493356 0.07503688 -0.12015049 -0.06278692 0.068023995 0.014813453
0.09264423 -0.09074773 0.047151014 0.03814304 -0.08941804 0.11870997 -0.089253426 -0.119448006
-0.053443044 -0.06622633 -0.07846597 0.048313648 0.111396 0.10370228 0.12126593 -0.06145753
0.004425615 -0.00050137937 0.068748966 0.0053141117 -0.11949718 0.016767293 -0.117228106 -0.0264543
0.06220661 0.023625895 0.052379563 0.009840146 0.09639794 0.015904516 0.11216216 0.020392552
0.09178312 0.0747177 0.09130503 0.10313147 0.052750498 0.11655383 -0.060630918 -0.055917844
-0.07527405 0.09347811 0.070063785 -0.036421686 0.060842216 0.11207406 0.060057268 -0.06346166

mamba.layers.0.norm.weight f4 [4]
00000000: 1ab7 8d3e b830 a63e 3029 4f40 dd9b 5840
0.27678758 0.32459044 3.236889 3.3845131

fc.weight f4 [1, 64]
00000000: 2fe7 423a 0bc6 72ba 22fa d6b9 6c62 50be
00000010: 1e51 ddb9 5e1c 57b9 dc0c 3cbc 16a9 66ba
00000020: cce2 96bd 338c 7b3d 301f a6bd f90f 62bc
00000030: 0207 cab8 4ec5 f539 1529 993d 561e 6c3c
00000040: 97af d2bd c172 2abf d7bf 5fbe ea89 77bb
00000050: cc3d 33bb 3b32 d5bd f5c8 543a fbf5 6d39
00000060: 618d 0bbb bedc e43f 8f59 d7bb 5ed0 883f
00000070: 6445 5abe f28f bbbb 1ad7 e43f b1b4 d638
00000080: 44f1 113c 08a5 0539 55fb 563b e224 a8b5
00000090: 3356 d3b9 fca6 ddbf d24e b83d 2e50 a83c
000000a0: a794 1eb7 2f7b b337 a43f 2639 07c5 cdbd
000000b0: 347c 3e3b c003 f4b7 6929 9ebc 9282 3c38
000000c0: a87a ad3f b53e d23d 9d72 4a3d 6f44 ccbb
000000d0: 4618 5fbc 76f8 bfbb b3cc 5a39 8608 223a
000000e0: 51d8 913d c688 a1bb fe27 a23d cc78 3bbf
000000f0: 8245 ce3c 6129 4bbd 7547 98bc 0d5e 20b8
0.0007434962 -0.0009261078 -0.00041003624 -0.20350045 -0.00042212842 -0.00020514565 -0.011477675 -0.00087989995
-0.07367477 0.061413 -0.08111417 -0.0137977535 -9.633416e-05 0.00046877045 0.07478539 0.0144115295
-0.10287397 -0.6658135 -0.21850525 -0.0037771412 -0.0027350066 -0.10409971 0.0008117103 0.00022693716
-0.0021293985 1.7879865 -0.0065719555 1.0688589 -0.21315533 -0.0057239467 1.7878144 0.000102379716
0.00890762 0.00012745347 0.0032803614 -1.252771e-06 -0.0004030928 -1.7316585 0.08999409 0.020546045
-9.452145e-06 2.1395825e-05 0.00015854702 -0.100473456 0.002906573 -2.9088813e-05 -0.019306855 4.4944296e-05
1.3553057 0.10265867 0.04942571 -0.006233744 -0.013616627 -0.0058584763 0.00020866356 0.00061810797
0.07121337 -0.0049296347 0.07917784 -0.73231196 0.025179628 -0.04960001 -0.01858876 -3.8234564e-05
