models/classification/mamba_delV_1.0_trainDim_3_pN_100.0_vN_1.0_nonDim_False.pth (torch, 30178 bytes, 12 tensors)

mamba.layers.0.mixer.A_log f4 [48, 32]
0	0xbf8cf65e	-1.1012685
1	0x3ec1cf4d	0.3785347
2	0x3ea6ca62	0.3257628
3	0x3e59bb6e	0.21262905
4	0x3f42700d	0.75952226
5	0x3fda0d3d	1.703529
6	0x3fc7bdfd	1.5604855
7	0x404cdea0	3.201088
8	0x4023f3ef	2.5617635
9	0x40012405	2.0178235
10	0x40830379	4.094174
11	0x404b70b1	3.1787531
12	0x3ffca058	1.9736433
13	0x4085f5cf	4.186256
14	0x40334925	2.8013394
15	0x408390fd	4.111449
16	0x4086469c	4.1961193
17	0x40abe430	5.371605
18	0x407982e0	3.898613
19	0x408cd5d0	4.4011
20	0x40731fd2	3.7988172
21	0x406d2624	3.705453
22	0x409edd0d	4.9644837
23	0x40326fe9	2.7880805
24	0x408a036c	4.3129177
25	0x4079d339	3.903517
26	0x408a4c08	4.321781
27	0x401e41e4	2.4727716
28	0x40a29e98	5.0818596
29	0x40aa0b60	5.3138885
30	0x40a658d0	5.1983414
31	0x40a1648e	5.0435247
32	0xbf9da290	-1.2315235
33	0xbf4edd2d	-0.8080624
34	0x3fdd27ae	1.7277734
35	0x3f5fc929	0.8741632
36	0x400bea22	2.1861653
37	0x40744c4e	3.8171573
38	0x40127e55	2.2889607
39	0x40197920	2.398018
40	0x3ffd8bca	1.9808285
41	0x40815edc	4.0428295
42	0x401884cf	2.383106
43	0x3f6b7a6a	0.91983664
44	0x401bb0d8	2.4326687
45	0x3fc47355	1.5347697
46	0x409b26be	4.8484793
47	0x40382ac0	2.8776093
48	0x400a87b3	2.1645324
49	0x3fbccc20	1.4749794
50	0x4099890c	4.7979794
51	0x402c739f	2.694557
52	0x40206f75	2.5068028
53	0x400214e4	2.032525
54	0x3f888984	1.0666966
55	0x408109cf	4.0324473
56	0x40a97afe	5.2962637
57	0x409d20c9	4.910252
58	0x409f09cf	4.9699473
59	0x40a4ab17	5.145885
60	0x40397e38	2.8983288
61	0x400fc51e	2.246406
62	0x402d60cf	2.7090337
63	0x4071a7cb	3.7758663
64	0x3e76be11	0.24095942
65	0x3f480aae	0.78141296
66	0x3f577728	0.84166193
67	0x3f76a383	0.9634325
68	0x3fa807ad	1.3127342
69	0x3f710be7	0.94158787
70	0x4029ec08	2.6550312
71	0x3fd1eb03	1.6399845
72	0x40098f55	2.1493733
73	0x3fb8d9c0	1.4441452
74	0x3fde99e0	1.7390709
75	0x407ad60f	3.919315
76	0x3fe25295	1.7681452
77	0x401f2ec9	2.4872305
78	0x4016719a	2.3506837
79	0x40257f56	2.585897
80	0x407875d4	3.8821917
81	0x40299724	2.64985
82	0x40315a95	2.7711537
83	0x4015683f	2.3344877
84	0x40255dc5	2.5838482
85	0x4085d0dc	4.1817455
86	0x408cf912	4.405404
87	0x3fbdace2	1.4818385
88	0x4064cece	3.5751224
89	0x40428959	3.039633
90	0x4066baad	3.6051438
91	0x4012339a	2.2843995
92	0x40432608	3.0491962
93	0x4036c6e6	2.8558898
94	0x403996f1	2.8998377
95	0x4076a4fe	3.8538203
96	0x3e9cbf74	0.30614817
97	0x3fab3096	1.3374202
98	0x40104324	2.254098
99	0x3ff588cd	1.9182373
100	0x4040e96f	3.0142477
101	0x3fc8d093	1.5688652
102	0x401c1ad8	2.4391384
103	0x3faa89d2	1.332331
104	0x3efe63d6	0.49685544
105	0x402f9e99	2.744055
106	0x3f7e9502	0.9944612
107	0x40522f64	3.2841425
108	0x40721447	3.7824876
109	0x4082c0f8	4.0860558
110	0x40583b48	3.3786182
111	0x3fde99b7	1.739066
112	0x40046a5f	2.0689924
113	0x40287976	2.6324134
114	0x4026c01c	2.6054754
115	0x3fcf0ad5	1.6175181
116	0x40071e3b	2.1112201
117	0x403a586b	2.9116466
118	0x3ff4fd84	1.9139867
119	0x403650c2	2.848679
120	0x40736e81	3.8036196
121	0x40951ec0	4.6600037
122	0x40a454bd	5.135344
123	0x40773c03	3.8630378
124	0x40829cb9	4.081631
125	0x4060daf2	3.5133634
126	0x408255b5	4.0729623
127	0x408d2532	4.4107904
128	0xbec5d697	-0.38640282
129	0x3ec4eb2e	0.38460678
130	0x3f96e751	1.1789342
131	0x40008a07	2.0084245
132	0x4005617e	2.0840755
133	0x3ff0c4f5	1.8810107
134	0x4023a094	2.556676
135	0x40189924	2.384347
136	0x401f9d23	2.4939659
137	0x402ab0a2	2.6670308
138	0x402ac60f	2.6683385
139	0x4039ac56	2.9011436
140	0x406327d3	3.5493057
141	0x40a3d267	5.119434
142	0x4060cc56	3.5124717
143	0x4043685e	3.053245
144	0x4055f328	3.342966
145	0x40b87e8a	5.7654467
146	0x40833c8d	4.1011415
147	0x40847996	4.139842
148	0x40868c3e	4.2046194
149	0x4035ab41	2.8385775
150	0x4030cc8b	2.7624843
151	0x40c357cd	6.104468
152	0x409d976b	4.9247336
153	0x4093e020	4.621109
154	0x40b27079	5.5762296
155	0x407e427d	3.9728081
156	0x40980908	4.7511024
157	0x40a6c188	5.2111244
158	0x40bfd6d9	5.9949765
159	0x40b6d443	5.713411
160	0xbf0e524c	-0.55594325
161	0x3fbaef23	1.4604229
162	0x4010e36b	2.2638805
163	0x4038ae70	2.8856468
164	0x3fa5d505	1.2955633
165	0x40063ae4	2.0973444
166	0x3f5e20a1	0.8676854
167	0x3fb8499f	1.4397467
168	0x3fca3a7e	1.57991
169	0x40281474	2.6262484
170	0x3fd51474	1.6646867
171	0x3fe968c5	1.8235098
172	0x40234160	2.5508652
173	0x3feea1f0	1.8643169
174	0x3feced6a	1.8509953
175	0x4017cc06	2.3718276
176	0x4008ee95	2.139562
177	0x4023b39f	2.5578382
178	0x3fde2442	1.7354815
179	0x402b1cb3	2.6736267
180	0x401e6c03	2.4753425
181	0x40365ae2	2.849297
182	0x4012c37e	2.293182
183	0x405b9a17	3.43128
184	0x401b43a6	2.426004
185	0x404325f4	3.0491915
186	0x40839050	4.1113663
187	0x4035fcfb	2.8435657
188	0x401ad9cf	2.419544
189	0x402c6b6d	2.6940567
190	0x404b15a8	3.1731968
191	0x40080faf	2.1259573
192	0x3eeb85fc	0.4600066
193	0xbe679dbb	-0.22618763
194	0xbd3bab13	-0.045817446
195	0x3eff7634	0.4989487
196	0x3f4d8419	0.8027969
197	0x3fa753d1	1.3072454
198	0x401f7e1e	2.4920726
199	0x4005923d	2.0870507
200	0x400357ef	2.052242
201	0x3fd89b2b	1.6922354
202	0x400b536a	2.1769662
203	0x402eb041	2.7295077
204	0x3f280c49	0.65643746
205	0x405eba19	3.4801085
206	0x4054dadc	3.325858
207	0x4000de2d	2.0135605
208	0x4033f402	2.811768
209	0x404f4e70	3.2391624
210	0x403c39ad	2.9410203
211	0x40286e27	2.6317232
212	0x4070e473	3.7639434
213	0x4088d918	4.2765007
214	0x403373c6	2.8039412
215	0x40314bd5	2.7702534
216	0x4094c9a0	4.6496124
217	0x409f23d3	4.973123
218	0x40a4b84f	5.1474986
219	0x40814889	4.0401044
220	0x408b401e	4.351577
221	0x4070b994	3.7613268
222	0x40835225	4.1037774
223	0x4093a1f2	4.6135187
224	0x3b67b6f2	0.0035356847
225	0xbe8573cb	-0.26064906
226	0x3f2a721c	0.6658037
227	0x3f95db10	1.1707478
228	0x3fa615d7	1.2975415
229	0x3fbc3851	1.4704686
230	0x401f39f3	2.487912
231	0x3ff49405	1.9107672
232	0x4007df01	2.122986
233	0x400445d2	2.0667615
234	0x401575b1	2.3353083
235	0x40206b08	2.5065327
236	0x400e5256	2.2237754
237	0x40375eef	2.8651693
238	0x4045ec67	3.0925539
239	0x402bd3a5	2.6847928
240	0x40422598	3.0335445
241	0x4057bc97	3.3708856
242	0x4054ec3f	3.3269193
243	0x40307667	2.7572267
244	0x403fdbd2	2.9977918
245	0x405fbfa5	3.496072
246	0x404c96ea	3.196711
247	0x407da803	3.9633796
248	0x40adfec3	5.437349
249	0x40973634	4.7253666
250	0x40a0dc1f	5.0268703
251	0x406d69b7	3.7095773
252	0x4068d09f	3.6377332
253	0x406814d4	3.6262712
254	0x4088c692	4.2742395
255	0x40874b0d	4.2279115

mamba.layers.0.mixer.D f4 [48]
0	0x40410cdc	3.0164099
1	0x407e62b2	3.974774
2	0x3fc8c14c	1.568399
3	0x3ec0d425	0.37661853
4	0x3f5c6823	0.860964
5	0x3ffb086b	1.9611944
6	0x3fb88d5c	1.441814
7	0x3ef13165	0.47107998
8	0x3f67ac3a	0.9049717
9	0x3f18aeb3	0.5964157
10	0x3e45f287	0.19330798
11	0xbe4b4b8b	-0.19853036
12	0x3ffc3dec	1.9706397
13	0xbe1f29b7	-0.15543257
14	0x3fdd00ba	1.7265847
15	0x3fae8373	1.3633865
16	0x405bf7f9	3.43701
17	0x3f625bc0	0.8842125
18	0x402f9aff	2.7438352
19	0x3fbb5e82	1.4638216
20	0x3f90cc44	1.1312337
21	0x3f976e71	1.1830579
22	0xbee717f6	-0.45135468
23	0x406b9fd7	3.6816308
24	0x40be5efe	5.9490957
25	0x3ec72788	0.38897347
26	0x3f8836b0	1.0641689
27	0x3d815b38	0.06316227
28	0xbf6cc5aa	-0.9248911
29	0x3f2a144b	0.66437215
30	0x3e311f29	0.17297043
31	0xbc46cc5d	-0.012133685
32	0x3f3ee4f0	0.7456808
33	0x404e6afa	3.2252793
34	0x3fc66324	1.5499005
35	0x405de986	3.4673781
36	0xbd057cae	-0.032589607
37	0x4081ae84	4.052553
38	0x4005120f	2.0792272
39	0x4020dee2	2.5136037
40	0x40219ada	2.5250764
41	0x3f87e431	1.0616513
42	0x3f838fcb	1.0278257
43	0x3f3d7183	0.7400133
44	0x3fa1ad9a	1.2631104
45	0x3f83fedc	1.0312152
46	0x3e9eb71d	0.3099908
47	0x401de616	2.4671683

mamba.layers.0.mixer.D_SSM f4 [48]
0	0x40410cdc	3.0164099
1	0x407e62b2	3.974774
2	0x3fc8c14c	1.568399
3	0x3ec0d425	0.37661853
4	0x3f5c6823	0.860964
5	0x3ffb086b	1.9611944
6	0x3fb88d5c	1.441814
7	0x3ef13165	0.47107998
8	0x3f67ac3a	0.9049717
9	0x3f18aeb3	0.5964157
10	0x3e45f287	0.19330798
11	0xbe4b4b8b	-0.19853036
12	0x3ffc3dec	1.9706397
13	0xbe1f29b7	-0.15543257
14	0x3fdd00ba	1.7265847
15	0x3fae8373	1.3633865
16	0x405bf7f9	3.43701
17	0x3f625bc0	0.8842125
18	0x402f9aff	2.7438352
19	0x3fbb5e82	1.4638216
20	0x3f90cc44	1.1312337
21	0x3f976e71	1.1830579
22	0xbee717f6	-0.45135468
23	0x406b9fd7	3.6816308
24	0x40be5efe	5.9490957
25	0x3ec72788	0.38897347
26	0x3f8836b0	1.0641689
27	0x3d815b38	0.06316227
28	0xbf6cc5aa	-0.9248911
29	0x3f2a144b	0.66437215
30	0x3e311f29	0.17297043
31	0xbc46cc5d	-0.012133685
32	0x3f3ee4f0	0.7456808
33	0x404e6afa	3.2252793
34	0x3fc66324	1.5499005
35	0x405de986	3.4673781
36	0xbd057cae	-0.032589607
37	0x4081ae84	4.052553
38	0x4005120f	2.0792272
39	0x4020dee2	2.5136037
40	0x40219ada	2.5250764
41	0x3f87e431	1.0616513
42	0x3f838fcb	1.0278257
43	0x3f3d7183	0.7400133
44	0x3fa1ad9a	1.2631104
45	0x3f83fedc	1.0312152
46	0x3e9eb71d	0.3099908
47	0x401de616	2.4671683

mamba.layers.0.mixer.in_proj.weight f4 [96, 3]
0	0x3f87b14e	1.0600984
1	0xbe593265	-0.2121063
2	0x3e0ce556	0.1375936
3	0x400c34f0	2.190731
4	0x3e883008	0.26599145
5	0xbe176ae9	-0.14786877
6	0x3f05d07c	0.52271247
7	0x3e93e4fd	0.28885642
8	0xbeb36b54	-0.35042822
9	0xbdbe4561	-0.09290577
10	0x3e0a5f99	0.1351303
11	0xbe7b6d0d	-0.24553318
12	0x3e958f6a	0.2921098
13	0xbd9e5f75	-0.07733051
14	0x3e7787ec	0.24172944
15	0x3e2aacc0	0.16667461
16	0x3e658f1b	0.22417872
17	0x3f0a1a60	0.53946495
18	0x3eea2512	0.45731407
19	0x3f814d29	1.0101672
20	0x3fdffd6f	1.7499217
21	0x3d5fa35b	0.054599147
22	0x3d2cc403	0.04217912
23	0xbf044d6c	-0.51680636
24	0xbd41083c	-0.047126994
25	0xbd82b899	-0.063828655
26	0xbe89714b	-0.26844248
27	0xbdb13a68	-0.08653718
28	0x3e1e3ebb	0.15453617
29	0xbe8c9d0c	-0.27463567
30	0xbf6329cc	-0.8873565
31	0xbcff09fe	-0.031132694
32	0xbd6812cb	-0.056658547
33	0xbeea81b6	-0.45802087
34	0x3d8e09e3	0.069354795
35	0x3d635368	0.055499464
36	0xbf4ca9a9	-0.7994638
37	0x3e39ecf5	0.18156798
38	0x3f603aaf	0.87589544
39	0x3d19c8b7	0.037544932
40	0xbd73cb89	-0.059520278
41	0x3f2ac2a8	0.6670327
42	0xbeb25211	-0.34828237
43	0xbe6e63d0	-0.23280263
44	0xbfd7f78c	-1.687242
45	0xbe929c7d	-0.28635016
46	0xbd56afb1	-0.052413646
47	0x3f34687f	0.7047195
48	0x3f5f93aa	0.8733469
49	0xbe265291	-0.16242434
50	0xbf19b037	-0.6003451
51	0x3d48543a	0.04890845
52	0xbcd53c1f	-0.026029645
53	0xbee5f169	-0.44910744
54	0xbe10d951	-0.141454
55	0xbe0bd1bb	-0.13654225
56	0xbc917672	-0.017756674
57	0xbef13dc5	-0.4711744
58	0xbf97f67e	-1.1872098
59	0x3f977380	1.1832123
60	0xbeade40b	-0.33963045
61	0xbdea0b5b	-0.11427947
62	0x3e30053e	0.171895
63	0x3f06c747	0.52647823
64	0xbf19c941	-0.60072714
65	0x3fa4d518	1.2877531
66	0xbde4c789	-0.11170871
67	0x3de90426	0.113777444
68	0xbf632966	-0.88735044
69	0x3f8f6af4	1.1204515
70	0x3f32f9e5	0.6991256
71	0x3e3d2106	0.18469629
72	0xbf714c4b	-0.9425704
73	0x3f427a3a	0.7596775
74	0x3f8b8262	1.0899165
75	0x3e5d73dd	0.2162623
76	0x3db4f203	0.088352226
77	0xbf235173	-0.63796157
78	0xbf9b5370	-1.2134838
79	0xbf036fba	-0.51342356
80	0xbdb379e4	-0.08763483
81	0xbd9171dc	-0.07101795
82	0xbe559042	-0.20855811
83	0x3fdd1d2e	1.727453
84	0xbf7baeda	-0.9831368
85	0x3ef8a989	0.48566845
86	0xbd027958	-0.031854004
87	0xbe64e310	-0.22352242
88	0xbe9d06f4	-0.30669367
89	0xbfdf0343	-1.742287
90	0xbecac039	-0.3959978
91	0x3e026eeb	0.12737624
92	0x3e3a24fa	0.18178168
93	0x3f4de6ef	0.804305
94	0x3f03aea3	0.5143835
95	0xbe90810e	-0.2822346
96	0xbeb32ecb	-0.34996638
97	0x3ee178b3	0.440374
98	0x3ef2fb01	0.47457126
99	0xbefd582c	-0.49481332
100	0x3f79e5c1	0.976162
101	0x403a3a94	2.9098253
102	0xbe164167	-0.14673387
103	0x3d39a366	0.045321845
104	0x3fe8e1d1	1.8193914
105	0x3d8c1324	0.06839588
106	0xbeb67c3b	-0.35641655
107	0xbf64fdff	-0.8945007
108	0x3f642e8a	0.8913351
109	0x3d2e07bb	0.04248784
110	0x3e814fb7	0.2525613
111	0xbec110ae	-0.37708038
112	0x3f3b7426	0.73224103
113	0x405790a2	3.3682027
114	0xbec2ca86	-0.38045138
115	0x3f0d151a	0.55110323
116	0x3edbc97a	0.42927152
117	0xbece4387	-0.40285894
118	0x3ecfddce	0.4059891
119	0x3f30ea07	0.691071
120	0x3de5b348	0.11215836
121	0x3f766459	0.9624687
122	0x3eb1a07a	0.34692746
123	0xbed05742	-0.40691572
124	0xbf7fd3ab	-0.99932355
125	0xbf4c58a6	-0.79822767
126	0x3f29fcce	0.66401374
127	0xbd0f4e14	-0.03498657
128	0x3f9d8f54	1.2309365
129	0x3d467b5f	0.0484575
130	0xbe84e77b	-0.25957856
131	0xbf760977	-0.9610819
132	0xbdc7463f	-0.09730195
133	0xbf8e5173	-1.1118606
134	0x3f33da5b	0.7025506
135	0xbeb71223	-0.35756025
136	0x3e042cee	0.12907764
137	0xbf1cca06	-0.61245763
138	0xbd37c2d9	-0.044863556
139	0xbd89befe	-0.06725882
140	0x3f333790	0.70006657
141	0xbf24d2ab	-0.64383954
142	0xbf8fa7cf	-1.1223086
143	0xbe55818a	-0.20850196
144	0x3f39f05d	0.7263239
145	0x3c9d0381	0.01916671
146	0xbee27394	-0.44228804
147	0xc05623e6	-3.345941
148	0xbfa2ab3c	-1.2708507
149	0xbf1aed04	-0.6051791
150	0xbf1b8142	-0.60744107
151	0x3f89a61f	1.0753821
152	0xbda9244a	-0.08258875
153	0xbc93384b	-0.017971179
154	0x3e028c7b	0.12748902
155	0x3edbce6e	0.4293093
156	0xbce91ccd	-0.028456116
157	0x3e0b7c0a	0.13621536
158	0xbf0848eb	-0.53236264
159	0xbf31035a	-0.6914574
160	0xbf141e01	-0.5785828
161	0xbf4dfda6	-0.8046516
162	0xbe0a916f	-0.13532041
163	0x3ef7b323	0.48378858
164	0x3f54e9fd	0.8316954
165	0x3dd412b3	0.10355129
166	0xbc36df23	-0.011161598
167	0x3d686aa1	0.056742314
168	0x3daba5c1	0.083812244
169	0xbf992a66	-1.1966064
170	0xbf03f36b	-0.515433
171	0x3ee844aa	0.45364887
172	0x3f462336	0.7739748
173	0xbc37642c	-0.011193316
174	0x3deec80f	0.11659252
175	0xbc9d6487	-0.019212974
176	0x3f194489	0.598702
177	0xbe1f8318	-0.15577352
178	0x3dfecc55	0.12441317
179	0xbda6c02b	-0.08142122
180	0xbf9c10d2	-1.2192633
181	0x3fb96810	1.4484882
182	0xbe85c325	-0.26125446
183	0x3dda92ad	0.106725074
184	0xbe129ffc	-0.14318842
185	0xbd2b05cb	-0.04175357
186	0xbfd85f41	-1.6904069
187	0xbf880c28	-1.062871
188	0x3e507bd1	0.20359732
189	0xbc5e9a87	-0.013586647
190	0x3bf75d83	0.0075489893
191	0xbe43eed8	-0.1913408
192	0xbffa4f39	-1.9555427
193	0x3e5cd0e4	0.2156406
194	0x3fb33a74	1.4002213
195	0xbd3bc7fa	-0.04584501
196	0x3e15bd83	0.14623074
197	0x3fb9b4e2	1.4508326
198	0xbfb0becb	-1.3808225
199	0xbf29601d	-0.6616228
200	0x3f158557	0.58406585
201	0xbeef2516	-0.46707982
202	0x3fa4163d	1.2819287
203	0x3e1947c8	0.14968789
204	0xbfb8b384	-1.4429784
205	0xbd407894	-0.046989992
206	0xbeb87742	-0.36028486
207	0x3f3f94f9	0.7483669
208	0xbfa73959	-1.3064376
209	0x3f0296c1	0.5101128
210	0xbe1dbc29	-0.15403809
211	0x3ecc6490	0.39920473
212	0x3f4f0f6e	0.8088292
213	0xbe925883	-0.28583154
214	0x3ff8434d	1.9395539
215	0x3d4016a0	0.046896577
216	0xbf0a33d0	-0.5398531
217	0x407ef79e	3.9838634
218	0x3e07fe00	0.13280487
219	0x3eff3c2a	0.4985059
220	0xbf60ce35	-0.87814647
221	0x3eb2c170	0.34913206
222	0x3df73d59	0.12072248
223	0x3dd721a2	0.10504462
224	0xbf85d36b	-1.0455145
225	0xbd8a5ef7	-0.06756394
226	0xbded7ba0	-0.11595845
227	0xbe45c003	-0.19311528
228	0x3f15ac51	0.5846606
229	0x3e28476e	0.16433498
230	0x3f044a8a	0.5167624
231	0xbd5ba61d	-0.053625215
232	0x3d5d20b0	0.05398625
233	0x3e3327cb	0.17495649
234	0xbce9b564	-0.028528877
235	0x3da0dccf	0.07854616
236	0x3c86b104	0.01644183
237	0x3f1234ad	0.57111627
238	0x3e0c0dd6	0.13677153
239	0x3f2e54eb	0.68098325
240	0xbe726467	-0.23671113
241	0xbf02607d	-0.5092848
242	0x3f2abdd0	0.6669588
243	0x3f3cf7aa	0.73815405
244	0x402c240a	2.6896996
245	0xbf28d98c	-0.6595695
246	0x3f5ed846	0.8704876
247	0xbe299dd9	-0.1656412
248	0xbea219f6	-0.31660432
249	0xbfb8ad48	-1.4427881
250	0xbf814dba	-1.0101845
251	0xbd4c61bc	-0.049897894
252	0xbec47577	-0.3837087
253	0x3d02262b	0.03177468
254	0xbe483cd5	-0.19554456
255	0x40023af0	2.0348473

mamba.layers.0.mixer.conv1d.weight f4 [48, 1, 16]
0	0xbebc908f	-0.3682904
1	0xbe8f3870	-0.27972746
2	0xbdb514c9	-0.08841855
3	0xbedcbbce	-0.43112034
4	0xbee0ead2	-0.43929154
5	0xbec61e07	-0.38694784
6	0xbeeed3f6	-0.46646088
7	0xbe14cd93	-0.14531545
8	0xbf0ef0f7	-0.55836433
9	0xbec34b3f	-0.38143346
10	0xbd8e77be	-0.06956433
11	0x3df7f5d5	0.121074356
12	0x3e861e66	0.26195067
13	0x3f620cb3	0.8830063
14	0x3f25feaa	0.6484171
15	0x3f066d68	0.5251069
16	0xbe8ebe43	-0.27879533
17	0xbe7e7eeb	-0.24853103
18	0x3e9031f9	0.28163126
19	0x3f1eeef4	0.62083364
20	0x3fa3af7f	1.2787932
21	0x3fcf58b8	1.619895
22	0xc025b0fd	-2.5889275
23	0xbff2cbfb	-1.89685
24	0xbf36687e	-0.7125319
25	0xbdcc42cc	-0.09973678
26	0x3ed12e22	0.4085551
27	0x3f19bf3c	0.60057425
28	0x3f134b07	0.5753636
29	0x3e5ecf32	0.21758726
30	0x3d815132	0.06314315
31	0xbf5cd297	-0.86258835
32	0xbc5827d8	-0.013193093
33	0xbe48bcaf	-0.19603227
34	0xbdf0c132	-0.11755599
35	0x3e039322	0.12849095
36	0xba8ee252	-0.0010901189
37	0x3eb7a383	0.35866937
38	0x3f107c0d	0.56439286
39	0x3d9ac901	0.0755787
40	0xbe95f226	-0.29286307
41	0xbf05a3b4	-0.52202916
42	0xbf95a95b	-1.1692308
43	0xbf20f543	-0.6287424
44	0xbf47040f	-0.7774057
45	0xbeaca132	-0.33716732
46	0xbea5e322	-0.3239985
47	0x3edfb643	0.43693742
48	0x3e91b6ae	0.28459686
49	0x3e4ee147	0.20203124
50	0xbd135258	-0.0359672
51	0xbeb54c2f	-0.35409686
52	0xbe9d7e28	-0.30760312
53	0xbee0f95a	-0.4394024
54	0x3f065ad4	0.5248234
55	0x3dfe05ed	0.12403474
56	0x3e7ad1cd	0.24494095
57	0xbd68c9b9	-0.056833003
58	0x3e5a926f	0.21344922
59	0xbe0c9ea1	-0.13732387
60	0x3e687053	0.22699098
61	0xbe36df06	-0.17858514
62	0xbeb447a0	-0.35210896
63	0xbe0a7112	-0.13519695
64	0xbd432b83	-0.047648918
65	0xbebbaba1	-0.3665438
66	0xbeee4c43	-0.46542558
67	0xbef65ec5	-0.48119178
68	0xbdde5c8c	-0.10857496
69	0xbf0401a8	-0.5156503
70	0xbe03bfcf	-0.12866138
71	0xbd2b8b28	-0.041880757
72	0x3d8b9560	0.068156004
73	0x3eb0b1ee	0.3451075
74	0x3db20e67	0.08694153
75	0xbdf5a9b7	-0.11995261
76	0xbeab8b44	-0.3350469
77	0xbf18e532	-0.59724724
78	0xbf00ed37	-0.5036196
79	0xbefd167e	-0.49431223
80	0xbeab2900	-0.33429718
81	0xbe57380f	-0.21017478
82	0xbdf2e654	-0.11860338
83	0x3bc77483	0.0060868873
84	0x3ee8f144	0.4549657
85	0x3eb2faa0	0.34956837
86	0xbfb3d6cc	-1.4049926
87	0xbf1b10f2	-0.6057273
88	0xbed79e9f	-0.42113206
89	0x3e4a73ba	0.19770709
90	0x3ec20267	0.37892458
91	0x3ec3f6d0	0.3827424
92	0x3e056125	0.13025339
93	0x3e6b0f3f	0.22955035
94	0xbd998ea2	-0.07497908
95	0x3d03766a	0.03209535
96	0xbec21c29	-0.3791211
97	0xbe74af3d	-0.23894973
98	0xbeea72b0	-0.45790625
99	0xbe142a89	-0.14469351
100	0x3e478ac2	0.19486526
101	0xbefcda0a	-0.493851
102	0xbf4b1f9e	-0.7934512
103	0xbf3b4007	-0.7314457
104	0xbf1d5421	-0.61456496
105	0xbf2a2fce	-0.66479194
106	0xbe0f8c4c	-0.14018363
107	0x3dfb0e92	0.122586384
108	0x3ecfb08b	0.4056438
109	0x3edb90f4	0.42884028
110	0x3ecdcf82	0.40197378
111	0x3f17b789	0.5926443
112	0xbe3b78b8	-0.1830777
113	0xbe47e120	-0.19519472
114	0xbd045673	-0.032309007
115	0x3e1fff9a	0.15624848
116	0x3eaf14f7	0.34195682
117	0x3e9f1566	0.31071013
118	0xbe2f3892	-0.17111424
119	0xbe1beda3	-0.1522737
120	0xbf2e248a	-0.68024504
121	0xbeba77c7	-0.36419508
122	0xbe9ab43d	-0.30215636
123	0x3eb3f81f	0.3515024
124	0xbd8a04b3	-0.067391776
125	0x3dff0f4f	0.12454092
126	0x3ec235b5	0.379316
127	0x3ef9d96c	0.48798692
128	0x3dd4a1c0	0.10382414
129	0x3de52f91	0.11190713
130	0xbe366333	-0.17811279
131	0xbdefa27c	-0.11700913
132	0xbb91b426	-0.004446524
133	0xbe277bac	-0.16355771
134	0x3e08f418	0.13374364
135	0x3f0638c2	0.52430356
136	0x3e01dd9b	0.12682192
137	0xbe5cee1b	-0.21575205
138	0xbdd6623b	-0.10467955
139	0xbe9836e8	-0.2972939
140	0x3d68c5da	0.05682931
141	0xbe0780fd	-0.13232799
142	0xbe8ef308	-0.27919793
143	0x3e355708	0.17708981
144	0x3e9c0584	0.30472958
145	0xbbea6dc4	-0.0071541984
146	0x3e32c97e	0.17459676
147	0x3e92f1e0	0.2870016
148	0x3e23ba4a	0.15989032
149	0xbc3030c3	-0.010753813
150	0x3f062c9d	0.52411824
151	0x3d91f9d4	0.07127729
152	0xbe153299	-0.14570083
153	0xbe4965b7	-0.19667707
154	0xbd0412e0	-0.032244563
155	0xbe144798	-0.14480436
156	0x3dce201b	0.100647174
157	0xbc60e5d1	-0.0137266675
158	0x3e985658	0.29753375
159	0x3e8fa4fd	0.28055564
160	0x3fa5d791	1.2956411
161	0x3f9ec90a	1.2405102
162	0x3f56f735	0.8397096
163	0x3ef9afbe	0.48766893
164	0x3ee1ba4a	0.4408744
165	0x3f139475	0.576484
166	0x3f6f4cd3	0.934766
167	0x3f520264	0.820349
168	0x3f7641d7	0.96194214
169	0x3f0b8322	0.5449697
170	0x3e8ddc49	0.27707127
171	0x3e1a5ae6	0.15073738
172	0xbe4ecbc9	-0.20194925
173	0xbdc58f0b	-0.09646424
174	0x3c4a603a	0.012352044
175	0xbe37f3d7	-0.17964111
176	0x3edeb113	0.43494472
177	0x3f08600f	0.53271574
178	0x3cee183a	0.029064287
179	0x3dd0f851	0.102036126
180	0x3d0a7620	0.03380406
181	0xbeda40f6	-0.42627686
182	0xbf383d1e	-0.7196826
183	0xbf6bd817	-0.921266
184	0xbf2940ea	-0.66114676
185	0xbe6bc8b3	-0.2302578
186	0xbdcddebb	-0.10052248
187	0xbdd262c7	-0.102727465
188	0x3e6a5b9b	0.22886507
189	0x3ef29d32	0.47385556
190	0x3f6c8ec3	0.9240534
191	0x3f6aa4ee	0.9165791
192	0xbf129644	-0.5726054
193	0xbf02a636	-0.5103487
194	0xbe872f86	-0.26403445
195	0xbea67daa	-0.3251775
196	0xbf63e172	-0.8901588
197	0xbf278382	-0.6543504
198	0x3f93eaa1	1.1555978
199	0x3f8ed10f	1.115755
200	0x3f2b795b	0.6698205
201	0x3e5f4cb2	0.218066
202	0xbd009f87	-0.031402137
203	0xbdb8284e	-0.089920625
204	0xbe8ca4a6	-0.27469367
205	0xbec4b5de	-0.38420004
206	0xbeca2287	-0.39479467
207	0xbe833bf8	-0.2563169
208	0xbf1e68de	-0.61878765
209	0xbe6d441e	-0.23170516
210	0xbdc53896	-0.096299335
211	0x3d90ec1a	0.07076283
212	0x3dabfc4c	0.08397731
213	0xbe8ced51	-0.27524808
214	0x3df97d71	0.12182129
215	0x3e161a27	0.14658414
216	0x3dba1984	0.09086898
217	0x3e01d8d0	0.12680364
218	0x3e488f30	0.19585872
219	0x3e09f54e	0.13472483
220	0x3e5b79c5	0.2143317
221	0xbdc00fd2	-0.093780175
222	0xbe93b288	-0.28847146
223	0xbf0808de	-0.5313853
224	0x3f070209	0.5273748
225	0x3f876511	1.0577718
226	0x3f69f4b3	0.91389006
227	0x3f81dcfb	1.0145563
228	0x3f6a8a12	0.9161693
229	0x3e7962ad	0.24354048
230	0x3d9ae460	0.0756309
231	0xbd2dded4	-0.042448834
232	0xbe0dc8a8	-0.13846076
233	0x3eab29af	0.3343024
234	0x3eca7a30	0.39546347
235	0x3eeeae19	0.466172
236	0x3e1b80c1	0.15185834
237	0x3edd9c8b	0.43283495
238	0x3e6dedb4	0.23235208
239	0x3ec9750e	0.39347118
240	0x3e1b0837	0.15139852
241	0x3df963d1	0.121772416
242	0x3e7d3409	0.24726881
243	0x3f0b6fa5	0.5446723
244	0x3f2f1eaf	0.68406194
245	0x3f00ea1c	0.5035722
246	0xbead8f23	-0.33898267
247	0xbf03e6d8	-0.51524115
248	0xbe6f2399	-0.23353423
249	0xbe7ce1da	-0.2469553
250	0x3e03c627	0.12868558
251	0x3e537d8e	0.20653364
252	0x3e4a3197	0.1974548
253	0x3f31655a	0.69295275
254	0x3ec29066	0.38000792
255	0x3f290a5a	0.6603142

mamba.layers.0.mixer.conv1d.bias f4 [48]
0	0xbe6100e1	-0.21972992
1	0xbec818ef	-0.39081523
2	0x3e0b97b2	0.13632086
3	0xbeb482b5	-0.35255972
4	0xbf5afcf2	-0.85542214
5	0xbc8b3286	-0.016991865
6	0xbedc9aa3	-0.43086728
7	0xbef0dce7	-0.47043535
8	0xbe5f764c	-0.2182247
9	0xbe5e3b77	-0.21702372
10	0xbface2c0	-1.3506699
11	0xbef103c5	-0.47073188
12	0x3d986750	0.0744158
13	0x3db5cada	0.088765815
14	0xbdbf8ba4	-0.09352806
15	0xbe56a80a	-0.2096254
16	0xbe818b39	-0.2530153
17	0x3e3aa95e	0.18228671
18	0xbf2c3992	-0.67275345
19	0xbec6094c	-0.38678968
20	0xbe5a1019	-0.21295203
21	0xbe8c821d	-0.2744302
22	0xbbcc36e8	-0.0062321313
23	0xbe54d1f8	-0.20783222
24	0xbcc97479	-0.024591671
25	0xbebbcd8b	-0.36680254
26	0xbf2d6de2	-0.6774579
27	0xbf0817e0	-0.5316143
28	0xbef69cbd	-0.48166457
29	0x3d6d78c9	0.057976518
30	0xbebf8aba	-0.37410527
31	0xbf33df1a	-0.702623
32	0xbf4b522b	-0.79422253
33	0x3c431008	0.011905678
34	0xbe842528	-0.25809598
35	0xbf27b92d	-0.6551693
36	0xbf0b64fe	-0.54450977
37	0xbec11abe	-0.37715715
38	0xbebdf7bb	-0.37103066
39	0xbea40b63	-0.32039937
40	0xbc02a3ae	-0.007973595
41	0xbfae7377	-1.3628987
42	0xbdc26835	-0.09492532
43	0xbe9a7825	-0.30169788
44	0xbf0368d8	-0.51331854
45	0xbf72b310	-0.9480448
46	0xbee23faf	-0.44189212
47	0xbe88d09e	-0.26721662

mamba.layers.0.mixer.x_proj.weight f4 [65, 48]
0	0xbe42b412	-0.19014004
1	0x3ddadd9e	0.106868014
2	0xbe69ac87	-0.2281972
3	0x3e9b260d	0.30302468
4	0x3ebaffc7	0.36523268
5	0x3ed1d788	0.4098475
6	0xbd7d099e	-0.06177675
7	0xbd960bea	-0.07326491
8	0x3d986ee3	0.07443025
9	0xbe9eb5e7	-0.30998155
10	0x3ec9e89e	0.39435285
11	0x3f2b400a	0.6689459
12	0x3e3f28cd	0.18667908
13	0x3f0da250	0.55325794
14	0xbeb64fdf	-0.35607812
15	0xbef546af	-0.4790549
16	0x3e876bf1	0.2644954
17	0xbe8170e2	-0.25281435
18	0x3ecb4429	0.3970044
19	0x3db6b176	0.08920567
20	0x3c406a4a	0.011744091
21	0x3f1d86b1	0.6153365
22	0x3ecd216d	0.40064564
23	0x3e5e8d23	0.21733527
24	0xbeebdc42	-0.4606648
25	0x3e563339	0.20917977
26	0x3ebaa0b3	0.3645073
27	0x3eaad7d9	0.33367804
28	0x3eb24f4b	0.3482612
29	0xbd805916	-0.06266992
30	0xbdc3e9ee	-0.09566103
31	0x3ca425ef	0.02003762
32	0xbe448997	-0.19193111
33	0xbe84b22b	-0.2591718
34	0x3dbfec5a	0.09371252
35	0x3efb052d	0.49027386
36	0xbd8ff4ef	-0.07029139
37	0xbf4fdab1	-0.8119307
38	0xbe990e25	-0.29893604
39	0x3e486545	0.19569881
40	0xbf103a04	-0.56338525
41	0x3ead5ae8	0.33858418
42	0x3eec77f2	0.4618526
43	0xbef1722a	-0.47157413
44	0xbd5cb7da	-0.053886272
45	0x3e224675	0.1584719
46	0x3d38abc6	0.04508569
47	0x3bbdbf34	0.0057906155
48	0xbf03677f	-0.513298
49	0xbf1584d3	-0.584058
50	0x3f36efa6	0.71459424
51	0x3cb82a42	0.022481088
52	0xbf86c558	-1.0528975
53	0xbe19fb1c	-0.15037197
54	0xbf179ff6	-0.59228456
55	0x3eafba11	0.34321645
56	0xbe33f4ca	-0.17573848
57	0x3f26f149	0.6521192
58	0xbf1f1077	-0.621345
59	0x3d6dada1	0.058026914
60	0x3ee0c3ba	0.43899328
61	0x3ed21d0e	0.41037792
62	0x3e5b2690	0.21401429
63	0xbf22bc61	-0.63568693
64	0xbed8eaf0	-0.42366743
65	0x3d210df1	0.039319936
66	0xbf20328c	-0.6257713
67	0xbee88dbb	-0.45420632
68	0x3e009848	0.1255809
69	0xbf388e0f	-0.72091764
70	0x3c286442	0.01027781
71	0x3f3ece6a	0.7453371
72	0xbe8b9fc3	-0.27270326
73	0xbf4810c8	-0.78150606
74	0xbe0d87db	-0.13821356
75	0xbf648a25	-0.8927329
76	0xbe9a2a6b	-0.30110487
77	0xbf1687e6	-0.58801115
78	0xbf21e67f	-0.63242334
79	0xbe7d2867	-0.24722444
80	0x3f92c0da	1.1465104
81	0xbe67c8de	-0.22635219
82	0xbb79efeb	-0.0038137387
83	0xbf2a78bd	-0.6659048
84	0xbee28c7f	-0.44247815
85	0xbf85ebea	-1.046262
86	0x3f7b6561	0.98201567
87	0xbedccf0f	-0.43126723
88	0x3e9383c6	0.28811473
89	0xbf4d1d05	-0.80122405
90	0xbf6901dd	-0.9101847
91	0x3f560863	0.8360655
92	0xbeaa7b2b	-0.33297095
93	0xbe820cc4	-0.25400364
94	0x3f1257cd	0.57165223
95	0x3f28621c	0.65774703
96	0xbed512be	-0.41615862
97	0xbed367ba	-0.41290075
98	0x3eff82b6	0.49904412
99	0xbe14f46c	-0.14546365
100	0xbf97e39a	-1.1866333
101	0xbe853793	-0.26018962
102	0xbf725f59	-0.9467674
103	0x3f5366c0	0.8257866
104	0x3ece3fca	0.40283042
105	0x3f398e62	0.72482884
106	0xbf1bd49b	-0.60871285
107	0xbe404b4e	-0.18778726
108	0x3f4d07b0	0.80089855
109	0x3f4d5b40	0.8021736
110	0x3e85b2ad	0.2611288
111	0xbf3ebe6a	-0.745093
112	0xbf38c858	-0.721807
113	0x3cc4cd71	0.024023743
114	0xbf68a6e5	-0.9087966
115	0xbecefb81	-0.40426257
116	0x3dea9702	0.11454584
117	0xbea71f2c	-0.3264097
118	0xbe2dc6f2	-0.16970423
119	0x3f35bf6f	0.7099523
120	0xbec8b781	-0.39202502
121	0xbf485b88	-0.78264666
122	0xbf0b6ed5	-0.5446599
123	0xbf3bd59d	-0.73372823
124	0xbe95431a	-0.29152757
125	0xbf2d5d8a	-0.67720854
126	0xbf1dc743	-0.61632174
127	0x3e72b3de	0.23701426
128	0x3f4d809c	0.8027437
129	0xbedbcf8c	-0.42931783
130	0x3dfed82a	0.12443574
131	0xbf4fb6eb	-0.81138486
132	0xbeeee943	-0.4666234
133	0xbf9e69e3	-1.2376064
134	0x3f7f9cc6	0.9984859
135	0xbf043e0f	-0.51657194
136	0x3d9933de	0.07480596
137	0xbed729ee	-0.42024177
138	0xbf448daf	-0.7677869
139	0x3eaa237a	0.3323019
140	0xbefc9088	-0.4932902
141	0xbee7dfd5	-0.45287958
142	0x3ec9446a	0.39310008
143	0x3f23dcbf	0.64008707
144	0xbf05db61	-0.5228787
145	0x3ead2636	0.33818215
146	0xbf4b49ee	-0.7940968
147	0xbe3339e8	-0.17502558
148	0x3f7316aa	0.9495646
149	0x3e11432c	0.1418578
150	0x3f94e1e5	1.1631438
151	0xbf51aa6c	-0.8190067
152	0x3d5acb61	0.053416613
153	0xbeeb6452	-0.45974976
154	0x3eb2e069	0.34936836
155	0x3eea373d	0.45745268
156	0xbefc8dde	-0.49326986
157	0xbb89835e	-0.0041965684
158	0xbee34533	-0.44388732
159	0xbe07f9a0	-0.13278818
160	0xbe6d2a9c	-0.23160785
161	0x3f32c6fa	0.69834864
162	0x3ea2e3d1	0.31814435
163	0x3eef954d	0.46793595
164	0xbe7924b8	-0.24330413
165	0xbe9affc2	-0.30273253
166	0xbe765e55	-0.24059422
167	0x3af32e94	0.001855331
168	0x3eacf041	0.3377705
169	0x3ed2fc2c	0.41208017
170	0x3ec086a1	0.37602714
171	0xbe82f450	-0.2557702
172	0x3e95ce4b	0.29258952
173	0xbd90018c	-0.07031545
174	0x3e29c360	0.16578436
175	0x3d8022bd	0.06256626
176	0xbec7cd05	-0.39023605
177	0xbf2d9f9a	-0.6782166
178	0xbf0ab3b7	-0.54180473
179	0x3e9856d2	0.2975374
180	0xbdf26890	-0.1183635
181	0x3f02cb32	0.510913
182	0xbf49650d	-0.78669816
183	0xbe053207	-0.13007365
184	0xbf52aaa4	-0.82291627
185	0x3f12a15b	0.5727746
186	0x3e42d3c1	0.1902609
187	0xbf2f700f	-0.6853036
188	0x3f577db9	0.8417621
189	0x3dca90bb	0.098908864
190	0xbf517de2	-0.81832707
191	0x3e673394	0.22578269
192	0x3eda79ef	0.42671153
193	0xbf3e3dc6	-0.7431301
194	0x3f4fcb19	0.8116928
195	0xbd010878	-0.031502217
196	0xbf57dadf	-0.84318346
197	0xbe450452	-0.1923993
198	0xbfa1d166	-1.2642028
199	0x3ef28a21	0.4737101
200	0xbf8a2e83	-1.0795444
201	0x3f1a4474	0.602607
202	0xbf0e2be2	-0.5553571
203	0xbf359192	-0.7092525
204	0x3ef7c15d	0.48389712
205	0xbeeb4fed	-0.45959416
206	0x3e4799e5	0.194923
207	0xbdf0f330	-0.11765134
208	0xbda7ce95	-0.08193699
209	0xbf2fec63	-0.6872007
210	0xbeece4db	-0.46268353
211	0xbeedf892	-0.46478707
212	0x3eb2f7b7	0.34954616
213	0xbeca6f8d	-0.39538231
214	0x3e1b00b0	0.15136981
215	0x3e7164d2	0.23573616
216	0xbe8091cb	-0.2511123
217	0xbf0e3b6e	-0.5555943
218	0xbe35263b	-0.17690365
219	0xbe911159	-0.28333548
220	0xbea09811	-0.31366017
221	0x3e051b0c	0.12998599
222	0xbe1585b7	-0.1460179
223	0xbe70757c	-0.23482317
224	0x3f68f671	0.9100104
225	0x3ec47923	0.3837367
226	0x3eaea75a	0.34112054
227	0xbee83696	-0.45354146
228	0x3e81254f	0.25223777
229	0xbf23a81d	-0.63928396
230	0x3f701d12	0.9379436
231	0x3e4e50a2	0.20147946
232	0x3f775be3	0.96624583
233	0xbef4e3a7	-0.47829935
234	0xbf45261e	-0.7701129
235	0x3f62e4fd	0.8863066
236	0xbf1d9ced	-0.61567575
237	0x3e7371a8	0.23773825
238	0x3ee1acf9	0.4407728
239	0xbd3fd359	-0.046832416
240	0xbe681ae8	-0.22666514
241	0xbe86bf56	-0.26317853
242	0x3f56caca	0.8390318
243	0x3bb3c0d9	0.0054856357
244	0xbf9e9018	-1.2387724
245	0x3e53212e	0.20618126
246	0xbfd610e8	-1.6723909
247	0x3e9b1ba8	0.30294538
248	0xbf4a7ced	-0.7909687
249	0x3f2e128d	0.67997056
250	0xbeadb1bf	-0.33924672
251	0xbe832124	-0.25611222
252	0x3ef60377	0.48049518
253	0x3d6ef1c7	0.058336046
254	0x3d563b39	0.052302573
255	0xbf1ced9c	-0.61300063

mamba.layers.0.mixer.dt_proj.weight f4 [48, 1]
0	0x3f087f72	0.53319466
1	0x3e84e9b1	0.25959542
2	0x3e7e147a	0.24812499
3	0xbfb2dc41	-1.3973466
4	0xbf247128	-0.6423516
5	0xbf4126c9	-0.75449806
6	0xbe8be78c	-0.27325094
7	0xbe8b9ac3	-0.2726651
8	0x3ee4fbbf	0.44723317
9	0xbf158a9f	-0.58414644
10	0xbd9ea646	-0.07746558
11	0xbf1af6c6	-0.60532796
12	0xbf2e61b9	-0.6811786
13	0x3e874ede	0.26427358
14	0xbfb4ddc2	-1.4130175
15	0xbf1976d3	-0.59946936
16	0x3f91b037	1.1381902
17	0x3f30e4b6	0.69098985
18	0x3e811869	0.25213936
19	0x3f256f8c	0.6462333
20	0xbf5b06f0	-0.8555746
21	0x3e9c427c	0.30519474
22	0x3d783c5f	0.06060445
23	0x3f03b484	0.5144732
24	0x3f079e7f	0.5297622
25	0x3f48cc4f	0.7843675
26	0x3ea90175	0.33008924
27	0xbe44d167	-0.19220506
28	0xbf4ec940	-0.80775833
29	0xbe62fe10	-0.2216723
30	0xbcaeaaa2	-0.021321598
31	0xbf79f3cf	-0.9763765
32	0x3e3754d3	0.17903452
33	0x3ed942f8	0.42433906
34	0xbf9c3af0	-1.2205486
35	0x3e67552f	0.22591089
36	0x3e4c5044	0.19952494
37	0x3f0dcb66	0.55388486
38	0x3ed85afe	0.42256922
39	0xbe7eb6bd	-0.24874397
40	0x3f29562f	0.6614713
41	0x3ed80d2a	0.42197543
42	0x3f3e60e2	0.7436658
43	0x3ec89e20	0.3918314
44	0x3ee93fdc	0.45556533
45	0xc011f7b1	-2.280743
46	0x3f7732b2	0.9656173
47	0xbe696c50	-0.22795224

mamba.layers.0.mixer.dt_proj.bias f4 [48]
0	0xc09d1511	-4.9088216
1	0xc09944fa	-4.78967
2	0xc035d1ce	-2.8409305
3	0xc0b88bc9	-5.7670636
4	0xc0e0e00d	-7.02735
5	0xc02d76ec	-2.7103834
6	0xc08a4f6f	-4.3221965
7	0xc0cee5cd	-6.465552
8	0xc08ccc25	-4.39992
9	0xc01b68e4	-2.428277
10	0xc089452a	-4.289693
11	0xc0a8ef31	-5.279198
12	0xc0618f67	-3.5243776
13	0xc102de84	-8.179325
14	0xc099314a	-4.7872667
15	0xc08aa11b	-4.332166
16	0xc0e2ee8d	-7.09162
17	0xc0b4df92	-5.6522913
18	0xc02617e3	-2.595208
19	0xc08b4a89	-4.3528485
20	0xc0e45a50	-7.1360245
21	0xc0579804	-3.3686533
22	0xc098791c	-4.764784
23	0xc0ca2cb1	-6.3179555
24	0xc070c3c4	-3.7619486
25	0xc0a0633b	-5.012113
26	0xc0842995	-4.130076
27	0xc0ef83ab	-7.4848228
28	0xc01f6c68	-2.4909916
29	0xc0898e1d	-4.298598
30	0xc0a944f4	-5.289667
31	0xc01093c7	-2.2590196
32	0xc0930107	-4.5938754
33	0xc0e93bcf	-7.288551
34	0xc0845d33	-4.136377
35	0xc0232839	-2.54933
36	0xc0c7ba93	-6.241525
37	0xc0420ebc	-3.0321493
38	0xc025871e	-2.586372
39	0xc0864d35	-4.1969247
40	0xc0a32a9b	-5.098951
41	0xc03ebf1d	-2.9804146
42	0xc08fda9d	-4.495436
43	0xc076eff9	-3.8583968
44	0xc0f3ed78	-7.622738
45	0xc0c61ca1	-6.1909947
46	0xc0a7cbbb	-5.2436194
47	0xc0c6f331	-6.2171865

mamba.layers.0.mixer.out_proj.weight f4 [3, 48]
0	0xbb779f80	-0.0037784278
1	0xbd8ddf3f	-0.069273464
2	0x3d9ac962	0.07557942
3	0xbd53894e	-0.051644616
4	0x3cfbed08	0.030752674
5	0x3d90df38	0.070738256
6	0x3e05ca20	0.13065386
7	0xbd83c7a6	-0.06434564
8	0xbdf7087c	-0.12062165
9	0xbdb984e0	-0.09058547
10	0x3c5ebd80	0.013594985
11	0xbda3330a	-0.07968719
12	0x3d541bd0	0.051784337
13	0xbdd9daba	-0.10637422
14	0x3df54718	0.11976451
15	0xbdf07762	-0.117415205
16	0xbdcc1e6e	-0.099667415
17	0xbc1677c0	-0.009183824
18	0xbdf797ec	-0.12089524
19	0xbde54c74	-0.11196223
20	0x3dcbd370	0.09952438
21	0x3dda7c04	0.10668185
22	0x3d408a60	0.047006965
23	0x3d205e48	0.039152414
24	0xbd9dec28	-0.07711059
25	0xbe083139	-0.13300027
26	0xbe01b4b5	-0.1266659
27	0xbd8beb5c	-0.068320006
28	0x3dfe2d44	0.124109775
29	0xbe0d88d9	-0.13821734
30	0xbd64faae	-0.05590313
31	0x3deac34c	0.11463031
32	0x3d4c16d4	0.049826458
33	0xbdec94fb	-0.11551853
34	0xbd7701c4	-0.06030442
35	0x3d9a4900	0.07533455
36	0xbcaa80d4	-0.020813383
37	0xbd9eec24	-0.07759884
38	0xbd9a9b44	-0.07549146
39	0xbe05682a	-0.13028017
40	0xbe085d6f	-0.13316892
41	0x3d8e714e	0.06955205
42	0x3db93c78	0.090447366
43	0x3de4fc30	0.111809134
44	0x3dd99a30	0.10625112
45	0x3dcaa0e8	0.09893972
46	0x3d19e908	0.03757575
47	0x3d889a08	0.06670004
48	0xbcd1a710	-0.025592357
49	0xbd077a8c	-0.033075854
50	0x3da4021a	0.08008213
51	0xbd8be84d	-0.06831417
52	0xbda0acbe	-0.07845448
53	0x3cc912a0	0.024545014
54	0xbdf45b76	-0.11931507
55	0x3e047c2a	0.1293799
56	0x3c94f008	0.018180862
57	0x3c0565d0	0.00814195
58	0xbda52b85	-0.08064941
59	0x3db66724	0.08906391
60	0x3d9b2a5e	0.0757644
61	0xbd07a214	-0.033113554
62	0x3d2f833c	0.042849764
63	0x3ca6cdf8	0.020361885
64	0xbd7b47f8	-0.06134793
65	0xbd82a571	-0.06379212
66	0xbc380490	-0.011231557
67	0xbdd8b44e	-0.105812654
68	0x3daae618	0.08344668
69	0xbdb81c14	-0.089897305
70	0x3d6bba14	0.057550505
71	0x3d837550	0.0641886
72	0x3cb90c28	0.022588804
73	0xbde898a8	-0.11357242
74	0xbd278a16	-0.040903173
75	0x3df5b0ec	0.11996636
76	0xbcb649c8	-0.022251979
77	0xbdee2998	-0.11629027
78	0xbb217180	-0.0024634302
79	0x3dffe8ac	0.124955505
80	0x3dc9a73c	0.098463506
81	0xbc19a610	-0.009377971
82	0x3da70006	0.08154301
83	0xbc68d8c0	-0.0142118335
84	0xbd9fd2bd	-0.07803867
85	0x3db26cfe	0.08712195
86	0xbe03ee8a	-0.12883964
87	0x3c079b30	0.008276746
88	0xbd578560	-0.05261743
89	0xbcc11340	-0.02356875
90	0x3d344e60	0.044020057
91	0x3d4387a4	0.04773678
92	0x3ccabf18	0.024749324
93	0x3d840750	0.06446707
94	0xbe0d3f46	-0.13793668
95	0x3d785a44	0.06063296
96	0x3de9fe4c	0.114254564
97	0xbdd251ed	-0.10269532
98	0x3d56e250	0.052461922
99	0x3d9cbe02	0.076534286
100	0x3dc10b04	0.09425929
101	0x3d6e7ce0	0.05822456
102	0xbdae64c1	-0.08515311
103	0x3df6a4a8	0.120431244
104	0x3dbb4478	0.09143919
105	0xbdb7d232	-0.089756384
106	0x3c29c200	0.010361195
107	0xbdb0d2fe	-0.086339936
108	0x3d8dc03e	0.06921433
109	0x3cf0d6b8	0.02939926
110	0xbbe2f5e0	-0.0069262832
111	0x3d661864	0.056175604
112	0xbcc28254	-0.023743786
113	0x3c7d81b0	0.015472814
114	0x3e128b26	0.14310893
115	0x3d1892ac	0.037249252
116	0xbdc3dfbc	-0.09564158
117	0x3cdd2e08	0.026999488
118	0x3dd4c7ee	0.10389696
119	0x3dc7bdc6	0.09752993
120	0xbd913f30	-0.0709213
121	0x3d8e45c8	0.069469035
122	0x3c47eac0	0.012201965
123	0x3e0c9b88	0.13731205
124	0x3e06f4ba	0.13179293
125	0xbe0b0a24	-0.13578087
126	0xbd8cc50a	-0.0687352
127	0x3e05ad58	0.13054407
128	0x3d670720	0.05640328
129	0xbdcd5ca2	-0.10027434
130	0xbb569980	-0.0032745302
131	0x3c787b50	0.015166119
132	0xbdf85be0	-0.12126899
133	0xbdd6d68c	-0.1049014
134	0x3b968f20	0.0045946985
135	0x3ccf9160	0.025337875
136	0x3db8a7f2	0.09016408
137	0x3d890484	0.066903144
138	0x3da35a78	0.0797624
139	0x3e01894c	0.12650031
140	0xbe097551	-0.13423659
141	0xbd6d4a16	-0.057931982
142	0xbe0fc619	-0.14040412
143	0xbdddc7d7	-0.10829132

mamba.layers.0.norm.weight f4 [3]
0	0x3ed3819b	0.4130982
1	0x3f03e3d7	0.5151953
2	0x3ffc3d59	1.9706222

fc.weight f4 [1, 48]
0	0x3e086312	0.13319042
1	0xc00cbf0f	-2.1991613
2	0xbf791e9e	-0.97312343
3	0xbcefc2a3	-0.029267615
4	0x3c834382	0.016023401
5	0xbf235252	-0.63797486
6	0x3dd668cb	0.104692064
7	0xbb9dc226	-0.004814404
8	0xbf57cb69	-0.84294754
9	0xbe972e72	-0.29527622
10	0x3dc5d3cf	0.0965954
11	0x3d9aa655	0.075512566
12	0xbf6537d6	-0.89538324
13	0xbd3465b9	-0.044042323
14	0x3f300c3a	0.68768656
15	0x3bb293e1	0.0054497574
16	0x3f8ef158	1.1167402
17	0x3d8b3b7e	0.067984566
18	0xbf4ce1bd	-0.8003195
19	0x3f21069e	0.6290072
20	0xbe955453	-0.29165897
21	0xbf4831b0	-0.7820082
22	0x3e8bd952	0.2731424
23	0xbfe9807f	-1.8242339
24	0x40184e85	2.3797925
25	0xbe1db831	-0.15402295
26	0xba2ecf70	-0.0006668484
27	0xbc8507cb	-0.016239068
28	0x3f0a97be	0.5413779
29	0xbc5c5fdd	-0.01345059
30	0xbbf94eda	-0.007608277
31	0x3ed7dee6	0.42162246
32	0x3e6abab1	0.2292278
33	0x3fc92767	1.571515
34	0xbf29ff6c	-0.6640537
35	0xbf9c4ea5	-1.22115
36	0xbe3dd859	-0.18539561
37	0x3f65d561	0.89778715
38	0x3e48d337	0.19611822
39	0x3ecbb586	0.3978693
40	0x3f4796f3	0.77964705
41	0x3e9d58b1	0.3073173
42	0xbe1e51bc	-0.15460867
43	0xbce1058c	-0.027468465
44	0x3e0b56ed	0.13607378
45	0xbf131e89	-0.5746847
46	0x3ed3e12a	0.41382724
47	0xbf919ae6	-1.1375396
